models/weights/cringe.pth (torch, 640610 bytes, 12 tensors)

shared_proj.0.weight f4 [256, 256]
0	0xbd3723ac	-0.044711754
1	0x3cbad9d9	0.022808956
2	0xbce5ad05	-0.028036604
3	0x3d6322a9	0.055452976
4	0xbd31ffdc	-0.043456897
5	0xbce52a00	-0.027974129
6	0xbc609210	-0.013706699
7	0xbb95d706	-0.004572752
8	0x3c9b2f60	0.018943489
9	0x3bbfe9f1	0.0058567454
10	0x3d1c8b4b	0.038218778
11	0xbc6d34ff	-0.014477967
12	0xbd4f8231	-0.05066127
13	0xbd4c3025	-0.0498506
14	0xbbe30e56	-0.006929199
15	0x3d50a1e4	0.05093564
16	0x3d0ad22a	0.033891834
17	0xb9b26714	-0.00034027605
18	0xbd6b9bd8	-0.05752167
19	0xbd1e4389	-0.038638625
20	0x3bd34b57	0.00644819
21	0xbd363188	-0.04448083
22	0xbb88d14a	-0.00417534
23	0x3d101c47	0.035183217
24	0x3d1986de	0.037482135
25	0xbc45ad8a	-0.012065301
26	0xbce88a84	-0.028386362
27	0xbc2b01d0	-0.010437444
28	0xbc71e892	-0.014764922
29	0x3cdc143c	0.026865117
30	0xbcc696e1	-0.024241867
31	0xbd36f629	-0.04466835
32	0x3d5d6615	0.05405243
33	0xbbe9b09f	-0.0071316506
34	0x3cffb972	0.031216357
35	0xbd1b27e8	-0.037879854
36	0xbd41c3bd	-0.04730581
37	0xbbf3b92f	-0.007437847
38	0xbc741eb2	-0.014899896
39	0x3ce47eab	0.027892431
40	0xbd6e98cf	-0.0582512
41	0xbcd7d053	-0.026344454
42	0x3cbd0e93	0.023078239
43	0xbd138be2	-0.036022075
44	0x3d2a26e6	0.041541003
45	0x3d64c540	0.055852175
46	0xbd25dd89	-0.040494476
47	0x3cf1345b	0.02944391
48	0xbd67a3e3	-0.05655278
49	0xbd1f4c62	-0.038891204
50	0xbca17847	-0.019710673
51	0x3d0f12bf	0.034929987
52	0x3d14c379	0.03631923
53	0x3c46373e	0.012098132
54	0x3c56d277	0.013111702
55	0xbc949d50	-0.018141419
56	0x3d351da3	0.044217717
57	0x3d6c756b	0.057729166
58	0x3d6d2541	0.057896856
59	0x3cbc6ef7	0.02300213
60	0xbd4b7ade	-0.049677722
61	0xbcb34e4c	-0.02188792
62	0x3cbabce7	0.022795154
63	0x3d2f2306	0.04275801
64	0x3d5e36e2	0.05425156
65	0xbc2406a8	-0.010011353
66	0x3b000d48	0.0019539166
67	0x3cfebc9b	0.031095793
68	0xbd482740	-0.048865557
69	0xbd6fe3be	-0.0585668
70	0xbd78ded4	-0.06075938
71	0x3d3c0cd7	0.045910683
72	0xbcb2a23a	-0.021805871
73	0x3c900831	0.017582031
74	0x3c8e0567	0.01733656
75	0xbd2904ea	-0.041264452
76	0x3cdc81cf	0.026917366
77	0xbc249f19	-0.010047697
78	0xbced787c	-0.028988115
79	0xbd44ac61	-0.048015956
80	0x3bdd2928	0.006749291
81	0x3a139c7e	0.0005630924
82	0x3c6b810a	0.014374027
83	0xbc91874e	-0.017764714
84	0xbd211427	-0.03932586
85	0xbbc6c14c	-0.0060655233
86	0xbc23df13	-0.0100019155
87	0xbd65658f	-0.056005057
88	0x3c8c9c76	0.01716445
89	0xbca86a3c	-0.020558469
90	0xba73e9e1	-0.0009304565
91	0x3d5f5424	0.054523602
92	0x3c8a3267	0.016869737
93	0xbd79d2af	-0.06099194
94	0xbcabd290	-0.020974427
95	0x3cdd2441	0.026994826
96	0x3c4d57d6	0.012533149
97	0xbbc9d34f	-0.006159223
98	0xbd5ae8cd	-0.053444672
99	0x3d285570	0.041097105
100	0xbc0cbc46	-0.00858981
101	0x3cc3b45f	0.023889719
102	0xbc37d0a6	-0.011219179
103	0x3c84ad2e	0.01619586
104	0xbd289db7	-0.041166034
105	0x3d08d9a3	0.03341068
106	0xbc1c99ea	-0.00955818
107	0x3c01cc3a	0.007922227
108	0x3cfae76f	0.030627934
109	0x3ca331e2	0.019921247
110	0xbc838af5	-0.01605747
111	0x3c602cde	0.013682572
112	0x3d258c45	0.040416975
113	0x3ca83cd3	0.020536816
114	0x3d632064	0.055450812
115	0xbc8b3a62	-0.016995613
116	0xbd362d7a	-0.044476964
117	0xbd4a6d1c	-0.04942046
118	0xbd27ec0b	-0.040996592
119	0xbd0e764f	-0.034780797
120	0xbd74b6ee	-0.059744768
121	0xbd78fd91	-0.060788695
122	0x3d1c46fe	0.03815364
123	0x3cc3c203	0.023896223
124	0xbc7db432	-0.015484856
125	0x3c85be6f	0.016326157
126	0xbcfcf0f2	-0.03087661
127	0xbd61bafb	-0.05510996
128	0x3d80f578	0.062968194
129	0x3c9cafc7	0.019126786
130	0x3cafe4ae	0.021471348
131	0xbd562c97	-0.052288618
132	0x3c57d49c	0.013173249
133	0x3d0b5af6	0.034022294
134	0xbc6b0cf2	-0.014346348
135	0xbd0b7190	-0.03404385
136	0x3d1fc24d	0.03900366
137	0xbc29c357	-0.010361514
138	0xbd5e01ce	-0.05420094
139	0xbc805f5b	-0.015670469
140	0x3d490d02	0.04908467
141	0xbd414784	-0.047187343
142	0x3d587b38	0.052851886
143	0xbcb0f02d	-0.0215989
144	0x3d30fdd8	0.043210834
145	0x3d5d1110	0.05397135
146	0x3cdf7b6d	0.027280534
147	0x3d6c39c6	0.057672285
148	0x3d6affd1	0.05737287
149	0x3c7e6d26	0.015528953
150	0xbd03851a	-0.032109357
151	0x3d28f789	0.041251693
152	0xbd5bfc52	-0.05370743
153	0x3b4e3636	0.0031465418
154	0x3b51328d	0.0031921
155	0xbd34fd81	-0.044187073
156	0xbd372787	-0.04471543
157	0x3d475e46	0.04867389
158	0xbd48b712	-0.049002714
159	0xbd5733d5	-0.052539665
160	0x3c927354	0.017877258
161	0x3d1d57a3	0.038413655
162	0x3d3a1a66	0.04543533
163	0x3d73f12c	0.05955617
164	0x3d7280e4	0.05920495
165	0xbd47c059	-0.04876742
166	0xbd1b515f	-0.0379194
167	0xbb067e27	-0.002052197
168	0xbcf01ca0	-0.029310524
169	0x3c69816e	0.01425205
170	0xbadbc13f	-0.0016765966
171	0x3c3878e5	0.011259292
172	0x3ced4a08	0.028965965
173	0x3c2f7878	0.010709874
174	0x3cf3cd5c	0.029761009
175	0xbd0e745c	-0.034778938
176	0x3d49fa39	0.049310897
177	0x3d3aaf50	0.045577347
178	0xbc37eda0	-0.011226088
179	0x3d5d258e	0.053990893
180	0xbd78661b	-0.06064425
181	0x3cb4e0c7	0.022079838
182	0xbce36acb	-0.027760884
183	0x3d068721	0.032843713
184	0x3d0046de	0.031317584
185	0x3c166635	0.0091796415
186	0x3b10c660	0.0022090897
187	0xbc3074df	-0.010770052
188	0x3caeb07c	0.021324389
189	0x3d1798df	0.037011024
190	0x3d164125	0.03668322
191	0xbd27d36f	-0.040973123
192	0xbd3c6740	-0.045996904
193	0xbcc139b2	-0.023587082
194	0xbcb43449	-0.021997588
195	0xbc657b8e	-0.0140065085
196	0xbd574d52	-0.052563973
197	0xbd7521c5	-0.05984666
198	0xbcea1bc8	-0.0285777
199	0x3d22bf05	0.03973295
200	0xbd1d12a9	-0.038347874
201	0xbd5e1405	-0.05421831
202	0x3bf1b58b	0.007376378
203	0x3bbb7588	0.005720798
204	0xbd66bd90	-0.056333125
205	0xbc781823	-0.015142473
206	0x3cd4a78c	0.025958799
207	0xbc4fc75a	-0.012681806
208	0xbd73fb03	-0.059565555
209	0xbd8035b8	-0.06260246
210	0xbd22d9b2	-0.03975839
211	0xbd036696	-0.032080255
212	0xbd821be4	-0.06352976
213	0xbc884526	-0.016634535
214	0x3d44666f	0.04794925
215	0xbb620b8e	-0.003449175
216	0x3d490f8b	0.04908709
217	0xbce64ace	-0.028111842
218	0xbd222b81	-0.03959227
219	0x3cc25bc7	0.023725403
220	0x3ca93457	0.02065484
221	0xbcfaccdb	-0.03061526
222	0x3cba6cdf	0.022756992
223	0xbd55adc5	-0.052167673
224	0x3d2abe00	0.041685104
225	0x3b8cab17	0.0042928564
226	0xbd1dcfe5	-0.03852834
227	0xbd0f71b0	-0.03502053
228	0xbccdc6e8	-0.02511926
229	0xbcc965d4	-0.024584688
230	0xbcc7ec43	-0.02440465
231	0x3ccf9a38	0.025342092
232	0xbaeb4346	-0.0017949126
233	0xbcc97029	-0.024589615
234	0x3d4326b6	0.04764434
235	0xbd6daa1d	-0.05802356
236	0xbd063f22	-0.032775052
237	0xbd63a8d6	-0.055580936
238	0xbc7d19c7	-0.01544804
239	0x3d0bf34b	0.03416757
240	0xbd14f348	-0.036364824
241	0x3d817188	0.063204825
242	0xbc517283	-0.012783649
243	0xbcae6b9c	-0.021291547
244	0xbccdfc19	-0.025144624
245	0x3cc192f4	0.023629643
246	0xbc8bb76a	-0.017055232
247	0x3d499020	0.049209714
248	0x3d3d66ea	0.046240725
249	0xbcd32479	-0.025774227
250	0xbd5d4371	-0.054019395
251	0x3d10ad61	0.035321597
252	0xbb0575f5	-0.0020364497
253	0xbc46b687	-0.012128479
254	0xbc75e930	-0.0150092095
255	0xbd07c697	-0.033148374

shared_proj.0.bias f4 [256]
0	0xbc0de945	-0.008661573
1	0x3d180ef5	0.03712364
2	0x3ca6d32f	0.020364372
3	0xbbc2c1f7	-0.0059435326
4	0x3d3d1875	0.046165902
5	0xbd1f4a72	-0.038889356
6	0x3d07c7c7	0.033149507
7	0xbd65e17c	-0.05612324
8	0xbce37759	-0.02776687
9	0xbd31c02a	-0.043396153
10	0x3cfeb5ae	0.031092491
11	0xbc2405bd	-0.010011134
12	0xbd3e7f3d	-0.046508063
13	0xbcf4f283	-0.029900795
14	0xbb1e4c99	-0.0024154542
15	0x3d28eb88	0.041240245
16	0x3c73ecfe	0.014888046
17	0xbd32c631	-0.04364604
18	0xbcee4322	-0.029084746
19	0xbca60b70	-0.020269126
20	0xbd7724b7	-0.06033775
21	0x3d10c062	0.03533972
22	0x3cb96a6f	0.02263376
23	0xbc221f62	-0.009895178
24	0xbd21e611	-0.03952605
25	0x3d82a092	0.063782826
26	0x3d5ae07e	0.05343675
27	0x3c0e8abe	0.008700071
28	0xbd0a53f4	-0.03377147
29	0xbd1cbb93	-0.038264822
30	0x3ccb2649	0.02479853
31	0x3d45efaa	0.048324265
32	0xbd63e0b3	-0.05563421
33	0x3ce3178b	0.027721187
34	0xbca85143	-0.020546561
35	0xbc291fa2	-0.010322483
36	0x3d43e4a0	0.047825456
37	0x3c686f70	0.014186725
38	0x3caf2ee0	0.021384656
39	0xbd4bdab3	-0.049769115
40	0xbc24aa3e	-0.0100503545
41	0xbb08eb76	-0.0020892299
42	0xbcbedb6e	-0.023297992
43	0xbd2ca265	-0.04214706
44	0xbbd2530f	-0.0064185928
45	0xbc9f464f	-0.019442705
46	0x3cb153cc	0.021646403
47	0xbce7da32	-0.028302286
48	0xbd1dfb93	-0.038569998
49	0x3d151981	0.036401276
50	0xbd06ac55	-0.032879192
51	0x3b6c560b	0.0036062028
52	0x3d6f0e2b	0.05836312
53	0x39e5583f	0.00043744032
54	0x3d4c79ba	0.049920775
55	0xbcfe74c6	-0.031061541
56	0x3c91c2ba	0.017793048
57	0xbca50ca9	-0.020147638
58	0x3d0921e1	0.033479575
59	0x3baac555	0.005211512
60	0xbd72a398	-0.059238046
61	0x3c888243	0.016663676
62	0x3d7890c0	0.06068492
63	0x3d2e9402	0.04262162
64	0xbce379f0	-0.027768105
65	0xbcebfe82	-0.028807882
66	0xbb82316f	-0.003973178
67	0xbd7d5fdf	-0.061859008
68	0x3b4d1f2a	0.0031299093
69	0xbd3ef9fc	-0.046625122
70	0xbd76b4ea	-0.060231127
71	0x3ba4d2bb	0.005030004
72	0xbcd7c7a1	-0.026340308
73	0x3bd53609	0.0065066856
74	0x3c18ac2a	0.009318391
75	0xbcdd5265	-0.027016828
76	0x3bdadee1	0.0066794013
77	0x3d679d3e	0.056546442
78	0x3d6520d1	0.0559395
79	0x3c3f220a	0.01166583
80	0x3d31fca0	0.043453813
81	0x3d232770	0.039832532
82	0x3d61a10e	0.055085234
83	0x3d5b9126	0.05360522
84	0xbcc4eb58	-0.024038002
85	0xbd0ca98e	-0.034341387
86	0xbc240728	-0.010011472
87	0x3c7c0216	0.015381357
88	0x3cbd03f7	0.02307318
89	0x3cf78b55	0.030217806
90	0xbd1292a3	-0.035784375
91	0x3b7bce05	0.0038422358
92	0x3d55d1d9	0.05220208
93	0xbd2e6e16	-0.042585455
94	0xbcaac006	-0.020843517
95	0x3d0b086e	0.033943586
96	0xbce14298	-0.027497575
97	0x3d43ae63	0.04777373
98	0xbcdc7fd3	-0.02691642
99	0x3d685ba0	0.056728005
100	0x3d71ab4c	0.059001252
101	0x3cc11b15	0.023572484
102	0xbc4aed1b	-0.012385632
103	0xbbff86ad	-0.007798037
104	0xbc5ef01a	-0.013607049
105	0xbd470f0e	-0.04859834
106	0x3d6301e4	0.055421725
107	0xbc3b7746	-0.011442011
108	0x3d3e52da	0.046465732
109	0x3831fde3	4.243654e-05
110	0x3d611a19	0.05495653
111	0xbcb22898	-0.021747872
112	0x3d4d9191	0.05018765
113	0xbd232b04	-0.039835945
114	0xbc4e85bd	-0.012605128
115	0x3d7dd46c	0.06197016
116	0x3cc251b4	0.0237206
117	0xbd5331d6	-0.0515612
118	0xbc23f251	-0.010006503
119	0x3d4a790a	0.049431838
120	0x3d6aed74	0.05735536
121	0xbc7e23f7	-0.015511504
122	0xbb14d716	-0.002271121
123	0xbb044199	-0.00201807
124	0x3d2e0798	0.04248771
125	0x3cff88b1	0.03119311
126	0x3d294726	0.041327618
127	0x3c478805	0.012178426
128	0xbcfff5ca	-0.031245131
129	0x3d82728f	0.063695066
130	0xbd0f7496	-0.035023294
131	0x3aaedfee	0.0013341883
132	0x3d2a996c	0.04165022
133	0x3d659979	0.056054566
134	0x3be8a9f5	0.0071003386
135	0xbbf29ddd	-0.0074040727
136	0x3b2c7595	0.0026315202
137	0xbcec2ac9	-0.028828995
138	0x3d5999d8	0.053125232
139	0xbd2dc278	-0.042421788
140	0xbbdbae54	-0.006704131
141	0xb9283f3b	-0.00016045284
142	0x3ce737d1	0.028224858
143	0xbd07b6b7	-0.033133235
144	0x3d7b569b	0.06136189
145	0x3c7b293d	0.015329656
146	0xbca22b8c	-0.019796155
147	0xbc87493c	-0.016514413
148	0x3ac232ba	0.0014816143
149	0xbd4f3381	-0.050586227
150	0x3d20d32a	0.03926388
151	0x3d1dcf19	0.03852758
152	0xbd27c136	-0.040955745
153	0x3cc2aa4b	0.023762843
154	0x3b0d6f5a	0.0021581263
155	0x3cfa38e9	0.030544715
156	0xbd5668d2	-0.05234606
157	0xbcd68137	-0.026184661
158	0x3ce1865d	0.02752989
159	0x3c92984a	0.017894883
160	0xbd244b8d	-0.040111113
161	0xbce6c98b	-0.028172275
162	0xbd59df7a	-0.05319164
163	0x3d378cb3	0.044811916
164	0xbd2a4b85	-0.041575927
165	0x3cb4235e	0.02198952
166	0xbd241184	-0.040055767
167	0x3cc2f15c	0.02379673
168	0x3d7018f3	0.058617543
169	0x3d43ddbc	0.047818884
170	0x3c61d6be	0.013784109
171	0x3d5d0590	0.053960383
172	0x3cd9f340	0.026605248
173	0x3d14e4c3	0.036350977
174	0x3d3ee702	0.046607025
175	0xbd64ba35	-0.055841643
176	0x3cf4ff7a	0.029906977
177	0x3c981762	0.018565837
178	0xbd38cc85	-0.04511692
179	0xbb46bab0	-0.0030323677
180	0x3d15aa9c	0.03653966
181	0xbc73d471	-0.014882193
182	0x3d0ffa4c	0.03515081
183	0xbd1e7c0d	-0.038692523
184	0xba3b8b6f	-0.0007154261
185	0x3ce7a95a	0.028278995
186	0xbc094e2b	-0.008380453
187	0xbd2ee5e0	-0.042699695
188	0x3d323e0e	0.04351621
189	0xbc25827e	-0.010101913
190	0x3d5bb490	0.053638995
191	0x3d1e34e9	0.038624678
192	0xbcfded51	-0.03099695
193	0x3b9bc497	0.00475366
194	0x3d2a276d	0.041541506
195	0xbcc4f819	-0.024044083
196	0x3d56dcca	0.052456655
197	0xbd28b844	-0.041191354
198	0x3bf3e013	0.007442483
199	0xbd29f876	-0.041496716
200	0xbc81dd6a	-0.015852649
201	0xbc9331c9	-0.017968075
202	0x3cb9d385	0.022683868
203	0xbcffa5aa	-0.031206924
204	0xbcd20c41	-0.025640609
205	0x3bbe1d9b	0.005801869
206	0x3cf84971	0.030308457
207	0xbbaff0ef	-0.0053692977
208	0x3a7fde07	0.00097605627
209	0xbcf39d36	-0.02973805
210	0x3ba7e693	0.005123922
211	0x3d280cd2	0.04102785
212	0x3c177cac	0.009246033
213	0x3c9cdb20	0.019147456
214	0x3c3028d3	0.010751921
215	0xbd29ea75	-0.04148336
216	0x3d5db1ef	0.05412477
217	0xbd0fa6eb	-0.035071295
218	0x3ca6fddb	0.02038472
219	0xbbf0d624	-0.0073497463
220	0xbcbc685b	-0.02299898
221	0x3d44eb9b	0.048076253
222	0xba21b76a	-0.00061689934
223	0xbd15b24b	-0.036546987
224	0xbc1afa4c	-0.0094590895
225	0x3d78bf86	0.060729526
226	0x3c916412	0.017747913
227	0x3d2c7ea0	0.042112947
228	0xbabfa7e6	-0.0014622181
229	0x3c8b5e18	0.01701264
230	0x3d2f4e14	0.04279907
231	0x3d2a1423	0.04152311
232	0x3c561aa5	0.013067876
233	0xbd2024b9	-0.03909752
234	0xbd0666ae	-0.032812767
235	0xbc37d3cd	-0.011219931
236	0x3bfa0e37	0.007631089
237	0xbcedaeeb	-0.029014071
238	0x3cea7146	0.028618466
239	0x3d40a0bd	0.047028292
240	0xbd2888e6	-0.04114618
241	0xbc98158a	-0.018564958
242	0xbd157301	-0.03648663
243	0x3af8affc	0.0018973346
244	0xbd493a19	-0.049127672
245	0x3c6cdc64	0.014456842
246	0x3be82160	0.0070840567
247	0x3d257ba7	0.040401127
248	0xb5587bbf	-8.0646345e-07
249	0x3d728427	0.05920806
250	0x3cd9d0cb	0.026588818
251	0x3a1e3ad7	0.00060359895
252	0x3c0f8afd	0.008761165
253	0x3d070118	0.032960027
254	0x3d36ec48	0.04465893
255	0xbbc7dae8	-0.0060990937

shared_proj.2.weight f4 [256]
0	0x3f8038de	1.0017354
1	0x3f800e5c	1.0004382
2	0x3f7ec1b5	0.99514323
3	0x3f801b41	1.0008317
4	0x3f80f565	1.0074888
5	0x3f7f229f	0.996622
6	0x3f800c52	1.000376
7	0x3f803647	1.0016564
8	0x3f7ff907	0.9998936
9	0x3f80dd9f	1.0067633
10	0x3f800886	1.0002601
11	0x3f7efa10	0.99600315
12	0x3f802a9a	1.0013001
13	0x3f802b73	1.001326
14	0x3f809e29	1.0048267
15	0x3f802dfa	1.0014031
16	0x3f80dc39	1.0067207
17	0x3f803487	1.001603
18	0x3f809b45	1.0047385
19	0x3f802372	1.0010817
20	0x3f7ff949	0.99989754
21	0x3f7eb02f	0.99487585
22	0x3f8012ed	1.0005776
23	0x3f7f96b4	0.9983933
24	0x3f80da93	1.0066704
25	0x3f7f3d56	0.99702966
26	0x3f7fc610	0.99911594
27	0x3f8041af	1.0020045
28	0x3f809091	1.0044118
29	0x3f809c6a	1.0047734
30	0x3f80559a	1.0026124
31	0x3f7f9b03	0.99845904
32	0x3f7ee350	0.995656
33	0x3f80e88f	1.0070971
34	0x3f7f571f	0.9974231
35	0x3f80dbb1	1.0067044
36	0x3f7f6dcb	0.99776906
37	0x3f80a0fc	1.0049129
38	0x3f80042e	1.0001276
39	0x3f7f1d30	0.9965391
40	0x3f7f1ec4	0.9965632
41	0x3f7fafd0	0.99877644
42	0x3f80504d	1.0024506
43	0x3f806a18	1.0032377
44	0x3f802fec	1.0014625
45	0x3f8095c9	1.0045711
46	0x3f7fa86a	0.99866354
47	0x3f7f842a	0.9981104
48	0x3f7fb524	0.99885774
49	0x3f80a12f	1.0049189
50	0x3f7fe027	0.99951404
51	0x3f803735	1.0016848
52	0x3f7eb46a	0.9949404
53	0x3f80645f	1.0030631
54	0x3f7f7e9b	0.9980256
55	0x3f809523	1.0045513
56	0x3f7f6401	0.9976197
57	0x3f7fd15b	0.99928826
58	0x3f80755f	1.0035819
59	0x3f7fcbb6	0.99920213
60	0x3f808b8f	1.004259
61	0x3f7ed526	0.9954399
62	0x3f7f53ea	0.9973742
63	0x3f7f5a10	0.997468
64	0x3f8069f0	1.003233
65	0x3f7fc455	0.99908954
66	0x3f805894	1.0027032
67	0x3f807855	1.0036722
68	0x3f808804	1.0041509
69	0x3f80427f	1.0020293
70	0x3f7ef65b	0.9959466
71	0x3f8077cb	1.0036558
72	0x3f80da5a	1.0066636
73	0x3f805188	1.0024881
74	0x3f806ae5	1.0032622
75	0x3f7fb214	0.998811
76	0x3f7edbc9	0.99554116
77	0x3f7ffef1	0.99998385
78	0x3f7f3539	0.99690586
79	0x3f7f66e1	0.99766356
80	0x3f811930	1.0085812
81	0x3f807925	1.003697
82	0x3f7f3a10	0.9969797
83	0x3f80f0d1	1.0073491
84	0x3f804610	1.0021381
85	0x3f804577	1.0021199
86	0x3f7f7d5e	0.9980067
87	0x3f80db9f	1.0067023
88	0x3f803119	1.0014983
89	0x3f802e85	1.0014197
90	0x3f8026f5	1.0011889
91	0x3f7f7f54	0.9980366
92	0x3f808275	1.0039812
93	0x3f80b5d8	1.0055494
94	0x3f7f51dd	0.9973429
95	0x3f7f4b62	0.997244
96	0x3f7ed6fd	0.99546796
97	0x3f806bb2	1.0032866
98	0x3f801e4f	1.000925
99	0x3f8089ec	1.004209
100	0x3f80a127	1.004918
101	0x3f7f494b	0.9972121
102	0x3f813af5	1.0096117
103	0x3f7fe773	0.9996254
104	0x3f813f51	1.0097448
105	0x3f7f2229	0.996615
106	0x3f80c127	1.0058945
107	0x3f8051fc	1.002502
108	0x3f7f7c4d	0.9979904
109	0x3f7f99c5	0.9984401
110	0x3f800b5e	1.0003469
111	0x3f808c57	1.0042828
112	0x3f7f71f4	0.99783254
113	0x3f800e32	1.0004332
114	0x3f805e58	1.0028791
115	0x3f800bcc	1.00036
116	0x3f7ee837	0.9957308
117	0x3f8081c8	1.0039606
118	0x3f7f1f5b	0.9965722
119	0x3f809172	1.0044386
120	0x3f7f9660	0.9983883
121	0x3f809354	1.0044961
122	0x3f80958c	1.0045638
123	0x3f800115	1.000033
124	0x3f80418e	1.0020006
125	0x3f806966	1.0032165
126	0x3f801623	1.0006756
127	0x3f804685	1.0021521
128	0x3f809681	1.004593
129	0x3f803487	1.001603
130	0x3f7f7d98	0.99801016
131	0x3f7f5ce3	0.9975111
132	0x3f8077aa	1.0036519
133	0x3f80ad99	1.0052978
134	0x3f804f70	1.0024242
135	0x3f80a8fe	1.0051572
136	0x3f8060e5	1.002957
137	0x3f8116a1	1.0085031
138	0x3f7fed4d	0.9997147
139	0x3f80625c	1.0030017
140	0x3f80335d	1.0015675
141	0x3f8037d7	1.0017041
142	0x3f800bb3	1.000357
143	0x3f7f36b8	0.9969287
144	0x3f811d8c	1.0087142
145	0x3f7fb18a	0.9988028
146	0x3f80d316	1.0064418
147	0x3f80adee	1.0053079
148	0x3f7f74cc	0.9978759
149	0x3f7f6c22	0.9977437
150	0x3f80123c	1.0005565
151	0x3f80473a	1.0021737
152	0x3f80910f	1.0044268
153	0x3f809bde	1.0047567
154	0x3f7f453b	0.9971501
155	0x3f801bb6	1.0008457
156	0x3f7ffc98	0.999948
157	0x3f7efce2	0.9960462
158	0x3f8099a1	1.0046884
159	0x3f8029a7	1.0012711
160	0x3f80bc43	1.0057453
161	0x3f7f8d0d	0.998246
162	0x3f806e07	1.0033578
163	0x3f7f2b90	0.99675846
164	0x3f808fcf	1.0043887
165	0x3f7f0fdc	0.99633574
166	0x3f804e15	1.0023829
167	0x3f7f04cb	0.9961669
168	0x3f7fd2d4	0.99931073
169	0x3f80524f	1.0025119
170	0x3f805fb1	1.0029203
171	0x3f808d06	1.0043037
172	0x3f7f028a	0.9961325
173	0x3f8054d3	1.0025886
174	0x3f7f3ba9	0.9970041
175	0x3f7fae06	0.99874914
176	0x3f800f9e	1.0004766
177	0x3f7f7cf4	0.9980004
178	0x3f8086ac	1.0041099
179	0x3f7eafbf	0.9948692
180	0x3f807a29	1.003728
181	0x3f80ab1c	1.0052218
182	0x3f7f878d	0.9981621
183	0x3f80799e	1.0037115
184	0x3f7f7d49	0.99800545
185	0x3f8165e3	1.0109218
186	0x3f7f9d15	0.99849063
187	0x3f8051fa	1.0025017
188	0x3f809fd5	1.0048777
189	0x3f7f85bf	0.99813455
190	0x3f80100a	1.0004895
191	0x3f7f73a1	0.9978581
192	0x3f7eeb6b	0.9957797
193	0x3f7f9c76	0.99848115
194	0x3f7f686f	0.9976873
195	0x3f807792	1.003649
196	0x3f801338	1.0005865
197	0x3f803b61	1.0018121
198	0x3f804573	1.0021194
199	0x3f7fd217	0.99929947
200	0x3f80639c	1.0030398
201	0x3f806688	1.003129
202	0x3f80f4c9	1.0074703
203	0x3f7f8571	0.9981299
204	0x3f80c6a9	1.0060626
205	0x3f8031f7	1.0015248
206	0x3f8100f4	1.0078416
207	0x3f808754	1.0041299
208	0x3f80a011	1.0048848
209	0x3f7eccf2	0.9953147
210	0x3f809718	1.004611
211	0x3f8019ff	1.0007933
212	0x3f8068c8	1.0031977
213	0x3f80900b	1.0043958
214	0x3f7efa58	0.99600744
215	0x3f81ae56	1.0131328
216	0x3f7f916c	0.9983127
217	0x3f80a778	1.0051107
218	0x3f80a3e2	1.0050013
219	0x3f80ae86	1.005326
220	0x3f7fa523	0.99861354
221	0x3f8054f6	1.0025928
222	0x3f7ff2db	0.99979943
223	0x3f80162c	1.0006766
224	0x3f7ff0be	0.9997672
225	0x3f7fd98d	0.9994133
226	0x3f7f7b67	0.9979767
227	0x3f80c887	1.0061196
228	0x3f802fab	1.0014547
229	0x3f80a7ca	1.0051205
230	0x3f80aa6c	1.0052009
231	0x3f7fde1f	0.99948305
232	0x3f7ee43b	0.99567
233	0x3f7f40db	0.99708337
234	0x3f7f6651	0.997655
235	0x3f80d9da	1.0066483
236	0x3f8086ef	1.0041178
237	0x3f8084e9	1.0040561
238	0x3f805d44	1.0028462
239	0x3f80c79f	1.006092
240	0x3f7f6920	0.99769783
241	0x3f7f3c37	0.99701256
242	0x3f7fad24	0.99873567
243	0x3f80afde	1.005367
244	0x3f808e4d	1.0043427
245	0x3f7f5c4f	0.99750227
246	0x3f7f93cd	0.998349
247	0x3f809427	1.0045213
248	0x3f7ead72	0.99483407
249	0x3f806b7e	1.0032804
250	0x3f806601	1.0031129
251	0x3f814647	1.0099572
252	0x3f8005e3	1.0001796
253	0x3f7f93dc	0.9983499
254	0x3f8027e5	1.0012175
255	0x3f80e8d2	1.0071051

shared_proj.2.bias f4 [256]
0	0xbb84e22e	-0.004055283
1	0x3b4787bf	0.0030445901
2	0x3aab3442	0.0013061839
3	0x3bbfed6a	0.0058571594
4	0x3bb01bf6	0.005374427
5	0x3a2a7de7	0.0006503746
6	0x3b02291f	0.0019860936
7	0xbb48d741	-0.003064588
8	0xbb37a68e	-0.0028022858
9	0x3bd84914	0.0066005085
10	0x3b0b24f0	0.0021231733
11	0x3b2220e3	0.002473884
12	0x3b54e5c5	0.0032485586
13	0xbb57b5f2	-0.0032914844
14	0x3b9d17a5	0.0047940784
15	0xbbab5466	-0.005228567
16	0xbbd4e41a	-0.0064969184
17	0xbb5f95e4	-0.0034116441
18	0x3bab7843	0.005232842
19	0x3bb06b8e	0.0053839153
20	0xbb4b6824	-0.0031037414
21	0xb8ab2a84	-8.1618346e-05
22	0x3b51e6f6	0.0032028533
23	0xba692a4a	-0.0008894546
24	0x3bd74787	0.006569806
25	0x3a144a8d	0.0005656861
26	0xba854259	-0.0010166868
27	0xbba600d3	-0.005066016
28	0xbbc05c38	-0.0058703683
29	0xbbc64a1b	-0.0060513145
30	0x3b6cf2bf	0.003615543
31	0x3b091681	0.0020917954
32	0x3b2800a5	0.002563515
33	0x3be65405	0.007029059
34	0x39ee3933	0.00045437514
35	0x3bbea5e0	0.0058181137
36	0xbb11f062	-0.0022268523
37	0xbbaf6090	-0.0053520873
38	0x3af98868	0.0019037845
39	0x3ab6c9d7	0.0013945651
40	0x3afdf922	0.0019376616
41	0xba77cc39	-0.0009452734
42	0x3b8166b6	0.0039490117
43	0xbba31f04	-0.0049780626
44	0x3b5a3f47	0.0033301876
45	0xbbbbf275	-0.0057356902
46	0xb92efc8d	-0.00016688016
47	0xb9b2f6ef	-0.00034134786
48	0xbb65a262	-0.0035039415
49	0x3bbf2cdf	0.0058342065
50	0xbb0db637	-0.00216235
51	0xbb85a70e	-0.0040787524
52	0x3b455cd4	0.0030115144
53	0xbbaa6b05	-0.005200746
54	0xbb402fa9	-0.0029325283
55	0xbbc82a51	-0.00610856
56	0x391235c5	0.00013943676
57	0xbb364473	-0.0027811795
58	0xbbb3456b	-0.0054709218
59	0x3a1f23d6	0.00060707086
60	0xbbce4dba	-0.006295887
61	0x3b49c169	0.0030785447
62	0x3b1d31bc	0.0023985943
63	0x3936f641	0.0001744861
64	0xbbc4d83b	-0.006007222
65	0x3b55f0bf	0.0032644717
66	0xbb9c62ac	-0.004772505
67	0xbba78038	-0.0051117204
68	0x3bc34176	0.0059587313
69	0xbb8c1a61	-0.0042756055
70	0x3af426c0	0.0018627271
71	0xbbbb8ba6	-0.0057234345
72	0x3bc01845	0.005862268
73	0xbb816da2	-0.003949837
74	0xbbb68138	-0.0055696033
75	0xbac000cc	-0.0014648675
76	0x3b43c221	0.0029870349
77	0xbb1dce24	-0.0024079168
78	0x3b246c2c	0.002508889
79	0xbb265ba0	-0.0025384203
80	0x3bef5806	0.0073041944
81	0xbbcbb83e	-0.0062170317
82	0x3b482354	0.0030538635
83	0x3bdcac56	0.006734411
84	0xbb859eff	-0.0040777917
85	0xbb89c844	-0.0042047817
86	0xba9c36ce	-0.0011918189
87	0x3bd7f5ed	0.006590596
88	0xbb3ffcf4	-0.002929506
89	0xbb759a5c	-0.0037476039
90	0xbb5453c9	-0.0032398573
91	0xbb290bd0	-0.0025794394
92	0xbbac42f6	-0.005257006
93	0x3ba4c2cb	0.005028104
94	0xbae21471	-0.0017248524
95	0xbaf63113	-0.0018782936
96	0x3b440f3b	0.0029916305
97	0xbb988003	-0.004653932
98	0xbb62838b	-0.003456327
99	0x3b8db340	0.004324347
100	0x3babb893	0.005240509
101	0xbae6e90c	-0.0017617061
102	0x3bbec77a	0.0058221193
103	0xbaf20b9a	-0.0018466592
104	0x3be82199	0.0070840833
105	0x3b65abef	0.0035045107
106	0x3bbd0a06	0.005769017
107	0xbb8b8d15	-0.0042587616
108	0x3a8f3c90	0.0010928083
109	0x3b19c1f2	0.0023461548
110	0xbb938f71	-0.0045031835
111	0xbbbbd6c9	-0.0057323915
112	0x3a61a5dc	0.0008607784
113	0x3b21c781	0.0024685564
114	0xbb86f72f	-0.004118822
115	0xbb06c4f0	-0.0020564161
116	0xba860c9f	-0.001022715
117	0xbba0ad2d	-0.0049034567
118	0x3b294ad9	0.0025831966
119	0xbbc137f3	-0.0058965622
120	0xbaa24791	-0.0012380948
121	0xbbcb71fd	-0.006208657
122	0xbbb7aaee	-0.005605093
123	0xbbad6caf	-0.005292497
124	0xbb9499bb	-0.0045349277
125	0xbba77d34	-0.005111361
126	0x3af2c7e6	0.0018522709
127	0x3b93ae90	0.0045068935
128	0x3bb8020b	0.005615478
129	0x3b546b48	0.0032412577
130	0xba37821c	-0.0007000284
131	0x395f63ef	0.00021304165
132	0xbba424bf	-0.0050092633
133	0x3bc6e4d5	0.0060697594
134	0xbb97917d	-0.004625498
135	0xbbcba26f	-0.006214432
136	0x3b8ac3d0	0.0042347685
137	0x3be8098c	0.007081216
138	0xba6a21e1	-0.000893144
139	0xbb9d4301	-0.0047992473
140	0x3b52f007	0.0032186524
141	0xbb5f70b1	-0.003409427
142	0xbb510110	-0.0031891502
143	0x3a9221cc	0.0011148988
144	0x3bbd0e02	0.005769492
145	0x3a6066b5	0.00085602264
146	0xbbb36c90	-0.005475588
147	0x3ba9b716	0.0051792962
148	0xbb00c7f1	-0.0019650424
149	0xb7c28553	-2.3188686e-05
150	0x3b5a9361	0.0033352005
151	0xbb8c22b0	-0.004276596
152	0xbbc10413	-0.0058903783
153	0xbbb8273b	-0.005619911
154	0x3ad03532	0.0015884994
155	0x3b2197da	0.002465716
156	0xbb3927f6	-0.0028252578
157	0x3b21334d	0.0024597228
158	0xbbc44bcd	-0.0059904815
159	0xbb60c027	-0.003429422
160	0xbbdc54e8	-0.006723989
161	0xb9d09146	-0.0003978109
162	0xbb9aa1e1	-0.0047190045
163	0x3b506324	0.0031797374
164	0xbbbe9b12	-0.0058168257
165	0x3b0b665a	0.0021270723
166	0xbb8c4cd1	-0.004281618
167	0x3aa326d8	0.001244749
168	0x39c473ba	0.00037470256
169	0xbba65fb7	-0.005077328
170	0xbb8961c3	-0.0041925623
171	0xbbafec8e	-0.0053687757
172	0x3b22929e	0.002480663
173	0xbb885b2a	-0.004161258
174	0xb95d3a12	-0.00021097835
175	0xba5abe5a	-0.00083444046
176	0x3b2551d7	0.0025225782
177	0xbaf67e24	-0.0018805903
178	0xbbcb64bb	-0.0062070764
179	0x3b07c208	0.0020715017
180	0xbb951316	-0.0045493944
181	0xbbb9a2b5	-0.005665148
182	0xbaa34ad3	-0.0012458212
183	0xbbb5891f	-0.0055400277
184	0xbb4d6d2a	-0.0031345584
185	0x3be4ffb7	0.0069884914
186	0xba1ec40f	-0.00060564367
187	0xbb8f8bb3	-0.004380667
188	0xbbc84048	-0.0061111785
189	0xbabe6fbd	-0.001452915
190	0x3ae0d5a8	0.0017153518
191	0x3b03bca7	0.002010146
192	0xba3fc3bc	-0.00073152385
193	0xba276bbc	-0.0006386598
194	0x3ade7623	0.0016972463
195	0xbba76261	-0.005108163
196	0x3b020d6e	0.001984443
197	0xbb6f2326	-0.0036489456
198	0xbb861a34	-0.004092479
199	0x3a864c96	0.0010246213
200	0xbb8a50a9	-0.004221041
201	0xbba09521	-0.00490059
202	0x3bde4616	0.0067832572
203	0xba5a94a0	-0.0008338187
204	0x3bb62130	0.0055581555
205	0x3b6642fb	0.0035135138
206	0x3bba190c	0.0056792554
207	0x3b993878	0.004675921
208	0xbbbf702f	-0.0058422307
209	0x3b1afdb1	0.0023649747
210	0xbbb7d063	-0.0056095584
211	0x3b70597e	0.0036674435
212	0xbb903b7e	-0.0044016233
213	0x3bbbd7bd	0.005732505
214	0xbb1345da	-0.0022472055
215	0x3c065be5	0.00820062
216	0xb9bf1ace	-0.0003645033
217	0xbbb8c1cb	-0.0056383363
218	0x3bb7a2aa	0.005604108
219	0xbbde30bc	-0.006780712
220	0xbac94250	-0.0015354846
221	0xbb5def1b	-0.0033864442
222	0xbb089187	-0.0020838694
223	0xbb5043ef	-0.0031778773
224	0xbae3fd93	-0.0017394297
225	0x3b2692c4	0.002541707
226	0x3ac3a9cf	0.0014927926
227	0x3bd553ea	0.0065102475
228	0x3b448d7b	0.0029991555
229	0x3baf058e	0.0053412383
230	0xbbb23f76	-0.005439694
231	0x3a66e04b	0.0008807226
232	0x3b28489b	0.0025678042
233	0x3aea5b4a	0.001787999
234	0xba33af37	-0.0006854417
235	0xbbd83089	-0.0065975827
236	0xbbb39898	-0.005480837
237	0xbbb840f9	-0.0056229797
238	0xbb90e9ed	-0.0044224174
239	0xbbebe044	-0.0071983654
240	0xb945ea07	-0.00018874566
241	0x398f2402	0.00027301913
242	0x3b7eb7ef	0.0038866957
243	0x3b8de2d6	0.0043300195
244	0xbbb75a25	-0.005595463
245	0xba9dda5c	-0.0012043226
246	0xb951f7e3	-0.00020024138
247	0x3b953aa9	0.004554112
248	0x3b52c97c	0.003216355
249	0xbb8d18e6	-0.0043059466
250	0x3b916d28	0.0044380613
251	0x3be9ec0b	0.007138734
252	0x3aab97f6	0.0013091553
253	0xbade01aa	-0.0016937752
254	0x3b245e6d	0.0025080696
255	0xbbd66139	-0.0065423516

gamma_head.weight f4 [160, 256]
0	0xbccabd28	-0.0247484
1	0x3cac7c9b	0.02105551
2	0xbd03d77a	-0.032187916
3	0x3ca4c4ae	0.020113315
4	0x3bf89ad8	0.007586818
5	0x3d07aeac	0.033125564
6	0x3d4da201	0.050203327
7	0x3d399c51	0.04531509
8	0xbc84a29a	-0.016190816
9	0xbd28f8b6	-0.041252814
10	0x3d481689	0.048849616
11	0x3d25f4e8	0.040516764
12	0x3cdbb163	0.026817983
13	0xba304193	-0.00067236385
14	0xbd37adda	-0.044843532
15	0xbd262c9c	-0.040569887
16	0xbc84967e	-0.016185042
17	0xbd604810	-0.054756224
18	0x3d694567	0.056950953
19	0xbd25b50e	-0.04045587
20	0xbc86527f	-0.01639676
21	0xbcf576e6	-0.029963922
22	0xbd6c103e	-0.057632677
23	0x3c97f1dc	0.018547945
24	0x3b222658	0.0024742093
25	0xbd2308e6	-0.039803408
26	0x3d6a4e72	0.057203718
27	0xbcd41bb7	-0.025892122
28	0xbd459286	-0.04823544
29	0xbc95f4e4	-0.01830525
30	0x3d021697	0.031759825
31	0x3c9705d4	0.018435396
32	0xbd34c594	-0.044133738
33	0xbcb4495e	-0.02200764
34	0x3b9bbac2	0.004752488
35	0xbbc5bb79	-0.0060343114
36	0x3c3efbc1	0.0116567025
37	0xbd748e83	-0.059706222
38	0xbc868490	-0.016420633
39	0xbca4d35a	-0.020120312
40	0xbc9aaf3e	-0.01888239
41	0xbcced60c	-0.02524855
42	0xbbc93000	-0.0061397552
43	0xbd33015d	-0.043702472
44	0x3b83694b	0.0040103546
45	0xbd575738	-0.052573413
46	0xbac296ba	-0.0014845945
47	0x3c1c5a2c	0.009542983
48	0x3d6eb22e	0.058275394
49	0xbd2d06f0	-0.042242944
50	0xba5fccfc	-0.000853732
51	0xbd285411	-0.041095797
52	0x3d2081da	0.039186336
53	0xbd267af9	-0.04064462
54	0x3c1b7b37	0.009489826
55	0xbd4121c8	-0.047151357
56	0xbd6edd22	-0.058316357
57	0x3d47278b	0.048621695
58	0x3d51e59c	0.051244363
59	0xbd4ea1ce	-0.050447278
60	0xbd84f8ab	-0.06492742
61	0xbc9e72e8	-0.019341901
62	0xbcd0e566	-0.02550001
63	0xbd57f7be	-0.0527265
64	0x3d1d6a39	0.03843138
65	0x3d494551	0.04913837
66	0x3d1359a2	0.035974152
67	0x3be5bbf0	0.0070109293
68	0xbc60e4b8	-0.013726406
69	0xbb41f77f	-0.0029596982
70	0x3cc4ee61	0.02403945
71	0x3d0662d2	0.032809086
72	0x3d1ff453	0.039051365
73	0xbd4a5046	-0.04939296
74	0xbd7fafc0	-0.062423468
75	0xbcc9f36d	-0.024652207
76	0xbd433617	-0.047659006
77	0xbd612c71	-0.054974023
78	0x3d7c3a3f	0.061578985
79	0x3ca66021	0.02030951
80	0xbc939438	-0.018015012
81	0x3c5fce0d	0.013659966
82	0x3d5b66b1	0.05356473
83	0x3ca901e0	0.020630777
84	0x3d2f0083	0.042725097
85	0x3ba679c2	0.0050804326
86	0x3c73d9ca	0.014883468
87	0x3c212e00	0.009837627
88	0xbc9a297c	-0.01881861
89	0x3c7f9d7e	0.015601514
90	0xbd3560cb	-0.044281762
91	0xbca61b60	-0.020276725
92	0xb9d9d12b	-0.00041545308
93	0x3d22f327	0.03978267
94	0x3d00c0ab	0.031433742
95	0x3beac552	0.0071646357
96	0x3d34e47b	0.04416321
97	0xbd6a4721	-0.05719674
98	0x3d4744aa	0.048649468
99	0x3d68cedd	0.056837905
100	0xbd511cc8	-0.05105284
101	0xbd085b56	-0.03329023
102	0xbcb4efa3	-0.022086924
103	0x3d4b4f48	0.049636155
104	0xbd0119ed	-0.031518865
105	0xbcc40c60	-0.023931682
106	0xbd12f323	-0.035876404
107	0xbd770489	-0.06030706
108	0x3d117801	0.035514835
109	0xbd3fabb0	-0.046794593
110	0x3cb4773d	0.022029513
111	0xbd05e54b	-0.032689374
112	0x3c1866e0	0.009301871
113	0xbb208bfa	-0.0024497495
114	0xbcfe60a7	-0.031051947
115	0x39bfc553	0.00036577377
116	0xbc41d2a8	-0.0118300095
117	0x3d0c6fd9	0.034286354
118	0x3c625aa4	0.013815556
119	0xbd297a38	-0.041376323
120	0xbd1e613d	-0.038666952
121	0xbcd10b14	-0.025517978
122	0x3c4858dd	0.012228218
123	0x3ba241bd	0.0049516843
124	0x3bd9ca49	0.0066464287
125	0xbc907d04	-0.017637737
126	0x3c0a5bbf	0.008444726
127	0xbd634b49	-0.05549172
128	0x3d02420d	0.031801272
129	0xbce66e7e	-0.028128859
130	0x3d5f7920	0.054558873
131	0xbd2f9200	-0.042863846
132	0xbc2bb499	-0.01048007
133	0xbcac024a	-0.020997185
134	0xbd77ec76	-0.06052824
135	0x3c401346	0.011723345
136	0x3c86a23c	0.016434781
137	0x3d4ddd99	0.05026016
138	0x3d6b5c64	0.057461157
139	0x3bafa626	0.0053603826
140	0xbd4ff661	-0.050772075
141	0x3cb098b7	0.021557195
142	0xbd54a8b8	-0.051918715
143	0x3d474fd3	0.04866011
144	0x3d5365a8	0.05161062
145	0x3d06a149	0.032868657
146	0x3b33fee6	0.0027465164
147	0x3d4a2563	0.04935206
148	0xbd4b2635	-0.049596984
149	0xbd1993bb	-0.037494402
150	0xbd66b86a	-0.056328215
151	0x3d62b975	0.055352647
152	0x3ca09b16	0.0196052
153	0xbd7d8393	-0.061893057
154	0x3d0082fa	0.03137491
155	0xbcd6a01a	-0.02619939
156	0xbd20ad43	-0.039227735
157	0x3cab27d1	0.02089301
158	0xbd2c26b8	-0.042029113
159	0x3ceee3ca	0.029161353
160	0xbb8e3b4b	-0.0043405644
161	0x3b8e02c2	0.004333825
162	0xbd0d1769	-0.034446154
163	0x3b695bb0	0.0035607629
164	0x3cb18e0b	0.021674177
165	0x3cce16ec	0.025157414
166	0xbd28aee3	-0.04118241
167	0x3caf6c83	0.021414047
168	0x3d402fcb	0.04692058
169	0xbd037aef	-0.03209966
170	0x3c96bf03	0.018401628
171	0xbd188a57	-0.037241306
172	0x3cb8feb1	0.022582384
173	0x3bffaab1	0.0078023304
174	0xbcd6b620	-0.02620989
175	0x3c190472	0.009339439
176	0x3c62ef25	0.013850962
177	0xbd02de3a	-0.031950213
178	0xbd46db74	-0.04854913
179	0xbc01b44e	-0.007916523
180	0xbc9f1bd3	-0.019422447
181	0xbc025dd3	-0.00795694
182	0x3d03a6a0	0.032141328
183	0xbd4d56f3	-0.05013175
184	0x3c317228	0.01083044
185	0x3c2d8e3f	0.010592996
186	0xbd450ca0	-0.048107743
187	0xbd273350	-0.04082042
188	0x3995ff7e	0.0002860985
189	0x3cebf084	0.02880121
190	0x3cfe5349	0.031045573
191	0x3d6442b3	0.05572767
192	0x3d33cf72	0.043899007
193	0x3c57d8fb	0.013174291
194	0x3d26783c	0.04064201
195	0x3d1caf1f	0.038252946
196	0x3d574e4e	0.05256491
197	0xbca4ee5f	-0.020133195
198	0x3d550b7f	0.052012917
199	0x3ced3e35	0.028960327
200	0xbcf2fd4f	-0.029661803
201	0xbba5a6f8	-0.0050553046
202	0xbd6d31ed	-0.05790894
203	0x3c3a02a7	0.011353171
204	0xbd66ffe1	-0.05639637
205	0x3cef8a44	0.029240735
206	0xbd103177	-0.035203423
207	0xbcfe51d8	-0.031044886
208	0xbb594ba9	-0.003315667
209	0x3c628272	0.013825046
210	0x3b32aafb	0.0027262557
211	0x3d1d0395	0.038333494
212	0xbcbd8911	-0.023136647
213	0xbd5260fe	-0.05136203
214	0xba88da1c	-0.0010440978
215	0xbc45a484	-0.012063149
216	0x3a02f92b	0.00049962354
217	0x3d1db0f1	0.038498823
218	0xbc69190b	-0.014227162
219	0xbd8223a7	-0.063544564
220	0x3c5f9224	0.0136456825
221	0x3c2fa146	0.010719603
222	0xbd6b10ac	-0.057388946
223	0x3d370b93	0.044688772
224	0x3d35d237	0.04438993
225	0xbd423a0f	-0.04741865
226	0xbd3103bd	-0.043216456
227	0x3c15a218	0.009132884
228	0x3d254c3d	0.04035591
229	0xbcea9583	-0.028635746
230	0x3d1ceb66	0.03831043
231	0xbd694060	-0.05694616
232	0xbccd7d7c	-0.02508425
233	0xbd10f99c	-0.035394296
234	0x3ce5e23a	0.028061975
235	0xbc86f96b	-0.016476354
236	0x3d6d6ece	0.057967
237	0x3cbdd7c6	0.023174178
238	0x3d1ea9da	0.0387362
239	0xbc796320	-0.015221387
240	0xbd1b757d	-0.037953842
241	0x39744497	0.00023295205
242	0x3c1ed162	0.009693475
243	0x3d2aeb58	0.041728348
244	0xb908e15d	-0.00013053925
245	0x3b8d54a2	0.0043130675
246	0x3d3d1e2f	0.046171363
247	0x3d34975b	0.044089656
248	0x3cc2ea1a	0.023793269
249	0xbd010905	-0.031502742
250	0x3cb443ac	0.022004925
251	0xbcdb9507	-0.02680446
252	0x3ca9fa01	0.020749094
253	0xbcb26c39	-0.02178012
254	0xbcb7af12	-0.022422347
255	0xbd6d58fc	-0.05794619

gamma_head.bias f4 [160]
0	0xbd651ecf	-0.055937584
1	0xbcfd734f	-0.030938772
2	0x3d6c07d2	0.057624646
3	0x3d0ef52a	0.034901775
4	0x3d167800	0.036735535
5	0x3ca4c5eb	0.020113906
6	0xbd45ad8d	-0.048261214
7	0x3c3e9b17	0.011633656
8	0xbcdfcf72	-0.027320597
9	0x3cc2081a	0.023685504
10	0xbc007dab	-0.007842462
11	0x3d3142fa	0.043276764
12	0x3d09b7a2	0.03362239
13	0xbca6c5bc	-0.020357959
14	0xbc2da68c	-0.01059879
15	0xbd0f161b	-0.03493319
16	0xbc9fe3c7	-0.019517792
17	0xbd140471	-0.03613705
18	0xbd768ed0	-0.06019479
19	0x3d8208f5	0.06349365
20	0xbcaaa9cb	-0.020832917
21	0xbd6a89bd	-0.057260264
22	0x3d2177a8	0.039420754
23	0x3d49d7fd	0.049278248
24	0xbd180f20	-0.0371238
25	0x3c837647	0.01604761
26	0x3c121dd1	0.008918242
27	0xbd23953f	-0.039937254
28	0x3ca8cda0	0.020605862
29	0xbbaf894c	-0.0053569432
30	0x3c8ff5b5	0.017573217
31	0x3d0d2270	0.03445667
32	0xbd2fc6d2	-0.04291422
33	0xbd46975b	-0.048484188
34	0xbd4c0a81	-0.049814705
35	0xbd4b34a4	-0.04961075
36	0xbd6f71ec	-0.058458254
37	0x3d0de3ab	0.03464095
38	0x3b39dc17	0.0028359944
39	0x3d882f30	0.06649625
40	0x3d5eeb51	0.054423634
41	0xbb5baa38	-0.0033518206
42	0xbce7fd19	-0.028318929
43	0x3d0e3bf2	0.034725137
44	0xbd4dba74	-0.050226644
45	0x3cbcf1da	0.023064543
46	0x3d71795a	0.05895362
47	0x3cbcae8a	0.023032445
48	0x3c718f70	0.014743671
49	0xbd68c22f	-0.056825813
50	0xbc905844	-0.017620213
51	0x3d3fc70d	0.04682069
52	0xbd52c042	-0.051452883
53	0xbd822358	-0.063543975
54	0xba93e681	-0.0011283905
55	0x3c3576b8	0.011075668
56	0xbcc91a2c	-0.024548613
57	0x3d24b67c	0.040213093
58	0x3ba83d3c	0.005134253
59	0x3ce32f47	0.027732505
60	0x3d33e246	0.043916963
61	0xbd34220c	-0.043977782
62	0xbce500f2	-0.027954552
63	0x3d81861b	0.06324407
64	0x3c907010	0.01763156
65	0xbd0bc7ae	-0.034125976
66	0xba9febe2	-0.0012201036
67	0x3cc02506	0.023455154
68	0xbd7a5f5d	-0.0611261
69	0xbd70814a	-0.05871705
70	0xbc1d5a0c	-0.009603988
71	0x3bd9f3ce	0.0066513782
72	0x3c54c255	0.0129857855
73	0x3d63357e	0.055470936
74	0x3d0192b9	0.031634066
75	0x3ce001dd	0.027344638
76	0xbc02ce75	-0.0079837935
77	0xbd4202be	-0.047365896
78	0x3d1b0fb0	0.037856758
79	0xbd70eaa5	-0.058817524
80	0xbd18874b	-0.0372384
81	0xbd57bff0	-0.05267328
82	0x3baee14e	0.005336917
83	0xbd0a4957	-0.03376135
84	0x3d3e2784	0.046424404
85	0x3d0ccb92	0.034373827
86	0x3d1e4d18	0.03864774
87	0x3c725acf	0.014792158
88	0xbd386149	-0.045014653
89	0xbcbf9751	-0.023387583
90	0xbc09c29c	-0.008408215
91	0x3d4d2fa0	0.050094247
92	0xbcba9784	-0.022777326
93	0xbd7900dd	-0.06079184
94	0x3c54d7ae	0.012990875
95	0x3b52836d	0.0032121793
96	0xbb7b1541	-0.003831223
97	0xbc8ef3c4	-0.01745022
98	0xbd57e5b8	-0.05270931
99	0xbc469285	-0.012119894
100	0x3b5f221d	0.0034047433
101	0xbc0c1c32	-0.008551644
102	0x3d039f4e	0.032134347
103	0xbd67059d	-0.056401838
104	0x3d730601	0.059331898
105	0x3d6d28e7	0.057900336
106	0xbcad9cac	-0.021192871
107	0xbd7c0942	-0.061532266
108	0x3d73f8cf	0.059563454
109	0xbcf7ac70	-0.030233592
110	0xbd53d018	-0.051712126
111	0xbccdc48a	-0.025118131
112	0xbd758f7b	-0.059951287
113	0xbd518cfc	-0.051159844
114	0xbd6d3457	-0.057911243
115	0x3cf30bdb	0.029668739
116	0x3c4ba148	0.012428589
117	0xbd3417e7	-0.043968108
118	0xbd5b70a8	-0.053574234
119	0x3d61d1ec	0.055131838
120	0x3b9d17fe	0.00479412
121	0xbd4e98d9	-0.050438736
122	0x3d1f9aba	0.038965918
123	0xbd5ccee0	-0.05390823
124	0xbd3770d8	-0.04478535
125	0x3c262d7f	0.010142683
126	0xbd2bfea7	-0.041990902
127	0x3d8017ac	0.06254515
128	0xbbde4759	-0.0067834076
129	0xbcee71ec	-0.029107057
130	0xbd0b3610	-0.033987105
131	0x3c9429fc	0.018086426
132	0xbd4430b5	-0.047898013
133	0x3ca84891	0.020542415
134	0xbc5ac992	-0.013353722
135	0xbd1e368b	-0.038626235
136	0x3b5600d6	0.0032654307
137	0x3d4235e9	0.047414694
138	0xbc4f5d83	-0.012656572
139	0x3d43c0e5	0.04779138
140	0xbd013f21	-0.031554345
141	0xbc44643c	-0.011986788
142	0x3d38cbaf	0.045116123
143	0x3d00b51d	0.031422723
144	0xbd3fbf9a	-0.046813585
145	0x3d6ecffc	0.058303818
146	0xbd21085a	-0.039314605
147	0x3d109a71	0.035303537
148	0x3d0add78	0.033902615
149	0x3d4e4a0d	0.05036359
150	0x3bdfc466	0.0068288324
151	0x3d4c934c	0.04994516
152	0xbd1c4442	-0.038151033
153	0xbc9a40fa	-0.018829811
154	0x3b7950dd	0.0038042583
155	0xbc0bc3c8	-0.008530565
156	0xbd054d1e	-0.032544248
157	0x3d2424b2	0.040074058
158	0x3c8db87c	0.017299883
159	0xbc0cb113	-0.00858714

beta_head.weight f4 [160, 256]
0	0xbcb04ab7	-0.021520002
1	0x3d75a27c	0.05996941
2	0x3d7bb308	0.061450034
3	0x3d14c92e	0.036324672
4	0xbcda7aa6	-0.026669811
5	0xbd6737a5	-0.05644955
6	0xbd12b597	-0.03581771
7	0x3cc643e8	0.024202302
8	0x3ccca5b4	0.024981357
9	0xbd37e040	-0.044891596
10	0xbd254d7d	-0.0403571
11	0xbc8735c3	-0.016505128
12	0x3c3e1e83	0.011603954
13	0x3b2d33ff	0.0026428697
14	0x3d6d879c	0.057990655
15	0x3c4b7490	0.012417927
16	0x3c70a124	0.014686856
17	0xbcac00f4	-0.020996548
18	0xbc05a0e9	-0.00815604
19	0x3d3524dd	0.04422461
20	0xbd3eed5a	-0.046613075
21	0x3cc162d6	0.023606699
22	0xbcf6dc04	-0.030134209
23	0xbd08190b	-0.033227008
24	0x3ccf089d	0.025272662
25	0x3d1d7d22	0.038449414
26	0xb768b31d	-1.3869981e-05
27	0xbd19aa2c	-0.037515804
28	0xbd8598c3	-0.065232776
29	0x3d15b75e	0.036551826
30	0x3c033687	0.008008606
31	0xbc0bc8ee	-0.008531792
32	0xbcc07d05	-0.023497114
33	0x3cf584c6	0.029970538
34	0xbd225150	-0.039628327
35	0x3c999ec7	0.018752469
36	0xbb10f405	-0.0022118103
37	0x3c966a94	0.018361367
38	0x3c0e2d74	0.008677829
39	0x3d2cd34f	0.042193707
40	0xbc39c4cb	-0.011338423
41	0xbd1dc786	-0.03852036
42	0xbbe32889	-0.0069323224
43	0xbd722eb3	-0.059126567
44	0x3b0c218c	0.00213823
45	0xbd6b4aeb	-0.057444494
46	0x3d4dc19d	0.050233472
47	0xbd53f23c	-0.051744685
48	0xbd5c23ca	-0.05374507
49	0x3d41e7b1	0.0473401
50	0x3cdaaa27	0.026692463
51	0xbcfeda37	-0.031109912
52	0x3cebe016	0.028793376
53	0xbd802897	-0.06257742
54	0xbd299316	-0.041400038
55	0xbd4b67a6	-0.049659394
56	0x3c2d6ac5	0.010584538
57	0xbcab38e6	-0.020901155
58	0xbc7dc44e	-0.015488697
59	0xbc9b2bff	-0.018941877
60	0xbbea3429	-0.0071473313
61	0xbb4e7b28	-0.0031506512
62	0xbd6df216	-0.0580922
63	0xbbc13591	-0.005896278
64	0xbbaf437b	-0.0053486205
65	0xbd66b062	-0.056320556
66	0x3d291711	0.041281763
67	0x3d17b5d5	0.037038643
68	0xbc94352a	-0.018091757
69	0xbd58d180	-0.05293417
70	0x3d71b80f	0.059013423
71	0xbcaaaa0e	-0.020833042
72	0xbc8395ba	-0.016062606
73	0xbc8c0eb7	-0.01709686
74	0xbb3266f4	-0.002722201
75	0x3c3ebed5	0.011642178
76	0x3d39b951	0.045342747
77	0x3cd1d005	0.025611887
78	0xbc5a3f39	-0.0133207375
79	0xbbc73bfb	-0.0060801483
80	0xbd3051ca	-0.04304675
81	0x3ceb1f47	0.028701438
82	0xbd63a18c	-0.055573985
83	0xbd343360	-0.043994308
84	0xbcacf854	-0.021114506
85	0x3d1653ae	0.036700897
86	0xbc2aa4e1	-0.010415287
87	0x3cbfdf92	0.023422036
88	0x3a427009	0.0007417207
89	0xbd1831f8	-0.03715703
90	0xbc3c3146	-0.011486357
91	0x3d7b1418	0.06129846
92	0xbcc9f67b	-0.024653664
93	0x3d064127	0.032776978
94	0xbc92167c	-0.017832987
95	0xbc6572c8	-0.014004417
96	0xbd51ef02	-0.051253326
97	0x3bab9d1f	0.005237236
98	0x3be3c99e	0.006951525
99	0x3d4fcf0d	0.05073457
100	0x3d0be6ed	0.034155775
101	0xbd3f326c	-0.046678945
102	0x3d67d480	0.05659914
103	0x3c90dacc	0.017682455
104	0xbcdd9384	-0.02704788
105	0xbc09bdcf	-0.00840707
106	0x3ba74b8a	0.0051054405
107	0xbccac42f	-0.02475175
108	0x3ba65336	0.0050758375
109	0x3d6a7acc	0.057246014
110	0xbc9be510	-0.019030124
111	0xbd1077d3	-0.035270523
112	0x3cffb4e7	0.03121419
113	0xbd464615	-0.04840668
114	0xbc25b2e9	-0.010113456
115	0x3d3b66e3	0.045752417
116	0xbc652a67	-0.01398716
117	0x3cefa48e	0.02925327
118	0xbd4b16c2	-0.04958225
119	0xbd7c7bd9	-0.061641548
120	0xbcf038f2	-0.029324029
121	0xbc8f1058	-0.017463848
122	0x3c40c2e5	0.0117652165
123	0x3be8c17a	0.0071031423
124	0xb88b4026	-6.639985e-05
125	0x3d02bb8e	0.031917147
126	0x3bec4035	0.0072098025
127	0x3d13bae2	0.036066897
128	0xbc0b8662	-0.008515926
129	0x3cbef9d2	0.023312483
130	0xbd4cd893	-0.05001123
131	0xbc815357	-0.01578681
132	0x3d141cf6	0.03616043
133	0x3d0a5d1d	0.033780206
134	0x3d357317	0.04429921
135	0x3c0a82b5	0.008454015
136	0xbd2d50aa	-0.042313255
137	0x3d4d6ed1	0.05015451
138	0x3cd2783a	0.025692094
139	0xbd22b779	-0.039725754
140	0x3cac68f7	0.021046145
141	0x3cbf6ee9	0.023368316
142	0x3ccc19c6	0.024914633
143	0xbd44faa2	-0.048090585
144	0x3d6b6f6c	0.057479307
145	0xba75fb0d	-0.0009383418
146	0xbce330ec	-0.027733289
147	0xbc15d67d	-0.009145376
148	0x3cee7e5b	0.029112985
149	0x3d4a4f59	0.049392078
150	0x3d6610e4	0.056168452
151	0xbc74077d	-0.0148943635
152	0xbd864ad2	-0.065572396
153	0x3d645fe3	0.055755507
154	0xbd832c93	-0.06404986
155	0x3ce43af5	0.027860144
156	0x3c6c32c8	0.014416404
157	0xbd106240	-0.03524995
158	0x3bfe9352	0.007769027
159	0x3d2cbaae	0.04217022
160	0x3cb45434	0.022012807
161	0x3c9fb721	0.019496502
162	0x3d4d4f69	0.05012456
163	0xbcef09c1	-0.029179456
164	0xbb887961	-0.00416486
165	0xbd825e63	-0.06365659
166	0x3b6754f8	0.0035298448
167	0x3d56c15a	0.05243049
168	0xbced6aca	-0.028981585
169	0x3c95e2e3	0.018296665
170	0x3d3a4615	0.04547699
171	0x3d43d59b	0.047811132
172	0xbd0dc24b	-0.03460912
173	0xbc2910aa	-0.010318914
174	0x3c973cc7	0.018461598
175	0xbc5f7f51	-0.013641194
176	0x3d787e99	0.060667608
177	0xbc80d28d	-0.015725398
178	0xbd3cf844	-0.046135202
179	0xbc260b3e	-0.010134516
180	0xbd478def	-0.048719343
181	0xbcb00fda	-0.021491934
182	0x3c8afc38	0.01696597
183	0xbc571978	-0.013128631
184	0xbd582389	-0.052768264
185	0xbc176f2b	-0.009242813
186	0x3d1456f4	0.036215737
187	0xbd65a033	-0.05606098
188	0xbd0da1bc	-0.03457807
189	0xbcddbf5c	-0.027068786
190	0x3d0d3981	0.034478668
191	0x3b972a01	0.0046131616
192	0xbcf9bf83	-0.030486828
193	0xbb14865d	-0.0022663095
194	0xbd5c783d	-0.053825606
195	0x3cceb5f7	0.025233252
196	0xbd150469	-0.03638116
197	0x3c151172	0.009098398
198	0x3c9d5cd7	0.019209309
199	0x3c9cfb39	0.019162761
200	0x3d1263e7	0.035739806
201	0xbc92a61d	-0.017901475
202	0x3d0d7837	0.034538474
203	0x3d2b9b77	0.04189631
204	0xbc0d64bc	-0.008629974
205	0xbd3b7f67	-0.045775797
206	0x3d351a02	0.044214256
207	0x3d73f396	0.059558474
208	0xbc4eba8b	-0.0126177175
209	0x3d862624	0.065502435
210	0xbd0fa26c	-0.035067007
211	0x3d4a8753	0.04944546
212	0x3d474621	0.048650865
213	0xbb955287	-0.004556957
214	0xbd05b75b	-0.032645565
215	0xbbf827b2	-0.0075730914
216	0xbc7fda22	-0.015615972
217	0x3cd3f5d4	0.025874056
218	0xbd1e807b	-0.038696747
219	0xbc1c3da2	-0.009536179
220	0xbd62782f	-0.055290397
221	0xbb81329d	-0.003942801
222	0x3d623f86	0.055236362
223	0x3d38af04	0.045088783
224	0x3d6919c3	0.056909334
225	0xbc9c65b2	-0.01909146
226	0xbd3e2ba2	-0.04642833
227	0xbd690f2f	-0.056899246
228	0x3d3f953e	0.046773188
229	0xbcc94d5f	-0.024573026
230	0xbd41df67	-0.047332194
231	0xbd195c2b	-0.037441414
232	0xbcfb7ff0	-0.030700654
233	0xbd399e2b	-0.045316856
234	0x3d077194	0.0330673
235	0x3cccfce6	0.025022935
236	0x3d10da6a	0.035364546
237	0xbcdf0c20	-0.027227461
238	0x3d47c064	0.048767462
239	0x3d56aca4	0.052410737
240	0xbb8d147c	-0.0043054204
241	0x3cdd7873	0.027034974
242	0xbd20a7c9	-0.039222512
243	0x3c845a8e	0.016156461
244	0x3cea199c	0.028576665
245	0x39b0968c	0.00033681502
246	0xbd1cfe24	-0.038328305
247	0x3d1a6d83	0.037702095
248	0x3b0bda6b	0.0021339904
249	0x3cb7d8ce	0.022442248
250	0xbd43c251	-0.047792736
251	0x3d41cfbd	0.047317255
252	0x3ca8220a	0.020524044
253	0x3d5ff92c	0.05468099
254	0xbb06a701	-0.002054632
255	0x3d119ca2	0.035549767

beta_head.bias f4 [160]
0	0x3d7d17d0	0.061790287
1	0xbd2842d6	-0.041079365
2	0x3a24a89d	0.0006281229
3	0x3c90810b	0.017639657
4	0x3cd82e09	0.026389139
5	0x3d502b13	0.05082233
6	0x3d02436e	0.031802587
7	0x3d44d235	0.04805203
8	0xbcdaa9f6	-0.026692372
9	0x3d59a0c2	0.053131826
10	0xbd039beb	-0.032131117
11	0xbcd72df5	-0.026267031
12	0x3c5a9d14	0.013343114
13	0xbc77a696	-0.015115401
14	0xbb45093f	-0.0030065326
15	0xbd6eb007	-0.05827334
16	0x3d4ca01b	0.049957376
17	0x3d3df4db	0.04637609
18	0x3c8600b9	0.016357766
19	0x3d3643ea	0.04449836
20	0x3d16dc5f	0.036831256
21	0x3d31db89	0.043422256
22	0x3aec75f5	0.0018040525
23	0x3d18d35f	0.037310954
24	0x3d0ee7f9	0.034889195
25	0xbcbab384	-0.022790678
26	0xbd84aa7a	-0.06477828
27	0xbd0f0db7	-0.03492519
28	0xbbbe8f50	-0.005815424
29	0x3c1b9ab7	0.009497336
30	0xbd220137	-0.03955194
31	0xbb0dd09e	-0.0021639238
32	0x3d776d43	0.060406934
33	0x3b8800da	0.004150492
34	0xbbba6087	-0.0056877765
35	0xbc31ec5b	-0.010859574
36	0xbd0ac0c8	-0.033875257
37	0x3bf3e931	0.00744357
38	0x3d0de688	0.03464368
39	0x3b8a4ca4	0.004220562
40	0xbce5eeed	-0.02806803
41	0x3cd26405	0.025682459
42	0xbce101ac	-0.027466618
43	0x3d45166c	0.048117086
44	0x3d10df62	0.035369284
45	0x3d3115e1	0.043233756
46	0xbcd18965	-0.02557821
47	0xbd830b5f	-0.06398653
48	0xbc652bda	-0.013987506
49	0x3d3e48ce	0.04645615
50	0x3d5fc423	0.05463041
51	0xbd2604e1	-0.040531997
52	0xbc83f57a	-0.016108263
53	0x3c641b0f	0.013922467
54	0xbb19a8ea	-0.0023446628
55	0xbd72882a	-0.059211887
56	0x3d16436f	0.036685403
57	0xba4cb123	-0.0007808378
58	0x3d2db2f4	0.04240699
59	0xbc11d2d8	-0.008900367
60	0x3bacc448	0.005272422
61	0x3d6b07f0	0.057380617
62	0xbc342b4f	-0.010996654
63	0xbcbe0954	-0.023197807
64	0x3d15ae0f	0.03654295
65	0xbbe7207c	-0.007053433
66	0xbc1c542f	-0.009541555
67	0xbd64db24	-0.05587305
68	0x3c9ff9a4	0.019528218
69	0xbbdf3194	-0.00681133
70	0x3d80e7a7	0.06294184
71	0xbd2dfa3d	-0.042474974
72	0xbd841560	-0.064493895
73	0xbd5a7520	-0.053334355
74	0xbc26a0f1	-0.010170207
75	0xbc90d3ad	-0.01767906
76	0xbc4a0da2	-0.012332352
77	0x3b7d7e17	0.0038679892
78	0x3d6f3544	0.058400407
79	0x3d4636f3	0.048392247
80	0xbd2b951b	-0.041890245
81	0xbbaea534	-0.0053297523
82	0xbd6eddef	-0.05831712
83	0x3cc84da8	0.024451092
84	0x3cb7bdd5	0.022429386
85	0xbcbeb454	-0.023279347
86	0x3d7b9f8e	0.06143146
87	0x3cbcfa17	0.02306847
88	0xbd712403	-0.058872234
89	0xbb09c4f8	-0.0021021944
90	0xbd37e60b	-0.04489712
91	0x3d77c496	0.060490213
92	0xbd589c52	-0.052883454
93	0x3d38d09d	0.045120824
94	0x3d58c906	0.052926086
95	0x3d7aa3c6	0.061191343
96	0x3cbe91fe	0.023262974
97	0xbcd8c821	-0.026462616
98	0xbd036cc5	-0.032086153
99	0x3ccbc779	0.02487539
100	0x3ce0b71c	0.027431063
101	0x3d49f8eb	0.049309652
102	0x3c957cca	0.01824798
103	0x3ce3b3c5	0.027795682
104	0x3d2db137	0.042405333
105	0xbd1f498b	-0.038888495
106	0x3d0f8942	0.03504301
107	0x3d245caa	0.040127434
108	0x3d264dfc	0.040601715
109	0x3c5e43c1	0.0135659585
110	0xbd298f69	-0.041396532
111	0x3d5e8130	0.05432242
112	0x3d3e4b40	0.046458483
113	0x3ccf825c	0.025330715
114	0x3d6c6e6c	0.057722494
115	0x3d1ce6f8	0.038306206
116	0xb9a737d6	-0.00031894323
117	0xbb3e6d79	-0.002905695
118	0x3d0e0239	0.03467009
119	0x3cb5c237	0.022187335
120	0xbcfb5f56	-0.030685108
121	0x3d550a96	0.05201205
122	0xbd4d12c5	-0.05006673
123	0x3cfa0ef0	0.0305247
124	0xbd25a5bb	-0.040441256
125	0x3d16ac9a	0.0367857
126	0x3b2f24ae	0.0026724744
127	0xbd26606e	-0.040619306
128	0xbd1d334e	-0.038379006
129	0x3cd515aa	0.026011307
130	0x3ce6fcfe	0.028196808
131	0x3d21f6a2	0.039541848
132	0x3d4baa08	0.0497227
133	0x3ce724d7	0.028215809
134	0x3d5e4503	0.054265033
135	0x3caf1414	0.021371879
136	0xbbb67409	-0.0055680317
137	0xbd1d2885	-0.03836872
138	0x3c7f4bb5	0.015582015
139	0xbcb1cedb	-0.021705082
140	0xbd78722a	-0.06065575
141	0xbc5760f7	-0.013145677
142	0x3cc7f786	0.02441002
143	0xbb82d8ce	-0.0039931303
144	0x3d58c5b5	0.052922923
145	0xbbcf7bf7	-0.0063319164
146	0xb9c22be4	-0.00037035265
147	0xbad59a87	-0.0016296663
148	0x3c863a58	0.016385242
149	0xbca5f416	-0.02025799
150	0x3c5b977d	0.013402817
151	0x3d82fd7b	0.06396004
152	0x3cda4f36	0.026649099
153	0x3c9ff170	0.019524306
154	0xbacea00f	-0.0015764254
155	0x3b2de8d2	0.0026536477
156	0xbd268a22	-0.040659077
157	0xb935ff67	-0.0001735665
158	0xbc35ffd6	-0.011108359
159	0x3d6d6d1c	0.057965383
