models/weights/epoch_15_classifier.pth (torch, 8872 bytes, 4 tensors)

layer_norm.weight f4 [416]
0.7036105 1.0803881 1.0783509 1.0185641 0.9195261 1.0582219 1.0269611 0.8460323
0.8553003 0.901145 0.90855765 0.8497019 0.9586446 0.9032767 1.0139613 0.751689
0.9522135 1.0551006 1.0128148 1.107824 0.86160284 1.014217 0.9516811 0.86028177
0.7681354 0.91212577 1.1352041 0.98318267 0.95321274 0.9894456 0.9222461 1.1271994
0.7175888 1.2001483 1.2396547 1.2802538 0.70971876 1.3343163 0.83576936 0.77439135
1.2782267 1.2187716 0.759367 1.3441831 0.75324667 1.3191279 1.2646582 1.2729036
1.0541643 0.7026565 1.2106901 1.2909249 0.790949 1.152996 1.3343905 0.7786153
0.8379022 1.2614269 0.75486356 1.1533325 0.86256486 0.8007015 1.1634723 0.75229627
0.88648534 0.790103 0.8473225 0.82952285 1.1168443 0.92869335 0.8187803 0.9350346
1.0394655 0.7655386 0.83699703 0.9318245 1.1500187 0.8923494 0.9831329 0.77971107
1.0773443 0.84394485 1.3684102 1.0581203 1.1061413 0.76351225 1.0045667 1.0722162
1.061269 1.1856037 0.6903383 1.2378206 1.0697798 1.1693593 1.2235767 1.2318774
1.2787869 0.8193306 1.1058694 0.7327231 1.1525731 1.3656313 0.93250304 1.4541386
0.7375138 0.70562476 1.172027 1.3693786 0.9755584 1.1713215 0.9694713 0.6425002
1.1858895 0.7769504 1.2375113 1.2221267 1.2555758 1.2336335 1.165291 0.796165
1.084841 1.2403125 0.69963586 1.1813953 0.7352919 1.2950008 1.1532476 1.3017656
0.964267 0.7691158 1.366936 1.1965613 1.3211195 0.778451 0.7204987 0.75312763
0.80105734 1.2813925 1.2868636 1.2104565 0.74635637 1.048135 0.81990105 0.79309034
1.2070881 0.78896433 0.81612545 1.2268792 1.3452077 1.2758555 1.2110227 1.2626147
0.78185385 1.3037612 1.2194364 1.2564036 0.78102607 0.7736061 1.1818905 1.3541787
1.0759197 0.9210599 1.1121055 0.96284044 0.9576387 0.9109163 0.9720981 0.9250831
0.828862 0.73075783 0.87317014 1.0318851 0.8767284 0.93769276 1.0416759 0.91941416
1.1012757 0.97093755 1.0474399 1.0401202 1.038958 1.0528789 0.9546257 1.0853077
0.9188972 0.9491383 1.0781809 0.9089743 1.0836024 0.9143068 0.91304195 0.93534297
1.0849447 0.93031204 0.94085646 0.94282913 1.1569859 1.1460025 0.97352403 1.0417993
0.9654399 0.85367185 0.8815603 1.0497603 1.0245242 1.0363046 0.9185498 1.0067604
1.0541983 0.92498493 0.9167192 1.040694 1.0374346 0.87327784 0.9495019 1.0426843
0.9356584 0.97068757 0.9493792 1.071014 0.948617 0.9415047 0.9566562 0.9350586
0.9548139 0.89574456 0.86725223 1.0307438 1.0155334 0.89310265 1.0247967 0.94702715
0.99447876 1.096432 0.9154017 1.0602237 0.8753148 0.93714166 0.90097016 1.1246134
0.9394747 0.9381355 1.0273186 1.1016672 0.959781 0.92956674 0.9261535 0.8974337
1.0831803 0.8844161 0.93290097 1.1321182 1.028034 1.0303708 0.92429316 0.8954955
00000000: d11f 343f 284a 8a3f 6707 8a3f 4f60 823f
00000010: 1066 6b3f d173 873f 7673 833f 9395 583f
00000020: f6f4 5a3f 70b1 663f 3c97 683f 1086 593f
00000030: bc69 753f 243d 673f 7cc9 813f b16e 403f
00000040: 44c4 733f 890d 873f eaa3 813f 2dcd 8d3f
00000050: 0192 5c3f ddd1 813f 5fa1 733f 6d3b 5c3f
00000060: 86a4 443f 1381 693f 5e4e 913f dcb1 7b3f
00000070: c005 743f 4f4c 7d3f 5218 6c3f 1248 903f
00000080: e6b3 373f 769e 993f 01ad 9e3f 5bdf a33f
00000090: 21b0 353f e0ca aa3f fbf4 553f 833e 463f
000000a0: ef9c a33f b500 9c3f e065 423f 310e ac3f
000000b0: c6d4 403f 2fd9 a83f 52e0 a13f 81ee a23f
000000c0: dbee 863f 4ce1 333f e5f7 9a3f 073d a53f
000000d0: a27b 4a3f 5f95 933f 4fcd aa3f 5553 473f
000000e0: c280 563f 7076 a13f bd3e 413f 66a0 933f
000000f0: 0dd1 5c3f c6fa 4c3f a9ec 943f 7d96 403f
00000100: b4f0 623f 3144 4a3f 21ea 583f 9c5b 543f
00000110: c1f4 8e3f d9be 6d3f 969b 513f 6d5e 6f3f
00000120: 350d 853f 56fa 433f 7045 563f 0d8c 6e3f
00000130: d033 933f 0371 643f 99ae 7b3f 259b 473f
00000140: 6be6 893f c50c 583f 1128 af3f 7c70 873f
00000150: 0a96 8d3f 8a75 433f a495 803f 613e 893f
00000160: aad7 873f ddc1 973f 03ba 303f e870 9e3f
00000170: 8bee 883f 91ad 953f 299e 9c3f 29ae 9d3f
00000180: 4aaf a33f a6bf 513f 218d 8d3f be93 3b3f
00000190: 8487 933f 02cd ae3f 85b8 6e3f 3721 ba3f
000001a0: b4cd 3c3f d3a3 343f fb04 963f cc47 af3f
000001b0: 32be 793f dded 953f 452f 783f e57a 243f
000001c0: 3acb 973f 39e6 463f c566 9e3f a66e 9c3f
000001d0: b5b6 a03f b4e7 9d3f 4128 953f 78d1 4b3f
000001e0: 12dc 8a3f 8fc2 9e3f 561b 333f f637 973f
000001f0: 173c 3c3f 96c2 a53f 9e9d 933f 41a0 a63f
00000200: 34da 763f c6e4 443f c2f7 ae3f ec28 993f
00000210: 721a a93f 9148 473f 9a72 383f f9cc 403f
00000220: 1812 4d3f ab04 a43f f2b7 a43f 3df0 9a3f
00000230: 3611 3f3f 4a29 863f 09e5 513f f807 4b3f
00000240: dd81 9a3f 91f9 493f 99ed 503f 610a 9d3f
00000250: c42f ac3f 3c4f a33f cb02 9b3f 5c9d a13f
00000260: 9327 483f a6e1 a63f 7e16 9c3f d5d1 a03f
00000270: 53f1 473f 0d0b 463f 3048 973f ba55 ad3f
00000280: bdb7 893f 95ca 6b3f 7959 8e3f b67c 763f
00000290: cf27 753f d031 693f 6cdb 783f 3fd2 6c3f
000002a0: 4d30 543f f212 3b3f 1488 5f3f d014 843f
000002b0: 4671 603f a20c 703f a355 853f ba5e 6b3f
000002c0: 9af6 8c3f 5d8f 783f 8312 863f a922 853f
000002d0: 93fc 843f bcc4 863f 5a62 743f 5deb 8a3f
000002e0: d93c 6b3f bafa 723f d501 8a3f 8ab2 683f
000002f0: 7cb3 8a3f 0310 6a3f 1ebd 693f a372 6f3f
00000300: 78df 8a3f ee28 6e3f f8db 703f 405d 713f
00000310: 1d18 943f 36b0 923f df38 793f ae59 853f
00000320: 1227 773f 3d8a 5a3f f0ad 613f 8c5e 863f
00000330: 9c23 833f a1a5 843f 1426 6b3f 86dd 803f
00000340: f8ef 863f d0cb 6c3f 1cae 6a3f 7635 853f
00000350: a8ca 843f 238f 5f3f 8e12 733f ae76 853f
00000360: 4f87 6f3f fb7e 783f 840a 733f fd16 893f
00000370: 90d8 723f 7406 713f 6ce7 743f 0060 6f3f
00000380: af6e 743f 844f 653f 3e04 5e3f 6aef 833f
00000390: 00fd 813f 60a2 643f 8a2c 833f 5f70 723f
000003a0: 2996 7e3f e257 8c3f c457 6a3f 69b5 873f
000003b0: a114 603f 84e8 6f3f fba5 663f 55f3 8f3f
000003c0: 6a81 703f a629 703f 2d7f 833f 6e03 8d3f
000003d0: 35b4 753f 16f8 6d3f 6518 6d3f 37be 653f
000003e0: a7a5 8a3f 1869 623f 99d2 6e3f 40e9 903f
000003f0: 9e96 833f 31e3 833f 7a9e 6c3f 313f 653f

layer_norm.bias f4 [416]
-0.009206432 -0.009200087 -0.009191622 -0.009212985 -0.0022256514 0.009041763 0.009106943 0.009171018
-0.009296562 0.0090960665 -0.00920872 -0.009214397 -0.009186215 -0.009232523 -0.009198202 0.009164634
-0.009210835 0.009105817 -0.009200616 0.009145744 0.0091462275 -0.009199323 -0.009274411 0.009164092
0.009176049 -0.009175108 -0.009237894 -0.00916848 -0.009300966 0.00899391 0.009111666 -0.009121806
-0.009162321 -0.009162204 -0.009138992 0.0091146985 -0.009177832 0.0091068875 -0.009159638 -0.009002846
0.009158866 -0.0093590645 -0.009048861 0.009145302 -0.009171687 0.009108462 0.0037546998 0.0028096822
-0.009186386 -0.009157981 0.0091928 0.009137706 0.009181216 0.009196864 0.009143352 -0.00913434
0.008875498 0.009186177 0.009182967 0.0091827735 -0.002423588 -0.008800189 -0.009173673 0.009165459
0.00912238 0.009165381 0.009134029 -0.009181822 -0.009185924 -0.0039789807 -0.008024043 0.009186483
-0.005674505 0.009173826 -0.009185725 -0.0030546123 0.009060086 -0.009196993 0.009181025 -0.009034234
-0.009186968 0.009075799 0.0019825506 -0.009186938 0.009161731 -0.009193932 -0.009071187 -0.0047006295
-0.009226511 0.009217646 -0.009201332 0.009114353 0.009180494 0.009168706 0.009151796 0.009173048
-0.009147472 0.0088580325 -0.009186668 -0.008945951 -0.009184539 0.009137434 0.009206392 0.0007029279
-0.0088559175 0.009175481 0.009209082 0.009133879 -0.00497823 0.009198704 -0.0052287458 -0.009175789
-0.009179131 0.008973369 0.009187153 -0.009144761 0.00917495 0.009187593 0.009184942 -0.008411684
-0.009190852 -0.0048154476 -0.009056281 0.009191858 -0.008982739 0.009182028 0.009173501 0.009179531
0.005197587 0.009040691 -0.009923465 -0.009178246 -0.0038729236 0.0091620805 0.009193662 -0.009050695
0.009053506 -0.009058725 -0.009018986 0.009181677 -0.009097393 0.005566589 -0.008566417 -0.009160901
-0.009183731 0.008442279 -0.008441681 -0.009188569 -0.009103403 -0.009150334 0.009189454 0.009182769
-0.008940998 0.00917059 -0.009188818 -0.009137404 0.009155004 0.009177845 0.009209246 -0.009361185
-0.009264364 0.00920731 -0.009279193 0.009189911 0.00919332 0.0054414705 0.009213657 0.009150766
0.008647052 0.0050094095 0.009170569 -0.009004108 0.009172832 0.00923188 -0.009246647 0.009187384
-0.00922756 0.009175182 -0.009043494 -0.0090707615 -0.009134815 -0.009101086 0.009210524 -0.009236537
0.009212545 0.009190609 -0.009156701 0.009186159 -0.00910417 0.009190584 0.009227921 0.009176499
-0.00915885 0.009187185 0.009483055 0.009199339 -0.009200947 -0.009214119 0.009195802 -0.008979552
0.0032032034 0.009164643 0.009195258 -0.009217758 -0.008761804 -0.009140582 0.009204828 0.009257363
-0.009297644 0.009190698 0.009195626 -0.009119635 -0.009035698 0.0091142785 0.009219902 -0.00914955
0.009217514 -0.0098662125 0.009191284 -0.009155576 0.009186877 0.009220714 0.009186993 0.0092222225
0.00918155 0.00948312 0.009136315 -0.009155208 -0.009150137 0.0055601895 -0.00910962 0.00921009
-0.009019122 -0.009132104 0.008968503 -0.009150298 0.009061051 0.009124094 0.0089488 -0.009093002
0.00910916 0.009193817 -0.009097822 -0.009165524 0.0092408145 0.009210094 0.00885795 0.0064843656
-0.009230069 0.009152233 0.009106372 -0.009217918 -0.009275158 -0.009146619 0.009201051 0.009164454
00000000: 93d6 16bc f6bb 16bc 7598 16bc 0ff2 16bc
00000010: 3cdc 11bb e723 143c 4a35 153c 0a42 163c
00000020: 9b50 18bc ab07 153c 2ce0 16bc fbf7 16bc
00000030: c781 16bc 0244 17bc 0eb4 16bc 4327 163c
00000040: 0be9 16bc 9130 153c 2ebe 16bc 08d8 153c
00000050: 0fda 153c c2b8 16bc b3f3 17bc fd24 163c
00000060: 2457 163c 3153 16bc 895a 17bc 6437 16bc
00000070: 1463 18bc 315b 133c 1949 153c a173 15bc
00000080: 8f1d 16bc 121d 16bc b6bb 15bc d155 153c
00000090: 9e5e 16bc 0e35 153c 4e12 16bc ac80 13bc
000000a0: 110f 163c c356 19bc ad41 14bc 2dd6 153c
000000b0: d844 16bc a93b 153c 6911 763b a522 383b
000000c0: 7f82 16bc 5b0b 16bc 669d 163c 51b6 153c
000000d0: d06c 163c 72ae 163c ffcd 153c 33a8 15bc
000000e0: 896a 113c 9e81 163c 2874 163c 5873 163c
000000f0: 0fd5 1ebb ab2e 10bc 2c4d 16bc b92a 163c
00000100: 0976 153c 652a 163c e5a6 153c 5a6f 16bc
00000110: 8f80 16bc 1c62 82bb 4777 03bc e782 163c
00000120: 33f1 b9bb d14d 163c b97f 16bc e42f 48bb
00000130: c170 143c fcae 16bc 036c 163c 5304 14bc
00000140: f084 16bc a9b2 143c aeed 013b d084 16bc
00000150: 161b 163c 25a2 16bc 519f 14bc bd07 9abb
00000160: cb2a 17bc 9c05 173c 2fc1 16bc 5e54 153c
00000170: c869 163c 5738 163c 6af1 153c 8d4a 163c
00000180: 47df 15bc 4821 113c ae83 16bc 0a92 12bc
00000190: c07a 16bc 2db5 153c 68d6 163c b144 383a
000001a0: 6918 11bc c254 163c b1e1 163c 44a6 153c
000001b0: 6c20 a3bb 29b6 163c e655 abbb 0c56 16bc
000001c0: 1164 16bc 0a05 133c b685 163c e8d3 15bc
000001d0: 8852 163c 8f87 163c 707c 163c 29d1 09bc
000001e0: 3a95 16bc e7ca 9dbb cc60 14bc 7299 163c
000001f0: 572c 13bc 3770 163c 744c 163c be65 163c
00000200: 8550 aa3b 681f 143c 0796 22bc 5b60 16bc
00000210: e0d0 7dbb 8d1c 163c 03a1 163c 5e49 14bc
00000220: 2855 143c 0c6b 14bc 5ec4 13bc bf6e 163c
00000230: 3b0d 15bc ef67 b63b 285a 0cbc 9b17 16bc
00000240: 5c77 16bc 7c51 0a3c fa4e 0abc a78b 16bc
00000250: 7126 15bc 48eb 15bc 5d8f 163c 5373 163c
00000260: 447d 12bc 3e40 163c b28c 16bc 0db5 15bc
00000270: dffe 153c ac5e 163c 61e2 163c a85f 19bc
00000280: 8fc9 17bc 42da 163c c207 18bc 4891 163c
00000290: 949f 163c 5d4e b23b e1f4 163c 18ed 153c
000002a0: 5dac 0d3c f925 a43b 2740 163c f785 13bc
000002b0: a549 163c 5041 173c 407f 17bc ae86 163c
000002c0: 312f 17bc 8153 163c 2a2b 14bc 889d 14bc
000002d0: 31aa 15bc b91c 15bc bde7 163c d854 17bc
000002e0: 37f0 163c 3594 163c fd05 16bc 8b81 163c
000002f0: a829 15bc 1a94 163c b530 173c 0759 163c
00000300: 000f 16bc d985 163c d15e 1b3c d3b8 163c
00000310: 92bf 16bc d1f6 16bc fda9 163c f91e 13bc
00000320: d6ec 513b 4c27 163c b5a7 163c 1406 17bc
00000330: ab8d 0fbc 61c2 15bc d9cf 163c 32ac 173c
00000340: 2555 18bc 9594 163c 40a9 163c 866a 15bc
00000350: 770a 14bc 0e54 153c 120f 173c ffe7 15bc
00000360: 0e05 173c e5a5 21bc 0a97 163c 4501 16bc
00000370: 8e84 163c 7a12 173c 0b85 163c ce18 173c
00000380: 366e 163c 175f 1b3c 7cb0 153c baff 15bc
00000390: 75ea 15bc 4032 b63b 8440 15bc ebe5 163c
000003a0: f1c4 13bc d29e 15bc a1f0 123c 22eb 15bc
000003b0: cd74 143c 397d 153c fd9d 123c d1fa 14bc
000003c0: 963e 153c aaa1 163c 080f 15bc fe2a 16bc
000003d0: c966 173c efe5 163c ef20 113c cd7a d43b
000003e0: b739 17bc 3ff3 153c e432 153c c006 17bc
000003f0: d5f6 17bc b3db 15bc 01c0 163c 8226 163c

classifier.weight f4 [2, 416]
-1.300727 -1.5270857 -0.67230135 0.19731168 -1.2969679 -1.636888 1.2789073 2.3418343
-0.8962739 0.67697304 0.12486437 0.58323777 -0.7437274 -0.6383338 -0.39100438 1.7406148
-0.22823073 0.8423768 -0.4643518 0.28089043 0.23416074 -0.6963498 0.17952457 1.3731738
1.2498019 -0.50889134 -0.9493128 -1.12925 -1.3089434 -0.4489156 -1.0760874 -0.5384729
-0.28851822 -0.55962265 -1.4648343 -0.046766024 -0.39519382 0.9952306 0.70937234 -0.48968297
1.5030233 -0.580072 0.7938157 0.9530059 -0.06628523 2.247093 -0.7052513 0.46276033
-0.30755922 0.5138524 0.31342918 2.6570652 0.77397895 1.1563193 0.56169397 -0.857158
-0.17022198 1.3683325 -0.05589583 1.1338503 -0.13578206 -1.5668342 -0.53828776 0.4880405
0.61452496 1.180077 -0.509851 -0.9977103 -1.2441822 -0.5775556 0.16205111 1.1112878
-0.4829878 1.8836448 -1.2972982 -0.30444178 0.518472 -1.920075 0.30192178 0.51152277
-1.183898 -0.5605675 -0.0075007323 -1.7642921 0.88465875 -1.526406 0.0068668034 -0.04970083
0.56720245 -0.39197516 -0.7526799 1.397642 0.5039459 0.8468577 1.5445675 0.45284542
-0.26307434 0.6673419 -0.32320067 -0.57595986 -2.2186265 1.5099691 1.3351318 -0.21799287
-1.2028056 1.3211339 0.5708659 -0.88091695 0.22996417 0.35907683 0.7309718 -0.43713853
-2.2884374 -0.5587815 1.2423582 -0.046932567 2.013539 2.1145105 1.6238128 0.065101914
0.31233165 0.2609057 -0.27362806 1.7288789 0.039361965 1.3548532 0.45093772 1.5581317
-0.87354136 0.72830325 0.37865874 -1.3988748 1.6928902 -0.05104709 -0.6228035 0.51505005
0.18387808 -0.20581597 0.85156876 2.7307029 -0.49229863 -1.1573852 -0.68867207 -0.49032557
-0.2622083 -0.1996355 0.3463107 -1.4835408 -1.4608736 -0.6328687 0.8084306 -0.14098196
-0.39372122 0.14478874 -2.2902238 0.41406667 -0.23935539 -0.11944812 0.10529136 -0.5440015
-0.39459613 1.8917081 -1.131014 1.6441995 0.8363755 0.9438425 0.9546667 1.0731937
2.141689 -0.6416359 1.0704999 0.07128911 1.3504053 0.22014888 -0.1994291 1.31038
0.10488039 0.5369719 0.97701436 -0.0005376782 -1.5091727 -1.7701557 1.4416639 0.41046664
0.09223988 0.81214225 -0.38174847 1.0473986 -1.4585149 1.1906252 0.7895527 0.5813329
-0.33570266 2.0082507 -0.8905396 1.2608367 -0.7053609 -0.97876346 1.731827 0.4856956
0.30222598 0.26809824 0.40783608 -1.1922104 -0.45429686 -1.3180242 0.09906572 -0.8883589
-0.8568422 0.44183674 1.3481705 -1.4389596 -1.2825383 0.13141966 1.3389932 -0.13203232
-1.0951791 -0.21505459 1.1198032 0.061844423 0.92151195 -0.16499725 1.4009168 0.5725659
2.0178456 -0.11912829 -0.50218344 -0.83743733 -1.3462518 -0.2096011 -1.6222525 -0.0843133
-0.9919163 -0.93062323 0.17647213 -1.565669 -0.05673662 0.06487406 0.16597895 -0.52168596
0.05178057 0.30449364 -0.5851156 -1.1031854 -0.6981347 -0.35623747 -0.036405984 0.80026215
-1.4029466 0.8397597 1.076872 -0.13919961 0.19132759 -0.8790216 0.68424565 -0.30499053
00000000: 397e a6bf 8b77 c3bf f11b 2cbf 130c 4a3e
00000010: 0b03 a6bf 8c85 d1bf 3cb3 a33f 9de0 1540
00000020: 3572 65bf 1b4e 2d3f e4b8 ff3d 124f 153f
00000030: eb64 3ebf d869 23bf ba31 c8be 77cc de3f
00000040: 51b5 69be 02a6 573f 85bf edbe dfd0 8f3e
00000050: d5c7 6f3e fb43 32bf 4ad5 373e 29c4 af3f
00000060: 82f9 9f3f b446 02bf 2a06 73bf 448b 90bf
00000070: 758b a7bf 44d8 e5be 3bbd 89bf 5cd9 09bf
00000080: a9b8 93be 6e43 0fbf b17f bbbf bb8d 3fbd
00000090: d856 cabe 6fc7 7e3f 6d99 353f bab7 fabe
000000a0: 1163 c03f 997f 14bf 8137 4b3f 32f8 733f
000000b0: 8dc0 87bd 5fd0 0f40 598b 34bf ecee ec3e
000000c0: 6778 9dbe d58b 033f ca79 a03e 5b0d 2a40
000000d0: 7c23 463f 4502 943f 2dcb 0f3f b56e 5bbf
000000e0: ac4e 2ebe 8525 af3f 07f3 64bd 0222 913f
000000f0: 740a 0bbe 068e c8bf 3acd 09bf 72e0 f93e
00000100: 8251 1d3f c30c 973f 9885 02bf f169 7fbf
00000110: 5d41 9fbf afda 13bf baf0 253e ae3e 8e3f
00000120: 2d4a f7be 461b f13f de0d a6bf cbdf 9bbe
00000130: 95ba 043f 05c5 f5bf 7e95 9a3e 28f3 023f
00000140: f889 97bf 5a81 0fbf b4c8 f5bb 53d4 e1bf
00000150: ff78 623f 4661 c3bf ec02 e13b 1993 4bbd
00000160: 2e34 113f f8b0 c8be a1af 40bf efe5 b23f
00000170: 9902 013f abcb 583f 63b4 c53f 5bdb e73e
00000180: aeb1 86be ebd6 2a3f 8f7a a5be 1b72 13bf
00000190: fafd 0dc0 ab46 c13f 99e5 aa3f 8639 5fbe
000001a0: 89f5 99bf ea1a a93f 4524 123f c683 61bf
000001b0: ba7b 6b3e ebd8 b73e f820 3b3f 9fd0 dfbe
000001c0: c275 12c0 4e0c 0fbf 9805 9f3f 5d3c 40bd
000001d0: d3dd 0040 2454 0740 19d9 cf3f 2754 853d
000001e0: efe9 9f3e 6f95 853e fa18 8cbe e74b dd3f
000001f0: 033a 213d d46b ad3f 4fe1 e63e dc70 c73f
00000200: 68a0 5fbf 1572 3a3f 8fdf c13e 540e b3bf
00000210: a0b0 d83f c116 51bd 0d70 1fbf 52da 033f
00000220: 894a 3c3e 6cc1 52be 6900 5a3f d6c3 2e40
00000230: 910e fcbe 3325 94bf d04c 30bf f40b fbbe
00000240: 2b40 86be 406d 4cbe a34f b13e aae4 bdbf
00000250: e8fd babf af03 22bf 4ff5 4e3f 935d 10be
00000260: d495 c9be 8043 143e 0793 12c0 8c00 d43e
00000270: 9419 75be 37a1 f4bd ffa2 d73d af43 0bbf
00000280: 8108 cabe 7e23 f23f 11c5 90bf 2175 d23f
00000290: b41c 563f a99f 713f 0965 743f 695e 893f
000002a0: 6f11 0940 4042 24bf 2406 893f 0600 923d
000002b0: 15da ac3f b56e 613e 2437 4cbe 88ba a73f
000002c0: 88cb d63d fe76 093f 9d1d 7a3f f9f2 0cba
000002d0: 922c c1bf 7694 e2bf 7188 b83f af28 d23e
000002e0: 43e8 bc3d 8ee8 4f3f 8974 c3be 2811 863f
000002f0: 9eb0 babf 6866 983f 2020 4a3f 3cd2 143f
00000300: 38e1 abbe 2e87 0040 67fa 63bf 1963 a13f
00000310: 8892 34bf 3e90 7abf 82ac dd3f 18ad f83e
00000320: 5dbd 9a3e 2c44 893e e4cf d03e 5a9a 98bf
00000330: 9999 e8be 04b5 a8bf f8e2 ca3d 7d6b 63bf
00000340: 035a 5bbf 6d38 e23e da90 ac3f d42f b8bf
00000350: 372a a4bf e092 063e 2164 ab3f 7b33 07be
00000360: d42e 8cbf 4537 5cbe b655 8f3f 9450 7d3d
00000370: 35e8 6b3f 0af5 28be 3e51 b33f ae93 123f
00000380: 6224 0140 88f9 f3bd 188f 00bf 4b62 56bf
00000390: fb51 acbf aca1 56be f8a5 cfbf 74ac acbd
000003a0: 3aee 7dbf 533d 6ebf 1cb5 343e d767 c8bf
000003b0: a864 68bd b1dc 843d 63f6 293e 368d 05bf
000003c0: dd17 543d 97e6 9b3e 23ca 15bf 2e35 8dbf
000003d0: f5b8 32bf c264 b6be 711e 15bd fbdd 4c3f
000003e0: c193 b3bf 7efa 563f f1d6 893f 588a 0ebe
000003f0: 61eb 433e 8f07 61bf b92a 2f3f b827 9cbe

classifier.bias f4 [2]
0.009162795 -0.009162809
00000000: 8c1f 163c 9b1f 16bc
