models/weights/epoch_20_classifier.pth (torch, 8872 bytes, 4 tensors)

layer_norm.weight f4 [416]
0.6515356 1.0754157 1.0685022 1.0068043 0.9219047 1.0462219 1.0199107 0.81653714
0.83704656 0.89918524 0.9006258 0.8210183 0.9435903 0.8981739 0.97991985 0.71788645
0.9088819 1.0617102 1.0031972 1.092743 0.8409063 1.0060372 0.94609016 0.8415844
0.73082536 0.88978124 1.139868 0.9762728 0.9402259 0.98648566 0.91442084 1.1258144
0.68270785 1.2115216 1.242233 1.2808678 0.64882404 1.3503767 0.8208004 0.74024534
1.2905096 1.2132736 0.72314775 1.3555863 0.7316896 1.3347055 1.2668419 1.283849
1.0118866 0.65608376 1.2095231 1.2901816 0.77120394 1.1479739 1.371875 0.75349134
0.8173097 1.2825378 0.722371 1.1518 0.860053 0.7611415 1.1540214 0.72239554
0.8674897 0.7614897 0.82976377 0.8064889 1.1157002 0.9448401 0.84395665 0.9184915
1.0644898 0.7291972 0.8170151 0.950437 1.156035 0.8633312 0.9793089 0.74284214
1.0592242 0.81815916 1.3805335 1.0490822 1.1035196 0.72412425 0.9938523 1.0742768
1.055532 1.1960057 0.63605154 1.2563676 1.0613579 1.1812274 1.2327468 1.248145
1.3090466 0.7889868 1.0857794 0.67645526 1.1553788 1.4038796 0.9195155 1.4748962
0.69030255 0.6642345 1.1847792 1.4037273 1.0147728 1.1636004 0.9969587 0.56828994
1.1732285 0.7337379 1.2550507 1.242343 1.2799561 1.2531606 1.1626785 0.74951154
1.072887 1.2703122 0.6407977 1.1934906 0.6900156 1.3239836 1.1488183 1.3417617
0.97578233 0.7325961 1.3813365 1.2038189 1.3398079 0.7499898 0.68324107 0.721224
0.7719707 1.3039536 1.2991258 1.2191213 0.71298134 1.0708236 0.7687638 0.7784181
1.2123057 0.68730026 0.7520699 1.2448208 1.3734204 1.298944 1.2192006 1.2804214
0.74988204 1.3154461 1.231287 1.2722768 0.7574039 0.748203 1.1849247 1.377248
1.0622561 0.9090091 1.0988984 0.9383417 0.9534029 0.8855065 0.95388836 0.9113348
0.7558432 0.6247095 0.8280237 1.0250216 0.8490285 0.9179193 1.0210327 0.91520286
1.1007748 0.9378954 1.0370362 1.032679 1.048689 1.0544437 0.95223886 1.0506524
0.9262873 0.9515611 1.071585 0.89365757 1.0736809 0.8984966 0.89386 0.9384968
1.0594525 0.93678004 0.91326386 0.9423785 1.1486629 1.1313787 0.9623467 1.0355495
0.9259761 0.8261194 0.8301469 1.0318292 1.0202315 1.0461209 0.9057413 0.96780413
1.0421436 0.9190727 0.90549994 1.0513465 1.0336257 0.8688043 0.9376673 1.0636963
0.9259655 0.92571294 0.94326174 1.0895356 0.91218805 0.93928546 0.95838434 0.92901313
0.92144454 0.8618558 0.83822405 1.0514221 1.0157249 0.86623687 1.0243518 0.93395007
0.9993693 1.1006366 0.90625495 1.0517514 0.8707554 0.94818026 0.8877101 1.1053692
0.93831676 0.93964136 1.0368452 1.1155416 0.9478584 0.92811716 0.9049798 0.8449273
1.0718412 0.8704891 0.9280166 1.1049397 1.0091876 1.0326008 0.91352105 0.9024823
00000000: 09cb 263f 39a7 893f aec4 883f f7de 803f
00000010: f201 6c3f 99ea 853f 6f8c 823f 9408 513f
00000020: af48 563f 0131 663f 6a8f 663f 412e 523f
00000030: 228f 713f baee 653f 07dc 7a3f 68c7 373f
00000040: 7cac 683f 1fe6 873f c468 803f 01df 8b3f
00000050: a345 573f d4c5 803f f732 723f 1372 573f
00000060: 5f17 3b3f b4c8 633f 32e7 913f 04ed 793f
00000070: a5b2 703f 538a 7c3f 7c17 6a3f b01a 903f
00000080: f1c5 2e3f 2413 9b3f 7e01 9f3f 7af3 a33f
00000090: 5519 263f 25d9 ac3f fa1f 523f b880 3d3f
000000a0: 6b2f a53f 8d4c 9b3f 3620 393f da83 ad3f
000000b0: 0250 3b3f a1d7 aa3f e027 a23f 2a55 a43f
000000c0: 8085 813f 1bf5 273f a7d1 9a3f ac24 a53f
000000d0: 9f6d 453f cff0 923f 9a99 af3f cfe4 403f
000000e0: 353b 513f 332a a43f 4eed 383f 2f6e 933f
000000f0: 6f2c 5c3f 2bda 423f f9b6 933f eaee 383f
00000100: ce13 5e3f fdf0 423f 666b 543f 0e76 4e3f
00000110: 44cf 8e3f 0ae1 713f 8b0d 583f 4222 6b3f
00000120: 3441 883f abac 3a3f e727 513f d74f 733f
00000130: f4f8 933f 4603 5d3f fdb3 7a3f e72a 3e3f
00000140: a994 873f e172 513f 52b5 b03f 5348 863f
00000150: 2140 8d3f 3560 393f 1b6d 7e3f e781 893f
00000160: ac1b 873f b716 993f 46d4 223f a7d0 a03f
00000170: 93da 873f 7632 973f a6ca 9d3f 37c3 9f3f
00000180: d78e a73f 0afb 493f d2fa 8a3f 2c2c 2d3f
00000190: 74e3 933f 54b2 b33f 5e65 6b3f 66c9 bc3f
000001a0: abb7 303f 460b 2a3f d8a6 973f 56ad b33f
000001b0: 13e4 813f dcf0 943f af38 7f3f 737b 113f
000001c0: 5a2c 963f 3fd6 3b3f 80a5 a03f 1805 9f3f
000001d0: 9ad5 a33f 9167 a03f a6d2 943f fddf 3f3f
000001e0: 5c54 893f 9799 a23f 510b 243f 4dc4 983f
000001f0: dda4 303f 4b78 a93f 7a0c 933f d9be ab3f
00000200: dfcc 793f 6b8b 3b3f a2cf b03f bd16 9a3f
00000210: d37e ab3f 55ff 3f3f e3e8 2e3f 23a2 383f
00000220: df9f 453f f4e7 a63f c149 a63f 2b0c 9c3f
00000230: f285 363f bf10 893f b4cd 443f 6946 473f
00000240: d52c 9b3f e9f2 2f3f a787 403f 4a56 9f3f
00000250: 3dcc af3f cc43 a63f c40e 9c3f d9e4 a33f
00000260: 45f8 3f3f 8a60 a83f d09a 9d3f f7d9 a23f
00000270: 39e5 413f 3b8a 3f3f 9dab 973f aa49 b03f
00000280: 02f8 873f d2b4 683f b4a8 8c3f 2937 703f
00000290: 3612 743f 8eb0 623f 0732 743f 3d4d 693f
000002a0: f17e 413f f6ec 1f3f 5cf9 533f e833 833f
000002b0: ef59 593f c2fc 6a3f 33b1 823f bc4a 6a3f
000002c0: 30e6 8c3f ea19 703f 9abd 843f d32e 843f
000002d0: 713b 863f 03f8 863f edc5 733f c77b 863f
000002e0: 2a21 6d3f 8299 733f b329 893f bec6 643f
000002f0: 606e 893f e003 663f 02d4 643f 5441 703f
00000300: 249c 873f d1d0 6f3f a9cb 693f b83f 713f
00000310: 6307 933f 04d1 903f 5a5c 763f e38c 843f
00000320: c50c 6d3f 907c 533f 8284 543f fb12 843f
00000330: f296 823f 4ae7 853f a9de 673f 03c2 773f
00000340: f664 853f 5948 6b3f d8ce 673f 8692 863f
00000350: d94d 843f f569 5e3f f70a 703f 3327 883f
00000360: 130c 6d3f 86fb 6c3f 9a79 713f e775 8b3f
00000370: 2885 693f 0375 703f ad58 753f ced3 6d3f
00000380: cae3 6b3f 95a2 5c3f da95 563f 0095 863f
00000390: 4603 823f b3c1 5d3f f61d 833f 5a17 6f3f
000003a0: abd6 7f3f a9e1 8c3f 5300 683f ca9f 863f
000003b0: d3e9 5e3f f1bb 723f f840 633f bd7c 8d3f
000003c0: 8735 703f 568c 703f 58b7 843f 11ca 8e3f
000003d0: d9a6 723f 1699 6d3f c2ac 673f 284d 583f
000003e0: 1832 893f 60d8 5e3f 7f92 6d3f aa6e 8d3f
000003f0: 0f2d 813f 432c 843f 84dc 693f 1409 673f

layer_norm.bias f4 [416]
-0.008847711 -0.008748492 -0.008730412 -0.008659142 -0.0012069298 0.008284829 0.008549792 0.008791512
-0.008791341 0.008530219 -0.008790694 -0.008765832 -0.008535522 -0.008713476 -0.008786025 0.008813736
-0.008752308 0.008488303 -0.00875303 0.0086454125 0.008575743 -0.008696041 -0.008741382 0.008609391
0.0087662 -0.008664783 -0.008783144 -0.008678156 -0.008763792 0.008308777 0.008535839 -0.008621289
-0.008602755 -0.008763874 -0.008720416 0.0086186435 -0.00870033 0.008703401 -0.008581333 -0.00817046
0.008777943 -0.008803664 -0.008333519 0.008733913 -0.008678792 0.00869416 0.003137629 0.002194504
-0.008780955 -0.008639301 0.008797978 0.008708355 0.00879692 0.008804688 0.00881797 -0.008616416
0.007903253 0.008860063 0.008802685 0.008841899 -0.0013585199 -0.00748444 -0.00874778 0.008741861
0.008524747 0.008686081 0.008595907 -0.008621988 -0.008761907 -0.0027859122 -0.006210645 0.008817412
-0.004559195 0.008787413 -0.008750932 -0.0019399488 0.008561161 -0.008867562 0.008675085 -0.008238602
-0.008794235 0.008366259 0.0016955779 -0.008779741 0.008672032 -0.00871956 -0.008341995 -0.0036808709
-0.008753927 0.008813398 -0.008754215 0.008642641 0.008758213 0.008755907 0.0087186815 0.0087386565
-0.008817924 0.0077073905 -0.008819019 -0.007848132 -0.008914851 0.008781622 0.008865202 0.00072963664
-0.0075804396 0.008837893 0.008863566 0.008772709 -0.0039627594 0.008800309 -0.0040580975 -0.008682123
-0.00881207 0.008076105 0.008915084 -0.008741507 0.008848773 0.00889953 0.008791941 -0.0040162643
-0.00868888 -0.0039343587 -0.008355925 0.008855695 -0.008139086 0.008845412 0.008781605 0.008862187
0.00396713 0.008298153 -0.009473449 -0.008822575 -0.0032270518 0.00867429 0.008721949 -0.008350247
0.0082981745 -0.008650508 -0.008557455 0.008893095 -0.008502401 0.0044861115 -0.0069702906 -0.00876216
-0.008819278 0.0069000195 -0.0047498946 -0.008843994 -0.0086879395 -0.008779608 0.008841309 0.008840845
-0.008093725 0.008777377 -0.008847881 -0.00873546 0.008628997 0.0087014325 0.008810981 -0.008987408
-0.008804228 0.008764837 -0.008823691 0.008833075 0.008833327 0.0042057824 0.008744897 0.008758208
0.007451749 0.0035687068 0.008543275 -0.008365996 0.008662503 0.008720739 -0.008821852 0.008827517
-0.008836923 0.008740934 -0.008418236 -0.008479046 -0.008737713 -0.008614832 0.008793517 -0.008702451
0.0088287685 0.0088370005 -0.008790464 0.008822097 -0.008558342 0.0088207945 0.008735078 0.008785652
-0.008646901 0.008835087 0.009069407 0.008807308 -0.008844311 -0.008820707 0.008818175 -0.008336351
0.0025738294 0.008636532 0.008503536 -0.008816544 -0.0080839805 -0.008756054 0.008756321 0.008395734
-0.008834646 0.008751503 0.008706355 -0.008695832 -0.008453381 0.008662099 0.008756767 -0.00878915
0.0087695345 -0.008727809 0.008857671 -0.008788831 0.008573388 0.008783415 0.008812568 0.008769836
0.008773879 0.009283446 0.00854098 -0.008802982 -0.008770944 0.0042975433 -0.008628381 0.008777581
-0.008669864 -0.0087019345 0.008348211 -0.008737524 0.008513496 0.008741886 0.008297004 -0.008439492
0.008661541 0.008783556 -0.008638161 -0.008790475 0.008748182 0.008793323 0.008055185 0.005650687
-0.00882488 0.008788481 0.008636528 -0.008798632 -0.0088056205 -0.008765676 0.00877771 0.008786542
00000000: fdf5 10bc d655 0fbc 010a 0fbc 13df 0dbc
00000010: d831 9eba 17bd 073c 6d14 0c3c 460a 103c
00000020: 8f09 10bc 55c2 0b3c d806 10bc 909e 0fbc
00000030: 93d8 0bbc f8c2 0ebc 43f3 0fbc 7d67 103c
00000040: d765 0fbc 8612 0b3c de68 0fbc 7da5 0d3c
00000050: 4681 0c3c d779 0ebc 0338 0fbc 670e 0d3c
00000060: 1ca0 0f3c bcf6 0dbc 2de7 0fbc d32e 0ebc
00000070: 0296 0fbc 8921 083c e7d9 0b3c 4f40 0dbc
00000080: 92f2 0cbc 5a96 0fbc 13e0 0ebc 3635 0d3c
00000090: d48b 0ebc b698 0e3c b898 0cbc 65dd 05bc
000000a0: 5dd1 0f3c 3e3d 10bc 5089 08bc b018 0f3c
000000b0: 7e31 0ebc f371 0e3c aea0 4d3b abd1 0f3b
000000c0: ffdd 0fbc db8b 0dbc 6525 103c 7dad 0e3c
000000d0: f520 103c 8a41 103c 3f79 103c de2b 0dbc
000000e0: a57c 013c cc29 113c 2339 103c 9ddd 103c
000000f0: 5d10 b2ba 0940 f5bb d952 0fbc 063a 0f3c
00000100: 61ab 0b3c 1050 0e3c d9d5 0c3c 3d43 0dbc
00000110: 1a8e 0fbc da93 36bb ab82 cbbb e876 103c
00000120: 4d65 95bb 15f9 0f3c 1260 0fbc e145 feba
00000130: 1d44 0c3c 4049 11bc f221 0e3c 34fb 06bc
00000140: b215 10bc a212 093c 273e de3a e7d8 0fbc
00000150: 2315 0e3c 7cdc 0ebc ddac 08bc c43a 71bb
00000160: a26c 0fbc 1266 103c d76d 0fbc dd99 0d3c
00000170: 9c7e 0f3c f074 0f3c cdd8 0e3c 952c 0f3c
00000180: 0e79 10bc 478e fc3b a67d 10bc 7495 00bc
00000190: 980f 12bc cbe0 0f3c 5a3f 113c 1645 3f3a
000001a0: 5665 f8bb cfcc 103c 7e38 113c 69bb 0f3c
000001b0: 09da 81bb 2c2f 103c caf9 84bb 773f 0ebc
000001c0: 8060 10bc a451 043c 9310 123c 8a38 0fbc
000001d0: 72fa 103c 56cf 113c 130c 103c de9a 83bb
000001e0: ce5b 0ebc cbeb 80bb 4ae7 08bc 7a17 113c
000001f0: cd59 05bc 59ec 103c b9e0 0f3c b532 113c
00000200: b3fe 813b faf4 073c 8636 1bbc 908c 10bc
00000210: f27c 53bb 9c1e 0e3c 81e6 0e3c 79cf 08bc
00000220: 11f5 073c dcba 0dbc 9134 0cbc 58b4 113c
00000230: a84d 0bbc 3b00 933b 0967 e4bb 2a8f 0fbc
00000240: bc7e 10bc 8f19 e23b 01a5 9bbb 66e6 10bc
00000250: dc57 0ebc 58d8 0fbc 23db 103c 31d9 103c
00000260: 8b9b 04bc fdce 0f3c b4f6 10bc 2d1f 0fbc
00000270: a360 0d3c 7490 0e3c ef5b 103c ec3f 13bc
00000280: 9c3f 10bc 649a 0f3c 3e91 10bc 9ab8 103c
00000290: a9b9 103c a9d0 893b c246 0f3c 967e 0f3c
000002a0: cd2d f43b f7e0 693b 18f9 0b3c 8811 09bc
000002b0: 2ced 0d3c 6ee1 0e3c 8789 10bc 4aa1 103c
000002c0: bec8 10bc 2236 0f3c a4ec 09bc b2eb 0abc
000002d0: a028 0fbc 3925 0dbc af12 103c ba94 0ebc
000002e0: 8aa6 103c 11c9 103c e105 10bc 8f8a 103c
000002f0: 4a38 0cbc 1885 103c 931d 0f3c b2f1 0f3c
00000300: bbab 0dbc 0ac1 103c da97 143c 874c 103c
00000310: bbe7 10bc ba84 10bc 1b7a 103c 3195 08bc
00000320: b1ad 283b 3e80 0d3c 6a52 0b3c 4473 10bc
00000330: ac72 04bc 8d75 0fbc ac76 0f3c 438e 093c
00000340: 31bf 10bc 7762 0f3c 19a5 0e3c f778 0ebc
00000350: 0d80 0abc 7aeb 0d3c 8b78 0f3c 5e00 10bc
00000360: 18ae 0f3c 16ff 0ebc c41f 113c 07ff 0fbc
00000370: 6577 0c3c 50e8 0f3c 9762 103c 5caf 0f3c
00000380: 51c0 0f3c 9819 183c 77ef 0b3c 623a 10bc
00000390: 01b4 0fbc 68d2 8c3b 0e5e 0dbc d8cf 0f3c
000003a0: 0c0c 0ebc 8f92 0ebc efc6 083c d527 0fbc
000003b0: 317c 0b3c 213a 0f3c 28f0 073c cc45 0abc
000003c0: 23e9 0d3c e7e8 0f3c 1387 0dbc ed05 10bc
000003d0: 8954 0f3c df11 103c e5f9 033c 6629 b93b
000003e0: 3b96 10bc 90fd 0f3c 3980 0d3c 2328 10bc
000003f0: 7345 10bc e99d 0fbc 62d0 0f3c 6ef5 0f3c

classifier.weight f4 [2, 416]
-1.2476192 -1.5219048 -0.6627174 0.20594466 -1.2773755 -1.6438807 1.2720006 2.3108048
-0.879453 0.675644 0.13056019 0.6094073 -0.72986156 -0.63385624 -0.35701215 1.7064604
-0.18497325 0.8515392 -0.4550305 0.2663663 0.21411677 -0.6890752 0.18108071 1.3540906
1.2121738 -0.4866442 -0.95469636 -1.1226513 -1.296538 -0.4461853 -1.079993 -0.5383479
-0.25487137 -0.5717203 -1.467676 -0.041650917 -0.33437178 1.0116864 0.7166854 -0.4587911
1.5144628 -0.576628 0.82631564 0.9659679 -0.045801092 2.2617967 -0.7116397 0.44697094
-0.2654718 0.55694455 0.31306842 2.6537752 0.75291586 1.1508152 0.60010576 -0.8316276
-0.18593504 1.3886508 -0.086438216 1.1309155 -0.11815802 -1.545641 -0.5292682 0.45810795
0.5960434 1.1509664 -0.5248291 -0.97428846 -1.2432408 -0.5516921 0.19957365 1.0937932
-0.4527224 1.8462739 -1.2760978 -0.27490148 0.5270362 -1.888495 0.29913214 0.543929
-1.1652347 -0.5834711 0.009083933 -1.7535918 0.88283455 -1.4851582 0.009297494 -0.03677169
0.5688642 -0.3775997 -0.6976361 1.4165516 0.4957271 0.8592091 1.5534674 0.4704288
-0.2940136 0.63916004 -0.30337128 -0.51802707 -2.218051 1.5483994 1.3186245 -0.19080156
-1.1534196 1.2784805 0.58396125 -0.840753 0.2721985 0.3521066 0.76321787 -0.3628306
-2.2727177 -0.59866035 1.258499 -0.068341896 2.0357 2.1314666 1.6199057 0.1041762
0.31942955 0.2952141 -0.21563217 1.7390072 0.080325626 1.3831332 0.44707155 1.5964727
-0.89073116 0.6934639 0.35809538 -1.4046657 1.7136053 -0.07727586 -0.655833 0.5401115
0.15730982 -0.23110415 0.8291428 2.7355497 -0.45965692 -1.18242 -0.66837525 -0.47535715
-0.26845893 -0.2250605 0.36581635 -1.5007092 -1.4899085 -0.6566596 0.81651187 -0.11938362
-0.36900562 0.1592504 -2.2996545 0.39446628 -0.259896 -0.14221156 0.11096668 -0.5694216
-0.38568842 1.8728592 -1.120351 1.6138935 0.83099407 0.9112931 0.9362615 1.0566757
2.1213138 -0.6433187 1.0246253 0.06944867 1.3118341 0.20562579 -0.18261746 1.2990016
0.09865816 0.50359833 0.97272605 0.0016181595 -1.5172584 -1.7698069 1.4383479 0.43729103
0.10272351 0.8136489 -0.37540686 1.0241625 -1.4491204 1.1670616 0.77941006 0.58477646
-0.3137596 2.0101578 -0.8905077 1.2587521 -0.69551706 -0.96102947 1.7170732 0.4815172
0.30030632 0.24592502 0.38241196 -1.1716431 -0.4606018 -1.3264306 0.0923244 -0.9150852
-0.8485548 0.43913433 1.3386943 -1.4482431 -1.282537 0.13321216 1.3265722 -0.15552543
-1.0956672 -0.20840247 1.1114053 0.03595133 0.88683873 -0.1604521 1.3992767 0.57268393
1.9706893 -0.11161915 -0.51440984 -0.85638213 -1.3440628 -0.23788403 -1.6209424 -0.09323822
-1.0123454 -0.93434703 0.17919974 -1.5536052 -0.05131716 0.07789411 0.16676436 -0.51082367
0.053611364 0.3085562 -0.5956908 -1.1151671 -0.70323384 -0.34877402 -0.037876587 0.78981185
-1.3878691 0.82162774 1.0709585 -0.11793578 0.19836478 -0.8805337 0.6737464 -0.28280514
00000000: fcb1 9fbf c7cd c2bf d9a7 29bf 28e3 523e
00000010: 0a81 a3bf af6a d2bf ead0 a23f 3ae4 1340
00000020: d523 61bf 01f7 2c3f 92b1 053e 1e02 1c3f
00000030: 35d8 3abf 6744 22bf 4cca b6be 4b6d da3f
00000040: a169 3dbe 79fe 593f c2f9 e8be 2a61 883e
00000050: 6d41 5b3e 3b67 30bf 396d 393e d752 ad3f
00000060: 8328 9b3f 6e29 f9be fb66 74bf 0ab3 8fbf
00000070: f5f4 a5bf 6672 e4be 363d 8abf 2bd1 09bf
00000080: 807e 82be 435c 12bf cfdc bbbf 279a 2abd
00000090: c732 abbe f17e 813f b278 373f abe6 eabe
000000a0: ebd9 c13f e59d 13bf 6c89 533f ac49 773f
000000b0: ed99 3bbd 47c1 1040 052e 36bf 60d9 e43e
000000c0: ebeb 87be eb93 0e3f 814a a03e 74d7 2940
000000d0: 18bf 403f ea4d 933f 88a0 193f 8ce5 54bf
000000e0: c165 3ebe 4fbf b13f 8506 b1bd d7c1 903f
000000f0: d5fc f1bd 90d7 c5bf 1f7e 07bf 208d ea3e
00000100: 4d96 183f de52 933f 335b 06bf f86a 79bf
00000110: 8422 9fbf b23b 0dbf 095d 4c3e 6a01 8c3f
00000120: 3bcb e7be b452 ec3f 2c57 a3bf e3bf 8cbe
00000130: d8eb 063f 34ba f1bf d927 993e ee3e 0b3f
00000140: 6926 95bf 5d5e 15bf c7d4 143c b275 e0bf
00000150: 7201 623f aa19 bebf 8454 183c e99d 16bd
00000160: 16a1 113f bf54 c1be 4898 32bf 9051 b53f
00000170: f1cf fd3e 21f5 5b3f 05d8 c63f 0bdc f03e
00000180: f388 96be fe9f 233f 7b53 9bbe 6c9d 04bf
00000190: 8cf4 0dc0 f431 c63f b0c8 a83f 7c61 43be
000001a0: 41a3 93bf 40a5 a33f 7c7e 153f 973b 57bf
000001b0: 9a5d 8b3e 5147 b43e 3f62 433f efc4 b9be
000001c0: 3574 11c0 ce41 19bf 7f16 a13f d6f6 8bbd
000001d0: e948 0240 f369 0840 1259 cf3f 555a d53d
000001e0: 458c a33e 4d26 973e aece 5cbe ca97 de3f
000001f0: c381 a43d 820a b13f 90e6 e43e 3859 cc3f
00000200: f506 64bf da86 313f 4758 b73e 16cc b3bf
00000210: 6b57 db3f ce42 9ebd ace4 27bf bf44 0a3f
00000220: d315 213e 91a6 6cbe b442 543f 3f13 2f40
00000230: 2758 ebbe 8a59 97bf a41a 2bbf 0362 f3be
00000240: 7373 89be 4276 66be 484c bb3e 3d17 c0bf
00000250: 52b5 bebf d81a 28bf ec06 513f 667f f4bd
00000260: 4eee bcbe 8912 233e 8a2d 13c0 7cf7 c93e
00000270: 1711 85be e89f 11be 8042 e33d 9dc5 11bf
00000280: f478 c5be dab9 ef3f a967 8fbf 1094 ce3f
00000290: 07bc 543f 814a 693f d5ae 6f3f 2641 873f
000002a0: 9bc3 0740 89b0 24bf ec26 833f 1b3b 8e3d
000002b0: 2eea a73f 918f 523e 1200 3bbe af45 a63f
000002c0: 4a0d ca3d d2eb 003f 9304 793f 6c18 d43a
000002d0: 8635 c2bf 0889 e2bf c91b b83f 9ce4 df3e
000002e0: b460 d23d 4b4b 503f 5435 c0be c217 833f
000002f0: c77c b9bf 4662 953f 6b87 473f e9b3 153f
00000300: 19a5 a0be 6da6 0040 50f8 63bf ca1e a13f
00000310: 680d 32bf 0706 76bf 0ec9 db3f 6c89 f63e
00000320: c0c1 993e c5d3 7b3e 80cb c33e 67f8 95bf
00000330: 00d4 ebbe 7ac8 a9bf 9314 bd3d 0643 6abf
00000340: e33a 59bf 37d6 e03e 565a ab3f 0860 b9bf
00000350: 2c2a a4bf c568 083e 1ecd a93f 0f42 1fbe
00000360: d33e 8cbf 7567 55be 8742 8e3f b441 133d
00000370: dd07 633f 8e4d 24be 801b b33f 6a9b 123f
00000380: 8c3f fc3f 9598 e4bd 5db0 03bf dc3b 5bbf
00000390: 400a acbf df97 73be 0a7b cfbf aef3 bebd
000003a0: 8994 81bf 5e31 6fbf 2380 373e 89dc c6bf
000003b0: f131 52bd f286 9f3d 47c4 2a3e 57c5 02bf
000003c0: 9797 5b3d 14fb 9d3e 317f 18bf ccbd 8ebf
000003d0: 2207 34bf 8292 b2be 7b24 1bbd 1c31 4a3f
000003e0: b2a5 b1bf 3256 523f 2b15 893f 5088 f1bd
000003f0: 2320 4b3e a86a 61bf a57a 2c3f d6cb 90be

classifier.bias f4 [2]
0.008715578 -0.008715887
00000000: c9cb 0e3c 14cd 0ebc
