models/weights/epoch_9_classifier.pth (torch, 8872 bytes, 4 tensors)

layer_norm.weight f4 [416]
00000000: ccc6 483f 5a7c 8a3f a4a2 8a3f 0450 843f
00000010: 898f 6e3f 8153 883f a10b 843f 0aa8 633f
00000020: ffc2 623f b0c6 693f 21d5 6c3f add4 603f
00000030: c6f7 793f e753 6c3f 8961 863f 077d 4d3f
00000040: 8ae2 7f3f 2bc6 853f 7487 823f 7942 8e3f
00000050: 8096 643f 1e17 833f 996c 763f e388 633f
00000060: 73bd 523f 7a7e 713f a320 903f 210c 7d3f
00000070: fd1a 783f 840c 7d3f 2fdd 6f3f 45c9 8f3f
00000080: d6a5 483f d454 963f 7410 9b3f 8ac9 9f3f
00000090: 100a 4a3f d232 a43f 69e4 5b3f fc24 543f
000000a0: 8269 9e3f e46e 9a3f e180 513f e074 a73f
000000b0: e5c5 4c3f aae5 a23f 71ae 9d3f a72d 9e3f
000000c0: a9b4 8a3f 04cf 463f 8af7 973f 092f a13f
000000d0: e1d7 543f 172e 923f 33da a13f f49c 533f
000000e0: 0559 5e3f 7a3f 9b3f be56 4e3f 8d18 923f
000000f0: 4336 603f affd 583f b39b 933f 0285 4d3f
00000100: 5aa3 693f a8b3 563f b677 603f d4a6 5e3f
00000110: 4893 8d3f cb6b 6a3f d416 5c3f 6f69 753f
00000120: 4853 7e3f 3ef6 523f 0482 5f3f 1752 673f
00000130: b212 913f 885f 6e3f 23af 7d3f b822 563f
00000140: f737 8b3f 9ada 613f c73e aa3f 9424 873f
00000150: a67c 8c3f 6c29 543f fc85 813f 4646 883f
00000160: 70e9 873f c606 943f 88d4 473f 2a73 993f
00000170: b78e 893f 6484 923f 9375 983f 3e2e 993f
00000180: 4ba4 9c3f 422d 5d3f 4226 8e3f 95f1 4f3f
00000190: c0b4 903f 9e1e a63f 974b 743f b35d b33f
000001a0: 1585 503f 165b 463f a9c1 923f a7ec a63f
000001b0: c29a 613f b192 943f d6ca 693f 2cec 403f
000001c0: 1308 953f d9df 553f 5df2 983f 8514 983f
000001d0: b071 9a3f 6f1e 983f c3e5 933f a9bd 593f
000001e0: d8e7 8b3f 9c91 973f 135f 4a3f 3e68 933f
000001f0: 8a45 4f3f e15c 9d3f 494b 923f 6531 9d3f
00000200: d542 6c3f 91d0 543f 54b4 a83f 417c 953f
00000210: 31f1 a33f 9d7b 543f cbdc 4a3f 3dc5 4e3f
00000220: 7d17 593f d448 9e3f 3238 a03f 03a9 963f
00000230: 263a 4e3f fe1c 7e3f f47c 5d3f 9a9e 533f
00000240: 9faa 963f 8ad6 613f 254a 5c3f 4026 973f
00000250: 3d60 a43f 16d9 9c3f 0256 973f b9fc 9b3f
00000260: b35d 553f 8946 a23f 6d58 973f 7209 9b3f
00000270: b39f 533f cc59 523f a343 953f d4fd a63f
00000280: c26c 8b3f 0321 703f b983 8f3f e427 7d3f
00000290: a372 773f 5e84 703f 9f43 7e3f 3d82 703f
000002a0: 6693 643f 09e6 693f 91a6 6b3f 1901 843f
000002b0: e527 693f 4686 753f a709 883f ca39 6e3f
000002c0: 12b7 8c3f 23aa 803f c749 863f 8629 853f
000002d0: d41a 833f 8ba7 853f 551b 763f aaad 8e3f
000002e0: a792 6a3f 3a72 733f b8b8 893f ce35 6e3f
000002f0: 3fb9 8a3f 1ab6 6f3f 73b8 6f3f 4e2c 703f
00000300: 3428 8d3f 4101 6e3f 349c 773f f0e5 723f
00000310: 54ed 933f ac93 933f 88f3 7c3f 8d17 853f
00000320: e59a 7e3f 5e93 633f 4c76 6d3f bf4e 883f
00000330: a9d4 823f 18dc 823f 35c8 6f3f b65c 853f
00000340: 1456 883f 96f7 6f3f 7c37 6f3f ec3c 833f
00000350: 4954 843f a4d5 613f 04eb 763f 4c4c 823f
00000360: 940a 733f 389d 803f 75cd 753f f907 863f
00000370: f913 7d3f 09e4 723f 5ad7 753f 5c16 723f
00000380: 8bc7 7c3f cbc2 6e3f d612 673f 258d 803f
00000390: 5652 813f 8dba 6c3f 2588 823f 68c6 763f
000003a0: 2f20 7d3f 87b8 8a3f f14c 6c3f 2ec5 873f
000003b0: e087 613f a22f 6d3f 3ec5 693f ddf5 903f
000003c0: 6e5d 703f c22b 713f 38c1 813f f5bc 893f
000003d0: 288c 793f 8bbd 6f3f baab 713f 74ab 713f
000003e0: e3de 8b3f 3999 663f ef6a 6f3f c726 933f
000003f0: a87b 853f ccd9 823f edb7 703f 02d5 643f
0.7842834 1.0819199 1.0830884 1.0336919 0.9318777 1.0650483 1.0316049 0.8892828
0.8857879 0.913188 0.9251271 0.8782452 0.976437 0.92315525 1.0498515 0.802689
0.99955046 1.0451101 1.0197587 1.1114036 0.89292145 1.024143 0.96259457 0.8888075
0.82320327 0.9433361 1.125996 0.9884663 0.9691618 0.9884722 0.93696874 1.1233298
0.78378046 1.1744637 1.2114396 1.248338 0.78921604 1.2828009 0.858954 0.82868934
1.2375948 1.2065091 0.8183728 1.3082542 0.79989463 1.2726338 1.231886 1.2357682
1.0836383 0.7765963 1.1872418 1.2592479 0.83141905 1.1420316 1.2644714 0.82661366
0.86854583 1.2128747 0.8060111 1.1413742 0.87582797 0.8476209 1.1531891 0.8028108
0.9126488 0.83867884 0.87682664 0.8697331 1.1060572 0.9157073 0.8597233 0.95864004
0.9934583 0.82406986 0.87307763 0.90359634 1.133383 0.9311452 0.9909536 0.83646727
1.0876454 0.88224185 1.3300408 1.0558038 1.097554 0.82875705 1.0119014 1.0646446
1.0618114 1.1564567 0.7805867 1.198827 1.0746678 1.1446652 1.1910881 1.1967237
1.2237638 0.8639718 1.1105425 0.81228 1.130516 1.2978094 0.9542784 1.401297
0.8145307 0.77482736 1.146535 1.304097 0.88126767 1.1607267 0.9132513 0.7536037
1.1643089 0.8354469 1.1948963 1.1881262 1.2065945 1.1884288 1.1554493 0.85055023
1.0930128 1.1841311 0.7905132 1.1516187 0.80965483 1.2293969 1.1429225 1.2280699
0.9228948 0.8313075 1.3180032 1.1678544 1.2807981 0.8300112 0.79243153 0.8076971
0.84801465 1.2365975 1.251715 1.1770328 0.8055748 0.9926299 0.8651879 0.8266388
1.177082 0.88217986 0.86050636 1.1808548 1.284187 1.2253749 1.1823123 1.21865
0.833461 1.2677776 1.182386 1.2112257 0.82665557 0.8216827 1.1661266 1.3046212
1.0892565 0.9380037 1.1212074 0.98888993 0.96659297 0.93951976 0.9932193 0.9394873
0.8928741 0.9136663 0.92051035 1.0312835 0.910765 0.9590801 1.0627946 0.9305693
1.0993369 1.0051922 1.0491265 1.0403297 1.0242562 1.0441755 0.96135455 1.1146748
0.91630024 0.9509617 1.0759497 0.9305085 1.0837783 0.9363724 0.9364082 0.93817604
1.1027894 0.92970663 0.9672272 0.94882107 1.1556802 1.1529441 0.988091 1.0397812
0.994551 0.8889674 0.9275863 1.0649031 1.0221149 1.0223417 0.93664867 1.0418918
1.0651269 0.9373716 0.9344404 1.0252967 1.0338222 0.88216615 0.96452355 1.0179534
0.94938016 1.0047979 0.9601663 1.0471183 0.988586 0.94879204 0.96031725 0.9456537
0.9874198 0.9326598 0.90263116 1.0043074 1.0103252 0.92472154 1.0197798 0.96396494
0.98877233 1.0837563 0.92304903 1.060705 0.88097954 0.92650807 0.9131659 1.1325032
0.9389256 0.94207394 1.0137091 1.076079 0.97479486 0.93648595 0.9440266 0.9440224
1.0927395 0.9007755 0.9352254 1.1496209 1.0428362 1.0222716 0.9403065 0.89387524

layer_norm.bias f4 [416]
00000000: d71d f7bb 14ca f6bb 8cc5 f6bb 5862 f7bb
00000010: f97e fdbb 7fe8 f33b 12d7 f43b f24c f63b
00000020: 357a f8bb 20f5 f43b c8a8 f6bb 95ee f6bb
00000030: 9538 f8bb b4e8 f7bb 87a7 f6bb 1719 f63b
00000040: f539 f7bb 08df f33b a4ea f6bb cae2 f53b
00000050: 221e f63b 3759 f7bb c4d0 f7bb 2a74 f63b
00000060: 0d53 f63b 30fa f6bb 18c0 f7bb 4c01 f6bb
00000070: be70 f8bb 9233 f33b b527 f53b c510 f5bb
00000080: 270e f7bb fb72 f5bb 3328 f4bb 6c1b f43b
00000090: d55f f6bb 6c3f f33b ddff f5bb 13a4 f6bb
000000a0: 28d3 f43b e135 fabb 9d29 f6bb 98bf f33b
000000b0: 2460 f6bb 939e f33b 15aa bb3b 671a 9e3b
000000c0: 5b6e f6bb 9b4b f6bb 79c9 f53b 6da8 f43b
000000d0: 364f f63b 6613 f63b d864 f33b c6b7 f5bb
000000e0: 5e42 f63b 1685 f53b c60f f63b 25ae f53b
000000f0: 36b1 f8bb 73e0 f7bb 41f8 f5bb a936 f63b
00000100: 14e6 f53b c037 f63b 7def f53b 6e5d f6bb
00000110: 175d f5bb 5480 fbbb 7865 f9bb dca0 f63b
00000120: c58d ffbb cd41 f63b 466a f6bb 4ea0 f8bb
00000130: d5b6 f33b 9f57 f6bb 042c f73b e7d9 f8bb
00000140: 7063 f6bb c1a7 f63b 564c 2739 d81b f6bb
00000150: c091 f53b 8994 f6bb 9a75 f6bb 9407 d8bb
00000160: 226f f5bb c8df f53b 1ec0 f6bb 1f01 f43b
00000170: d974 f63b 1e96 f53b f599 f43b fd5e f43b
00000180: 2687 f4bb 2e21 f73b 500f f6bb bfc3 f6bb
00000190: c4f4 f5bb 0672 f33b 6a01 f73b 6b96 a7ba
000001a0: 940f f7bb 9b27 f63b a70d f63b 4942 f33b
000001b0: 00e3 f9bb 4405 f63b 4aeb f8bb c3ad f6bb
000001c0: 71c2 f5bb 23c1 f63b 60e0 f53b b5ae f3bb
000001d0: a2a4 f53b e7ef f53b e6fb f53b d8b2 f6bb
000001e0: 9b54 f5bb 1efb e1bb 8c44 f7bb ba22 f63b
000001f0: eaea f6bb c121 f53b caed f53b 9961 f53b
00000200: 9140 f93b 9c0d f73b eb50 06bc 9698 f5bb
00000210: 55d4 bebb ebf4 f53b 50a6 f63b 2c8e f6bb
00000220: d59c f63b ae12 f2bb 29c6 f1bb 63eb f53b
00000230: 5e9b f6bb c112 003c d7c4 f6bb 08b8 f5bb
00000240: a55c f5bb 858a f93b 3c14 f7bb 4075 f5bb
00000250: 6702 f2bb 2903 f4bb 54b5 f53b 4e22 f53b
00000260: 3f01 f7bb 92f6 f33b 33a0 f5bb 01c2 f4bb
00000270: 8e5a f63b d410 f63b fa19 f63b 5b39 f9bb
00000280: be8d f8bb 6c6d f63b 0ccf f8bb c13e f63b
00000290: 5336 f63b 1b78 f73b 6fc5 f63b 8378 f53b
000002a0: cc73 f23b edb6 f73b f22d f63b 3dc7 f2bb
000002b0: 1ef3 f53b 970e f73b 8bf8 f7bb 9b0d f63b
000002c0: 903e f7bb 2529 f63b ecbf f3bb 0529 f4bb
000002d0: d005 f5bb af8c f4bb de8d f63b 402a f8bb
000002e0: 1e23 f63b e014 f63b 4590 f5bb fc1d f63b
000002f0: d3b6 f4bb d527 f63b f7af f63b c5da f53b
00000300: eb11 f6bb 53fd f53b 131c fb3b 3049 f63b
00000310: 148f f6bb 9ceb f6bb 974f f63b 561c f2bb
00000320: 7693 a33b 9a31 f63b d3b0 f63b d01b f7bb
00000330: 233d edbb 6921 f5bb 2b6c f63b 3e26 f93b
00000340: b017 f9bb c32e f63b 6e74 f63b 8eb6 f4bb
00000350: 9c57 f3bb 8b9b f43b 77bf f63b dd3d f5bb
00000360: c8af f63b 836b 0abc ee29 f63b 066b f5bb
00000370: 8c9b f63b d7ab f63b 1812 f63b 6390 f63b
00000380: b834 f63b 8c54 f83b 93be f53b 994f f5bb
00000390: 1c6d f5bb 1417 fb3b 41b4 f4bb c6a0 f63b
000003a0: 25f2 f0bb 5704 f5bb 62c1 f13b f98e f5bb
000003b0: e18a f33b e8af f43b b6c7 f13b aaa8 f4bb
000003c0: 2858 f43b f021 f63b bc52 f4bb 8c82 f5bb
000003d0: 384d f73b da53 f63b 1150 f03b fb9a 073c
000003e0: 6e5f f7bb ee69 f53b eb61 f43b 600f f7bb
000003f0: 0f25 f9bb 944e f5bb 635d f63b 9b60 f53b
-0.007541399 -0.007531414 -0.0075308736 -0.0075495653 -0.0077360836 0.007443487 0.0074719274 0.007516497
-0.0075829276 0.0074755102 -0.0075274445 -0.0075357654 -0.0075751045 -0.007565582 -0.007527295 0.007510315
-0.007544751 0.007442359 -0.0075352956 0.007503842 0.0075109163 -0.007548477 -0.0075627286 0.007521172
0.0075172246 -0.007537149 -0.007560741 -0.007507479 -0.0075817993 0.007421919 0.00748154 -0.0074788057
-0.007539529 -0.0074905134 -0.007451081 0.007449558 -0.0075187483 0.007423332 -0.007507308 -0.0075268834
0.007471461 -0.0076358174 -0.007512285 0.0074386112 -0.007518785 0.007434675 0.0057270625 0.0048249247
-0.0075204796 -0.007516337 0.007500824 0.007466367 0.007516767 0.0075096367 0.007427793 -0.007498714
0.007515236 0.0074926717 0.0075092046 0.0074975663 -0.0075894846 -0.007564598 -0.007506401 0.00751384
0.007504234 0.00751397 0.007505356 -0.007518462 -0.007487904 -0.00767521 -0.007610973 0.0075265
-0.0077988827 0.0075151683 -0.007519993 -0.007587469 0.0074375668 -0.0075177695 0.007543089 -0.0075943354
-0.007519178 0.007527322 0.00015954798 -0.0075106435 0.0074941814 -0.007525031 -0.0075213434 -0.0065927003
-0.0074900547 0.0075034834 -0.0075302264 0.0074464227 0.0075212535 0.007494702 0.007464642 0.0074576125
-0.0074624 0.007541797 -0.0075091496 -0.007530659 -0.007505985 0.007429364 0.0075380104 -0.0012785917
-0.007539699 0.0075120456 0.0075089517 0.0074236733 -0.0076259375 0.007507952 -0.007596408 -0.007528038
-0.007499986 0.007530348 0.007503554 -0.007436598 0.0074964324 0.007505405 0.0075068353 -0.007528644
-0.0074868924 -0.0068963906 -0.007546013 0.007511464 -0.007535328 0.0074808304 0.0075051533 0.007488441
0.007606574 0.007539464 -0.008198003 -0.0074949963 -0.005823652 0.007506003 0.00752715 -0.0075242724
0.00752602 -0.0073874807 -0.007378359 0.007504867 -0.0075258454 0.007816971 -0.0075307894 -0.007498745
-0.0074878507 0.00761539 -0.007540254 -0.007490784 -0.0073855403 -0.007446666 0.0074984226 0.007480896
-0.0075379903 0.007445165 -0.007495904 -0.007469416 0.007518119 0.0075093303 0.007510421 -0.0076057143
-0.0075852564 0.0075203683 -0.0075930413 0.007514805 0.0075138 0.0075521595 0.00753086 0.0074911728
0.007399058 0.0075596482 0.0075128013 -0.007409005 0.0075057885 0.007539581 -0.0075674704 0.007508946
-0.0075453 0.007512229 -0.0074386504 -0.007451179 -0.0074774995 -0.00746306 0.007524236 -0.007573396
0.0075115105 0.0075098127 -0.007494005 0.0075108986 -0.0074680834 0.0075120726 0.007528301 0.007502886
-0.00750946 0.0075070052 0.007663259 0.007516049 -0.0075243805 -0.007535411 0.007516812 -0.007388632
0.004991944 0.007513237 0.0075284033 -0.0075411573 -0.007239954 -0.0074807894 0.007520219 0.007603436
-0.0076017007 0.0075128987 0.0075212037 -0.0074680513 -0.0074262153 0.007464831 0.0075301486 -0.0074841813
0.007528279 -0.008448484 0.0075123226 -0.007489565 0.007525867 0.007527809 0.007509481 0.0075245365
0.007513609 0.007578438 0.007499525 -0.0074862954 -0.0074898135 0.0076626632 -0.007467777 0.00752649
-0.0073530846 -0.007477324 0.0073777894 -0.0074938503 0.007432327 0.0074672587 0.0073785437 -0.0074663954
0.007456798 0.00751137 -0.007456152 -0.007492369 0.007547047 0.00751732 0.0073337634 0.008276696
-0.007549218 0.0074894344 0.007457962 -0.0075396746 -0.0076032947 -0.007486174 0.007518457 0.007488323

classifier.weight f4 [2, 416]
00000000: f2d8 b0bf e8ae c3bf d343 2dbf 80e2 3b3e
00000010: 4bb9 a9bf 1708 d1bf cb46 a43f 15b7 1840
00000020: 962e 6dbf 5b49 303f 1720 df3d 0131 0e3f
00000030: 30ba 42bf 6772 28bf 2b92 dabe 954d e53f
00000040: f81c 8dbe 4b8c 543f e92f f1be 8164 913e
00000050: b3bf 873e db9f 34bf c9ba 2e3e de7b b33f
00000060: 1908 a73f 904b 0abf 2c87 70bf a32f 91bf
00000070: 168b a9bf f33b e8be 1717 88bf 9d9a 08bf
00000080: 02ba b5be ff8b 08bf d4e4 b7bf 247b a5bd
00000090: f5b2 f2be f4b4 713f d1f7 303f 0584 0bbf
000000a0: 7f49 bb3f 8bf1 10bf 8b42 3c3f 1393 6a3f
000000b0: e48b e5bd 8be5 0c40 3da2 2bbf 5346 003f
000000c0: de80 acbe 8cd2 e13e 5e2f 943e d22b 2840
000000d0: 87ad 503f 42a6 923f 05a6 fb3e 35cf 67bf
000000e0: 4202 10be 6afc a83f 5db9 b4bb b9ba 8f3f
000000f0: 46ab 3abe 8e02 cfbf 9f12 07bf f7d0 093f
00000100: 68ed 233f a84e 9d3f 8248 f6be 2afb 84bf
00000110: addb 9dbf f144 20bf b69c bc3d 0858 913f
00000120: d404 08bf 17a6 f83f 1dcf aabf 52a7 b3be
00000130: a400 003f 2efc fabf 332c 9e3e 5e8c e73e
00000140: f0e8 98bf 41da 05bf f34e 42bd 4cae e1bf
00000150: af1c 603f b8eb cbbf 05ce af3b 0b7f 86bd
00000160: 759b 113f 79a4 d8be 6ae9 57bf fce8 ad3f
00000170: 9d37 023f 2a6d 523f 7e9d c13f 3675 d53e
00000180: 8f6d 54be 7a95 363f 60c7 a7be 1fea 28bf
00000190: a2b7 0cc0 5ebb b83f a10f ae3f e7ce 8bbe
000001a0: 30f9 a4bf 44f9 b13f 2484 0b3f d3f6 72bf
000001b0: 9737 173e d11c b23e 6f9e 2c3f 0445 0cbf
000001c0: db2d 11c0 fa22 00bf c2af 993f 749b 43bc
000001d0: 73a8 fb3f 5c8c 0440 31b6 ce3f 355a 493b
000001e0: 2826 9d3e 8645 503e 6d04 bcbe 47ae d93f
000001f0: 23fd 18bd 7a18 a53f cb5e e13e b125 be3f
00000200: 1dcb 54bf 13a6 4a3f e454 dc3e 8885 afbf
00000210: 9361 d33f b09f 48b9 b68b 0dbf 381f ed3e
00000220: 8112 6c3e 3272 23be 13e0 643f 63d2 2c40
00000230: 083f 0dbf 4d77 8dbf 5f2d 3abf 7519 06bf
00000240: 03fc 6cbe aa23 14be 3643 9b3e 8c15 b8bf
00000250: fc36 b3bf c6fd 14bf 1c9b 473f 5c7c 3fbe
00000260: 1483 e3be 7f34 da3d 4052 10c0 66f0 eb3e
00000270: c86c 47be 6703 94bd ea0f b33d fd77 fcbe
00000280: ebb4 cebe c907 f53f 7fa0 91bf 6b56 d63f
00000290: f5aa 583f f1d6 7b3f efe2 793f c281 8b3f
000002a0: 3c84 0a40 6e97 1fbf be6d 8f3f 18dd 9f3d
000002b0: 9b72 b23f db6d 733e 1a92 5ebe 90f0 a93f
000002c0: a920 e53d 0862 123f 9d82 7c3f 142d 643b
000002d0: 8479 bfbf 44ad e1bf fe7f b93f 850b c63e
000002e0: def1 b13d 8195 503f 333f c2be b5aa 893f
000002f0: 43aa babf eb0d 9c3f 1463 4e3f 1983 153f
00000300: 7a74 b3be 8cbf 0040 3a55 62bf 7a57 a23f
00000310: b981 34bf 4a00 7dbf 3beb df3f e5a8 fd3e
00000320: db60 9f3e 0a6f 993e 4fb5 df3e 3ed7 9abf
00000330: 6d81 e2be f912 a7bf 27f0 e63d 3268 5cbf
00000340: d94f 5dbf ab49 e73e f6af ae3f a15e b6bf
00000350: 9d4b a3bf b86b 093e ef65 ad3f 2dfe d7bd
00000360: c33d 8bbf 6184 5cbe 3df7 903f 67cb b83d
00000370: 58f1 753f 732c 26be ea2d b43f f9f1 133f
00000380: 9feb 0340 07b7 f2bd f44d f6be 850f 50bf
00000390: 90ea abbf 2e17 31be b219 cfbf 644f 8ebd
000003a0: c000 78bf b422 6bbf d873 313e 1edc c8bf
000003b0: 0b68 73bd 29d4 563d 1551 293e 45c9 05bf
000003c0: 03cd 463d 73cd 9c3e 3e18 12bf 2d34 8abf
000003d0: 1bfa 2fbf cf0d b6be 9d54 0fbd 5cc6 503f
000003e0: 1739 b5bf dd0b 5c3f f63f 8a3f 7d4c 1abe
000003f0: 6ce8 3e3e da1e 5fbf 6048 333f 3815 a3be
-1.3816206 -1.5287752 -0.67681617 0.18348122 -1.3259672 -1.6330594 1.2834104 2.3861744
-0.9264921 0.6886193 0.108947925 0.55543524 -0.7606535 -0.65799564 -0.42689642 1.7914301
-0.27561164 0.8302657 -0.47106865 0.2839699 0.26513442 -0.7055642 0.1706344 1.4022176
1.3049346 -0.5402155 -0.93956256 -1.1342663 -1.3245571 -0.45358238 -1.0632046 -0.5336092
-0.35493475 -0.5333862 -1.4366708 -0.08080128 -0.47402158 0.9441674 0.6912814 -0.5449832
1.4631804 -0.56618565 0.73539037 0.9163067 -0.11208323 2.2015102 -0.6704443 0.50107306
-0.33692068 0.44105947 0.28942388 2.6276746 0.8151478 1.1456988 0.491501 -0.9055055
-0.14063361 1.3202031 -0.005515261 1.1228858 -0.18229398 -1.6172655 -0.5276279 0.5383448
0.6403413 1.2289629 -0.48102194 -1.0389149 -1.2332665 -0.62605196 0.09209578 1.135499
-0.5313237 1.9425687 -1.3344456 -0.35088593 0.5000098 -1.9608209 0.30893096 0.4522428
-1.1946087 -0.52286154 -0.047438573 -1.7631316 0.8754377 -1.5931311 0.0053651356 -0.065672
0.56877834 -0.42312983 -0.84340537 1.3586726 0.5086611 0.8219782 1.5126188 0.41690987
-0.20744918 0.71321833 -0.327693 -0.6598224 -2.198708 1.443218 1.359852 -0.2730629
-1.2888546 1.3904195 0.54498506 -0.94907874 0.147673 0.3478761 0.6742925 -0.5479281
-2.2684238 -0.5005337 1.2006762 -0.011938918 1.9660782 2.0710669 1.614935 0.0030723934
0.30693173 0.20339021 -0.36722127 1.700631 -0.037350785 1.2898095 0.44017634 1.4855253
-0.83122426 0.7915966 0.43033516 -1.3712626 1.6514152 -0.00019132975 -0.55291307 0.4631288
0.23053934 -0.15961531 0.8940441 2.700341 -0.55174303 -1.1052033 -0.7272548 -0.52382594
-0.2314301 -0.1446673 0.30324715 -1.4381576 -1.4001155 -0.5819973 0.77971053 -0.18699783
-0.44435942 0.10654544 -2.2550201 0.46081847 -0.1947509 -0.072272114 0.0874327 -0.49310294
-0.40372404 1.9143001 -1.1377105 1.6745123 0.8463586 0.9837485 0.976119 1.0898974
2.164321 -0.6234044 1.1205366 0.07805842 1.3941225 0.23772375 -0.21735421 1.3276539
0.1118787 0.57180834 0.986368 0.0034816908 -1.4958959 -1.7631001 1.4492185 0.38680664
0.08688711 0.81478125 -0.37938842 1.0755221 -1.458321 1.2191747 0.8061993 0.58403164
-0.35049802 2.011691 -0.88411295 1.2682946 -0.7051044 -0.98828566 1.7493662 0.4954292
0.31128582 0.2996753 0.43693015 -1.2096937 -0.4423937 -1.3052665 0.11276274 -0.8609649
-0.8644996 0.45173392 1.3647449 -1.4247628 -1.275745 0.13419998 1.3546733 -0.10546527
-1.0878223 -0.21534874 1.1325451 0.09023171 0.96071386 -0.16227894 1.4076512 0.57791096
2.0612562 -0.11851316 -0.4810635 -0.8127368 -1.3430958 -0.17293999 -1.6179717 -0.06948736
-0.96876144 -0.9184983 0.17329347 -1.5692174 -0.059425395 0.052448425 0.16534837 -0.5226024
0.04853536 0.30625495 -0.5706824 -1.0797173 -0.68741006 -0.3555741 -0.034992803 0.8155267
-1.4158047 0.859556 1.0800769 -0.1506824 0.1864335 -0.8715645 0.7003231 -0.31852126

classifier.bias f4 [2]
00000000: dab1 f53b eab1 f5bb
0.007498008 -0.0074980156
