models/weights/film_cm_aasist.pth (torch, 764474 bytes, 28 tensors)

cm_ln.weight f4 [160]
1.0000162 0.9929706 0.989036 0.99536276 0.9936368 0.9935089 0.9946425 0.99176216
0.9960272 0.9903771 0.9936337 0.9977175 0.9950234 0.994718 0.9966113 0.98682183
0.9940282 0.9922147 0.99370015 0.99952704 0.99288934 0.99263525 0.995314 0.9905237
0.9922846 0.99517053 0.9934424 0.993211 0.9942623 0.9894606 0.99521136 0.9951037
0.995653 1.0007396 1.0001862 0.9962608 0.9948065 1.0010711 0.9973019 0.9984129
1.0026413 0.99699765 0.99834096 1.000493 0.99526805 0.99403566 1.0034282 0.99683774
0.9976582 1.0035082 0.99155146 1.0036452 1.0043337 0.9905085 1.0013556 0.99573076
0.9951082 0.99867046 0.99447083 0.98837465 1.0003791 1.0079209 0.9994108 1.0030012
0.99626124 0.9944598 0.99255955 0.9973114 0.9959137 0.9959711 1.0005938 0.99735564
0.9961828 0.9975051 0.99713707 0.9998603 0.99611175 0.9941238 0.99751925 1.0000968
0.9987182 1.0001141 0.996796 0.99024105 0.9974297 0.9995114 0.99445283 0.9963334
0.9935507 1.0011033 0.99692285 0.99909896 1.0006794 1.0049773 1.0046139 1.0070891
1.0079768 0.9970888 0.99727154 1.0004421 1.0037295 1.0022248 0.99827456 0.9956553
1.0021279 0.99854225 0.99359554 1.0011065 0.99653 0.9911475 1.005343 1.001204
1.0031099 1.0062176 0.997558 1.0050112 1.0040506 1.0068088 0.99698037 1.0020432
0.9929444 1.0015261 1.0021018 0.9980657 1.0047957 0.99524313 0.99666095 1.0034107
0.99968696 0.99956256 0.9899084 1.0010252 0.99710953 0.99574316 0.99573934 0.9925923
1.0065881 1.0032668 0.9876118 0.99348557 1.0001101 1.0047541 0.99300313 0.9951341
0.99417466 0.98635507 0.99973005 1.0078822 0.9928253 0.996854 0.99866754 0.99905396
0.99066067 0.9980615 1.005172 1.0024965 0.99531233 0.99714816 0.99109614 1.0028317
00000000: 8800 803f 5233 7e3f 7731 7d3f 18d0 7e3f
00000010: fb5e 7e3f 9956 7e3f e4a0 7e3f 20e4 7d3f
00000020: a3fb 7e3f 5b89 7d3f c75e 7e3f 6a6a 7f3f
00000030: dbb9 7e3f d7a5 7e3f eb21 7f3f 5ba0 7c3f
00000040: a278 7e3f c801 7e3f 2263 7e3f 01e1 7f3f
00000050: ff2d 7e3f 581d 7e3f e6cc 7e3f f692 7d3f
00000060: 5d06 7e3f 7fc3 7e3f 3e52 7e3f 1343 7e3f
00000070: f987 7e3f 4a4d 7d3f 2cc6 7e3f 1ebf 7e3f
00000080: 1de3 7e3f 3c18 803f 1a06 803f f30a 7f3f
00000090: a4ab 7e3f 1923 803f 2d4f 7f3f fd97 7f3f
000000a0: 8d56 803f 3d3b 7f3f 4693 7f3f 2810 803f
000000b0: e3c9 7e3f 1f79 7e3f 5670 803f c230 7f3f
000000c0: 8766 7f3f f572 803f 51d6 7d3f 7277 803f
000000d0: 028e 803f f791 7d3f 6c2c 803f 36e8 7e3f
000000e0: 69bf 7e3f dea8 7f3f a495 7e3f 1f06 7d3f
000000f0: 6c0c 803f 8d03 813f 63d9 7f3f 5862 803f
00000100: fa0a 7f3f eb94 7e3f 6218 7e3f cd4f 7f3f
00000110: 33f4 7e3f f6f7 7e3f 7513 803f b352 7f3f
00000120: d605 7f3f 7f5c 7f3f 6044 7f3f d8f6 7f3f
00000130: 2e01 7f3f e67e 7e3f 6c5d 7f3f 2c03 803f
00000140: ffab 7f3f bd03 803f 062e 7f3f 7080 7d3f
00000150: 8e57 7f3f fbdf 7f3f 7694 7e3f b50f 7f3f
00000160: 5759 7e3f 2724 803f 5636 7f3f f3c4 7f3f
00000170: 4316 803f 19a3 803f 3097 803f 4ce8 803f
00000180: 6205 813f 3641 7f3f 304d 7f3f 7d0e 803f
00000190: 357a 803f e748 803f ec8e 7f3f 44e3 7e3f
000001a0: ba45 803f 77a0 7f3f 475c 7e3f 4224 803f
000001b0: 971c 7f3f d8bb 7d3f 14af 803f 7427 803f
000001c0: e865 803f bdcb 803f f65f 7f3f 35a4 803f
000001d0: bb84 803f 1cdf 803f 1b3a 7f3f f442 803f
000001e0: 9b31 7e3f 0232 803f df44 803f 3c81 7f3f
000001f0: 259d 803f 41c8 7e3f 2c25 7f3f c36f 803f
00000200: 7ceb 7f3f 55e3 7f3f a36a 7d3f 9821 803f
00000210: 9242 7f3f 06e9 7e3f c6e8 7e3f 871a 7e3f
00000220: e1d7 803f 0c6b 803f 20d4 7c3f 1255 7e3f
00000230: 9c03 803f c89b 803f 7435 7e3f 1cc1 7e3f
00000240: 3b82 7e3f c481 7c3f 4fee 7f3f 4902 813f
00000250: cd29 7e3f d331 7f3f ada8 7f3f 00c2 7f3f
00000260: f09b 7d3f f580 7f3f 7aa9 803f ce51 803f
00000270: cacc 7e3f 1a45 7f3f 7ab8 7d3f ca5c 803f

cm_ln.bias f4 [160]
0.0006653842 0.0023001516 -0.00078676443 -0.0009559809 0.0018032596 -0.0065637785 -0.0004769226 -0.0038040783
-0.0017284307 0.00011764335 0.0015796591 0.004448525 -0.0055630533 0.00012879724 -0.0011881642 -0.0077238493
0.0013288488 -0.004267543 -0.003957018 0.002598417 -0.00016401846 -0.003043615 -0.0017179721 -0.0021650998
-0.0050236853 8.453757e-05 -0.0014406338 -0.0013784422 -0.0013955531 -0.0063493853 0.005834635 -0.0022424355
5.7700683e-05 -0.004108576 -0.0025941504 0.0034649186 0.0042473385 0.0043691 -0.0051996456 -0.0020428526
0.0006563225 -0.0045383517 0.00849029 -0.0037152073 0.0068030264 0.0045088218 0.0025042105 0.00039970587
-0.0012168733 0.0023162935 0.00887747 0.0038039598 0.0024425902 0.00764573 -0.00070286146 -0.00080231956
0.002710532 0.005555398 -0.0027860196 0.006710587 -0.0012431194 0.001181715 -0.00227465 -0.0075841355
-0.0018390401 -0.0054165516 -0.0034500828 0.0021547496 -0.0023613789 0.0025390428 -0.0018074934 0.005788066
0.0051497766 0.0024938842 0.0018011696 0.0026801124 0.0018695727 -0.0012751656 0.0044129123 0.004553
-0.0010218248 -0.00027698954 0.0059090434 -0.003096481 -7.341103e-05 0.0030905472 0.0015565202 0.0044092825
-1.9110974e-05 0.0015311167 0.0023511648 0.00127354 -0.0012019771 0.0012023629 0.000677556 -0.00045859892
-0.0024694784 -0.0017648643 0.0026883816 0.0045625563 -0.0049164095 -0.0017166588 -0.0023902787 0.0035445818
0.0011686988 -0.0014147338 -0.0014612157 -0.0018364306 0.0018266586 0.0022341495 0.003499765 0.0024547693
8.022167e-05 -6.508752e-05 -0.0013935526 -0.0033787389 -0.0021810203 0.0038703093 -0.0023248077 0.0074225157
-0.0030517052 -0.002209858 0.0028704435 0.0064455615 -0.002074265 -0.00474674 0.0003805211 0.0044848714
-0.0054848203 0.0021162177 0.0066855685 -0.005888781 -0.00012303985 -0.0021059471 -0.004105339 0.0025437705
-0.0021099732 2.2301692e-05 0.0042800396 -0.0032210092 0.002865715 -0.0021558371 -0.00036193038 -0.0020520473
-0.00089708023 0.004061833 -0.0020201376 -0.0047817244 0.0016705928 0.0027003973 0.002799001 0.0011641094
0.003828965 -0.00024387888 -0.003227246 -0.00095645245 -0.004781992 -0.0011073481 0.006004953 -0.0054379674
00000000: 2e6d 2e3a 24be 163b de3e 4eba cb9a 7aba
00000010: 5a5b ec3a f714 d7bb 780b fab9 d84d 79bb
00000020: 838c e2ba 4bb7 f638 900c cf3a efc4 913b
00000030: 464a b6bb bf0d 0739 2dbc 9bba 5818 fdbb
00000040: c42c ae3a bfd6 8bbb dfa9 81bb 344a 2a3b
00000050: 5ffc 2bb9 6377 47bb 942d e1ba 59e4 0dbb
00000060: ba9d a4bb c349 b138 a6d3 bcba d8ac b4ba
00000070: feea b6ba 810e d0bb 7730 bf3b d3f5 12bb
00000080: a303 7238 3ca1 86bb 9f02 2abb b013 633b
00000090: 422d 8b3b ab2a 8f3b ca61 aabb 61e1 05bb
000000a0: 0f0d 2c3a 74b6 94bb db1a 0b3c d67a 73bb
000000b0: eceb de3b bdbe 933b ae1d 243b 9d8f d139
000000c0: 7e7f 9fba f5cc 173b cf72 113c db4b 793b
000000d0: dd13 203b 0889 fa3b 3c40 38ba c152 52ba
000000e0: 2ea3 313b 0e0a b63b a795 36bb 7ce4 db3b
000000f0: 2af0 a2ba c7e3 9a3a 4b12 15bb 5784 f8bb
00000100: f20b f1ba 547d b1bb c91a 62bb b336 0d3b
00000110: 5dc1 1abb 1266 263b 6ae9 ecba d1a9 bd3b
00000120: 75bf a83b 6f70 233b 3915 ec3a d3a4 2f3b
00000130: 730c f53a 7523 a7ba 319a 903b 5531 953b
00000140: c0ee 85ba e838 91b9 a6a0 c13b 55ee 4abb
00000150: 3ff4 99b8 c78a 4a3b 2704 cc3a be7b 903b
00000160: 8150 a0b7 c0af c83a 0016 1a3b e9ec a63a
00000170: a98b 9dba 9b98 9d3a 039e 313a 1b70 f0b9
00000180: f9d6 21bb 0553 e7ba 8f2f 303b 7f81 953b
00000190: d519 a1bb 8301 e1ba 39a6 1cbb 374c 683b
000001a0: 062f 993a 976e b9ba 4386 bfba 63b4 f0ba
000001b0: 7e6c ef3a cf6a 123b 505c 653b 32e0 203b
000001c0: ae3c a838 997f 88b8 dea7 b6ba d56d 5dbb
000001d0: 73ef 0ebb 04a5 7d3b cd5b 18bb 9338 f33b
000001e0: 1eff 47bb 44d3 10bb 0d1e 3c3b 4a35 d33b
000001f0: 64f0 07bb 8b8a 9bbb ad80 c739 d4f5 923b
00000200: 02ba b3bb 3eb0 0a3b 9d12 db3b adf6 c0bb
00000210: 4204 01b9 ee03 0abb 1486 86bb 63b5 263b
00000220: 7a47 0abb 8514 bb37 933f 8c3b 9117 53bb
00000230: b8ce 3b3b f248 0dbb 79c1 bdb9 a47b 06bb
00000240: 092a 6bba 2019 853b 4964 04bb 03b0 9cbb
00000250: cbf7 da3a 26f9 303b 726f 373b 0895 983a
00000260: 5fef 7a3b bdb9 7fb9 3480 53bb 70ba 7aba
00000270: 42b2 9cbb 7024 91ba 32c5 c43b fa30 b2bb

condition_to_gamma_beta.0.weight f4 [128, 160]
-0.05472368 0.031536944 -0.030815426 0.06841611 -0.056554288 -0.032326113 -0.018183013 -0.0041613053
0.025408529 0.009948093 0.050252333 -0.019745 -0.060553387 -0.06378117 -0.0056229522 0.06799367
0.042776965 0.0012785081 -0.074488826 -0.050256625 0.0063390275 -0.058107473 -0.0059593227 0.046737567
0.049009245 -0.01464256 -0.034758043 -0.009743551 -0.0154098645 0.034383774 -0.030212907 -0.052694097
0.068567224 -0.0070586316 0.037664585 -0.050637487 -0.059730675 -0.009221577 -0.022415318 0.031720195
-0.07631065 -0.031421874 0.029397026 -0.04468987 0.048351794 0.06668419 -0.04875278 0.03547745
-0.069375545 -0.04933427 -0.025331374 0.041828793 0.043936618 0.014547211 0.0130401105 -0.02662101
0.05407085 0.07153484 0.0725269 0.027512213 -0.066430256 -0.030100707 0.029340873 0.055635322
0.06743136 -0.009803039 0.0050455676 0.037554957 -0.06123264 -0.071888894 -0.07988227 0.055137943
-0.028230771 0.024187777 0.02412255 -0.05212329 0.036284827 -0.010000403 -0.034314338 -0.057799503
0.011448491 0.0023904205 0.017453961 -0.019412324 -0.051672548 -0.0057494314 -0.0102397315 -0.07238617
0.025692023 -0.023625517 0.0022098601 0.07143528 0.02364091 -0.07868445 -0.028600143 0.036279377
0.0168552 -0.004046078 -0.06876447 0.051511083 -0.011366075 0.025770022 -0.013251976 0.018264499
-0.051621232 0.043579854 -0.014770331 0.012271407 0.037268415 0.025173355 -0.02176817 0.017881602
0.05124758 0.02600162 0.07133714 -0.018809168 -0.059872475 -0.06689709 -0.05497753 -0.048829876
-0.07291841 -0.079825476 0.04728371 0.02716718 -0.019823002 0.01979143 -0.040919777 -0.07105735
0.07857971 0.02548829 0.030754372 -0.06616331 0.01708214 0.042144813 -0.018160231 -0.04337381
0.051584482 -0.009984099 -0.06621689 -0.018996222 0.06367286 -0.060353074 0.06629079 -0.031201605
0.05165916 0.06787286 0.035122484 0.0709613 0.07616518 0.0183605 -0.04401648 0.052654937
-0.072838135 0.0039166543 0.002934509 -0.05306267 -0.056847148 0.0640719 -0.065710984 -0.063523434
0.022546366 0.05215656 0.058437277 0.0719955 0.07210518 -0.06550551 -0.04761003 -0.0045910305
-0.0396571 0.01767864 -0.004358735 0.015005115 0.04052461 0.012348835 0.042379912 -0.042144705
0.060614225 0.059839252 -0.015260106 0.064174265 -0.07453507 0.023415517 -0.035701707 0.042010874
0.039129794 0.01359557 0.003813517 -0.01476558 0.024000105 0.044538047 0.04629111 -0.048611887
-0.057705976 -0.025061227 -0.028154084 -0.024509354 -0.06617775 -0.08163273 -0.038078383 0.048967034
-0.048827097 -0.06931905 0.004796603 0.009109853 -0.07671154 -0.019983083 0.039709203 -0.010968033
-0.07636349 -0.07928908 -0.05383906 -0.040985122 -0.075031444 -0.018447757 0.05959103 -0.008327575
0.06628389 -0.03860394 -0.04481536 0.027851095 0.01974052 -0.0402708 0.03111307 -0.06576235
0.05340428 0.0091421 -0.048436955 -0.04222677 -0.02799494 -0.033891894 -0.037267882 0.02890702
-0.0057420433 -0.03033698 0.060626995 -0.072992526 -0.039212618 -0.07090613 -0.018798947 0.044591658
-0.040269654 0.08001028 -0.01831159 -0.025803376 -0.029781146 0.025495213 -0.020537075 0.060074493
0.05646896 -0.0369216 -0.06780945 0.044468466 -0.005853213 -0.01546802 -0.023236163 -0.045159273
00000000: f025 60bd e22c 013d a270 fcbc bf1d 8c3d
00000010: 78a5 67bd 6368 04bd 8bf4 94bc 8f5b 88bb
00000020: 8c25 d03c 54fd 223c 64d5 4d3d 44c0 a1bc
00000030: d406 78bd b49f 82bd be40 b8bb 4440 8b3d
00000040: e636 2f3d 9d93 a73a 998d 98bd e4d9 4dbd
00000050: 9eb7 cf3b 1a02 6ebd 6c46 c3bb e46f 3f3d
00000060: ebbd 483d 59e7 6fbc 735e 0ebd 6aa3 1fbc
00000070: a879 7cbc 00d6 0c3d 0f81 f7bc c4d5 57bd
00000080: f96c 8c3d 184c e7bb 2e46 1a3d 4169 4fbd
00000090: 27a8 74bd 1916 17bc 54a0 b7bc 09ed 013d
000000a0: c248 9cbd 39b4 00bd 08d2 f03c ba0c 37bd
000000b0: 880c 463d b891 883d ffb0 47bd cd50 113d
000000c0: c414 8ebd bb12 4abd be83 cfbc ab54 2b3d
000000d0: e2f6 333d 6d57 6e3c 30a6 553c 4e14 dabc
000000e0: 6579 5d3d dc80 923d fc88 943d 4b61 e13c
000000f0: 960c 88bd c295 f6bc 455c f03c dde1 633d
00000100: 7419 8a3d ed9c 20bc 4a55 a53b 3ad3 193d
00000110: 14cf 7abd 7c3a 93bd 5199 a3bd 53d8 613d
00000120: 3844 e7bc 7225 c63c a79c c53c 3b7f 55bd
00000130: 669f 143d bbd8 23bc 318d 0cbd 2cbf 6cbd
00000140: 7492 3b3c 9aa8 1c3b 9cfb 8e3c 9806 9fbc
00000150: 98a6 53bd ba65 bcbb 8cc4 27bc 333f 94bd
00000160: 1478 d23c 4d8a c1bc 4dd3 103b a94c 923d
00000170: 95aa c13c 5025 a1bd d94a eabc af99 143d
00000180: eb13 8a3c f694 84bb 63d4 8cbd 49fd 523d
00000190: c638 3abc a71b d33c d11e 59bc 6e9f 953c
000001a0: c970 53bd ca80 323d 42ff 71bc 030e 493c
000001b0: c4a6 183d 5a38 ce3c 2953 b2bc 707c 923c
000001c0: fce8 513d 5901 d53c 3519 923d af15 9abc
000001d0: d73c 75bd 5701 89bd 1e30 61bd d601 48bd
000001e0: 3f56 95bd 8a7b a3bd 90ac 413d b58d de3c
000001f0: d963 a2bc a321 a23c 7f9b 27bd 8486 91bd
00000200: 66ee a03d d1cc d03c 98f0 fb3c a180 87bd
00000210: d8ef 8b3c 0aa0 2c3d c4c4 94bc bca8 31bd
00000220: 404a 533d 5994 23bc b99c 87bd f79d 9bbc
00000230: eb66 823d c934 77bd 77c3 873d 829a ffbc
00000240: 8e98 533d ed00 8b3d 98dc 0f3d 2854 913d
00000250: 7dfc 9b3d c268 963c a04a 34bd b4ac 573d
00000260: 292c 95bd 4757 803b e450 403b 3e58 59bd
00000270: 8ed8 68bd 2138 833d 7b93 86bd 9318 82bd
00000280: 28b3 b83c 1ea2 553d ed5b 6f3d 6072 933d
00000290: e1ab 933d c127 86bd bc02 43bd 5b70 96bb
000002a0: 7c6f 22bd ccd2 903c b8d3 8ebb 04d8 753c
000002b0: 22fd 253d c552 4a3c 8f96 2d3d ed9f 2cbd
000002c0: 9f46 783d 011a 753d 8605 7abc cc6d 833d
000002d0: d8a5 98bd e6d1 bf3c f43b 12bd 9813 2c3d
000002e0: 9046 203d f4bf 5e3c 33ec 793b 55eb 71bc
000002f0: de9b c43c 876d 363d bf9b 3d3d 421d 47bd
00000300: 1a5d 6cbd 344d cdbc 65a3 e6bc d7c7 c8bc
00000310: 3388 87bd 102f a7bd 14f8 1bbd a891 483d
00000320: ecfe 47bd 25f7 8dbd d32c 9d3b 7e41 153c
00000330: f11a 9dbd 90b3 a3bc 1ea6 223d 44b3 33bc
00000340: 7664 9cbd 5062 a2bd 5986 5cbd 04e0 27bd
00000350: 16aa 99bd c01f 97bc b915 743d 6270 08bc
00000360: d9bf 873d 2a1f 1ebd 5090 37bd fb27 e43c
00000370: dfb6 a13c fff2 24bd d6e0 fe3c 69ae 86bd
00000380: 72be 5a3d bfc8 153c d465 46bd faf5 2cbd
00000390: a555 e5bc 3ad2 0abd 35a6 18bd 6ace ec3c
000003a0: c027 bcbb 4285 f8bc 0354 783d 1b7d 95bd
000003b0: 699d 20bd 3c37 91bd 4000 9abc bea5 363d
000003c0: cbf1 24bd 6edc a33d 3002 96bc 9a61 d3bc
000003d0: 97f7 f3bc 56db d03c 5e3d a8bc ac10 763d
000003e0: ff4b 673d 1b3b 17bd aedf 8abd 9124 363d
000003f0: 4fcc bfbb 946d 7dbc c459 bebc eef8 38bd

condition_to_gamma_beta.0.bias f4 [128]
0.05226607 -0.014136111 0.004416348 -0.0015872157 -0.057043124 0.030915933 0.005850455 0.02393158
0.06342096 -0.038087424 0.028066844 0.082368866 0.0537054 -0.064730085 0.04451495 0.047459092
-0.045808505 -0.025294209 -0.07446625 -0.042908512 -0.01058705 -0.02959107 -0.057289712 0.025919449
0.07092049 -0.014950534 0.02456038 0.058602918 -0.0010059166 0.0724194 0.058336265 0.04822164
0.0064613745 -0.062507495 -0.01457513 0.031400204 -0.006423237 0.06327327 0.017653922 0.04628346
0.050178356 0.081008546 -0.06379831 -0.042568147 -0.056308586 0.060113132 -0.06589818 -0.021894168
0.06509506 -0.04365727 -0.014903802 -0.022676695 -0.0007915028 -0.020791175 -0.06824441 -0.0206103
-0.032754075 -0.04555334 -0.032967873 -0.06819662 0.041208964 -0.003339771 -0.009158321 -0.050854366
-0.050399598 -0.07546661 -0.06768417 0.044417445 -0.0117206285 -0.074389644 0.041929375 -0.028162843
-0.033157736 -0.043646865 0.041743144 -0.027708124 -0.024843015 -0.07710325 0.039021976 -0.05671258
-0.023239668 0.07210886 0.04220686 0.0035251358 0.011594359 -0.06288676 -0.040851273 -0.015495299
-0.029660854 -0.0115944715 -0.012646395 0.0010629582 -0.048990477 -0.0712705 0.019238891 0.06761581
-0.07315775 -0.07685492 0.07819971 0.028010115 0.061224163 0.024440866 -0.02064252 -0.016173054
-0.0026806616 -0.0024843998 0.0026256058 -0.025410367 0.0033469363 0.059947457 -0.06758521 -0.03916669
0.020941464 0.044230416 0.059967365 -0.013769427 0.015113461 0.047150627 -0.015621121 0.057217658
-0.027951568 -0.0061804997 0.032171313 -0.076990515 -0.015012904 0.010162762 -0.05523527 -0.0123283835
00000000: f214 563d 269b 67bc 03b7 903b 1f0a d0ba
00000010: 0da6 69bd 6943 fd3c 2cb5 bf3b 290c c43c
00000020: d9e2 813d 8f01 1cbd 70ec e53c 02b1 a83d
00000030: 32fa 5b3d 3591 84bd 4f55 363d 7764 423d
00000040: b3a1 3bbd cd35 cfbc c381 98bd d6c0 2fbd
00000050: 4e75 2dbc f968 f2bc 9ea8 6abd 0655 d43c
00000060: c33e 913d 16f3 74bc da32 c93c 9d09 703d
00000070: f6d8 83ba 9f50 943d 02f2 6e3d 0e84 453d
00000080: f0b9 d33b ee03 80bd 87cc 6ebc 809d 003d
00000090: 047a d2bb 6b95 813d f59e 903c ba93 3d3d
000000a0: d287 4d3d cfe7 a53d b0a8 82bd f05b 2ebd
000000b0: d5a3 66bd 3039 763d a0f5 86bd 665b b3bc
000000c0: 8f50 853d f7d1 32bd 142f 74bc 7ac4 b9bc
000000d0: db7c 4fba 4152 aabc bac3 8bbd efd6 a8bc
000000e0: 2329 06bd 2496 3abd 5209 07bd abaa 8bbd
000000f0: bbca 283d 0fe0 5abb c80c 16bc ab4c 50bd
00000100: cf6f 4ebd 3d8e 9abd 009e 8abd 11ef 353d
00000110: e107 40bc 9959 98bd 23be 2b3d c3b5 e6bc
00000120: 68d0 07bd 0ec7 32bd dcfa 2a3d 26fc e2bc
00000130: 9483 cbbc 4fe8 9dbd 82d5 1f3d 734b 68bd
00000140: 1e61 bebc cfad 933d 1ae1 2c3d f705 673b
00000150: 44f6 3d3c c6ca 80bd aa53 27bd ffdf 7dbc
00000160: 52fb f2bc bdf6 3dbc d332 4fbc f552 8b3a
00000170: 3daa 48bd 45f6 91bd e19a 9d3c 287a 8a3d
00000180: bbd3 95bd 1d66 9dbd 2b27 a03d 7875 e53c
00000190: 30c6 7a3d 3638 c83c 811a a9bc 5a7d 84bc
000001a0: 0aae 2fbb 50d1 22bb 5b12 2c3b 6729 d0bc
000001b0: 4658 5b3b 778b 753d 1d6a 8abd 406d 20bd
000001c0: 6f8d ab3c f42a 353d 57a0 753d 2a99 61bc
000001d0: 739e 773c 0421 413d bbef 7fbc 105d 6a3d
000001e0: b0fa e4bc ca85 cabb 11c6 033d 34ad 9dbd
000001f0: aff8 75bc b781 263c 613e 62bd fdfc 49bc

condition_to_gamma_beta.2.weight f4 [128]
0.99298406 0.98992693 0.9933216 0.9926992 0.99361867 0.9910122 0.9966497 0.9923121
0.993045 1.0006628 0.9920277 0.993717 0.99316514 0.99167705 0.99732316 0.99071646
0.9936269 0.9922574 0.99306124 0.9960852 0.9899 0.9987415 1.0020626 0.99214727
0.9990441 0.9943249 0.9946836 0.99284494 0.99395156 0.9951003 0.99173164 0.99646455
1.0084385 0.9946464 0.99198097 0.99207735 0.99214256 0.9900417 0.99744123 0.99098754
0.99672276 0.9926569 0.9925314 0.9914332 1.0033582 1.000235 0.9929369 0.99859893
0.9976487 0.99391574 0.9960225 0.995061 1.0058898 0.99858665 0.99637216 0.99744374
0.9900674 0.99896675 0.9943241 0.9966983 0.9934063 0.99671733 0.9929716 0.9979384
0.9925292 0.9956862 0.99376065 1.0042433 1.0003134 0.99450386 0.9919584 0.9966833
0.99467456 0.9964589 0.9932257 1.0030532 0.99333197 0.9986659 0.99787754 0.9951158
0.99376124 0.9925746 0.9957333 1.003482 0.98959315 0.99514335 0.99468815 0.9963553
1.0023288 1.0035315 0.99858457 0.9957237 0.99424875 0.9919576 0.99384207 0.9990151
0.98930514 0.98883325 0.9952351 0.9982862 1.0001051 0.9914746 0.9931865 0.99716735
1.0001401 0.9931786 0.99617577 0.99161476 0.99520844 0.99254435 0.99325913 0.99298096
1.0051199 0.9970872 0.99533975 0.9955511 0.9940362 0.9934994 0.9937087 0.9970057
0.9957424 0.9933305 1.0039518 0.99697775 0.993923 0.99087757 0.9917316 0.9922494
00000000: 3434 7e3f da6b 7d3f 534a 7e3f 8921 7e3f
00000010: cb5d 7e3f fab2 7d3f 6f24 7f3f 2a08 7e3f
00000020: 3238 7e3f b815 803f 87f5 7d3f 3d64 7e3f
00000030: 1240 7e3f 8cde 7d3f 9250 7f3f 989f 7d3f
00000040: 555e 7e3f 9504 7e3f 4339 7e3f 71ff 7e3f
00000050: 166a 7d3f 86ad 7f3f 9643 803f 5dfd 7d3f
00000060: 5bc1 7f3f 148c 7e3f 96a3 7e3f 162b 7e3f
00000070: 9c73 7e3f e5be 7e3f 20e2 7d3f 4d18 7f3f
00000080: 8314 813f 25a1 7e3f 77f2 7d3f c8f8 7d3f
00000090: 0efd 7d3f 5f73 7d3f 4f58 7f3f 5cb1 7d3f
000000a0: 3929 7f3f c31e 7e3f 8a16 7e3f 91ce 7d3f
000000b0: 0b6e 803f b307 803f 1d31 7e3f 2ea4 7f3f
000000c0: e865 7f3f 4371 7e3f 55fb 7e3f 51bc 7e3f
000000d0: ffc0 803f 60a3 7f3f 3f12 7f3f 7958 7f3f
000000e0: 0f75 7d3f 49bc 7f3f 068c 7e3f 9f27 7f3f
000000f0: e04f 7e3f de28 7f3f 6333 7e3f e478 7f3f
00000100: 6516 7e3f 4ae5 7e3f 1967 7e3f 0b8b 803f
00000110: 450a 803f ce97 7e3f fcf0 7d3f a326 7f3f
00000120: fea2 7e3f ee17 7f3f 0a44 7e3f 0c64 803f
00000130: 014b 7e3f 92a8 7f3f e774 7f3f e9bf 7e3f
00000140: 2367 7e3f 5e19 7e3f 61e8 7e3f 1972 803f
00000150: fa55 7d3f b7c1 7e3f e2a3 7e3f 2411 7f3f
00000160: 4f4c 803f b873 803f 3da3 7f3f c0e7 7e3f
00000170: 1687 7e3f eff0 7d3f 6f6c 7e3f 74bf 7f3f
00000180: 1a43 7d3f 2d24 7d3f bac7 7e3f af8f 7f3f
00000190: 7203 803f 48d1 7d3f 7841 7e3f 5c46 7f3f
000001a0: 9704 803f f440 7e3f 6005 7f3f 77da 7d3f
000001b0: fbc5 7e3f 6317 7e3f 3b46 7e3f 0034 7e3f
000001c0: c5a7 803f 1b41 7f3f 96ce 7e3f 70dc 7e3f
000001d0: 2879 7e3f fa55 7e3f b263 7e3f c43b 7f3f
000001e0: f9e8 7e3f e84a 7e3f 7e81 803f ef39 7f3f
000001f0: bd71 7e3f 27aa 7d3f 1fe2 7d3f 0f04 7e3f

condition_to_gamma_beta.2.bias f4 [128]
0.0022138772 -0.002779472 -0.0016974336 -0.000643722 -0.0020880136 -0.0009368286 0.0020395808 0.0019368328
0.0040913774 0.005685078 0.0013472367 -0.0015468001 0.00041142097 0.00071706396 -0.0005629897 0.0018047299
0.001990637 0.0045091202 -0.001097685 -0.0014726816 -0.0037847087 0.0011190051 -0.0008856137 -0.0022389903
-8.128238e-05 -0.002077929 2.9822757e-05 -0.00036046634 0.00023900134 0.0016542486 0.0019396493 0.0040431004
0.0010390928 -0.0034313193 -0.000865428 -0.0047019157 0.00038630763 -0.0024914574 0.00088734686 0.002524238
0.000973284 -0.0027986206 -0.0030356972 -0.004492679 -0.00028101695 0.002765922 -0.0010081998 0.0022128923
-0.00156139 8.968829e-05 -0.00019186197 -0.003400578 0.006031799 0.00043390293 0.0038810435 0.0008343585
0.00040241427 -0.003027755 -0.0009802717 0.0016683363 -0.001745584 0.00077955856 -0.0020281873 -0.0031911782
0.0019493602 0.00019717249 0.0005680991 -0.0032127295 0.00364762 0.0008108465 -0.0014545049 0.00038641054
-0.0013395824 0.00082396594 -0.0004277526 -0.00240016 -0.005782453 0.0029001804 -0.0017508277 0.0013253051
-0.0005222806 0.000863742 0.0021698934 0.004112606 0.0024597547 -0.001989266 0.0021213687 0.0024725308
-0.0032154939 -0.0045223096 -0.003205067 0.001259647 -0.0046739927 0.0047112494 -0.004227895 0.00088534906
-0.002258667 0.003320854 0.00047927778 0.0020600436 0.005400737 0.00041437024 -0.001157852 -0.0009981954
-0.0006441779 -0.0026636214 -0.0008505617 -0.0056160823 0.0042085582 0.0038224645 0.0013914189 -0.0014904239
-0.0013834493 7.64848e-05 0.003669483 0.0013634221 0.0028536238 0.0023841169 0.0032682822 -0.00052174367
-0.00054453115 -0.0029834025 -0.004761266 -0.00022035047 -0.006449972 0.0013440071 0.001844249 -0.0013807508
00000000: b216 113b cd27 36bb 6c7c deba 74bf 28ba
00000010: 0ed7 08bb 8195 75ba 7daa 053b 53dd fd3a
00000020: f610 863b e449 ba3b c395 b03a 00be caba
00000030: fdb3 d739 59f9 3b3a 9995 13ba b08c ec3a
00000040: 5975 023b 3ec1 933b 32e0 8fba ff06 c1ba
00000050: e008 78bb 95ab 923a 8828 68ba 06bc 12bb
00000060: 2576 aab8 dd2d 08bb e22b fa37 f9fc bcb9
00000070: 6f9c 7a39 5fd3 d83a d53b fe3a fc7b 843b
00000080: 2b32 883a fcdf 60bb e4dd 62ba 8712 9abb
00000090: 5589 ca39 b847 23bb d79c 683a b06d 253b
000000a0: fc23 7f3a 1069 37bb 8cf2 46bb 5337 93bb
000000b0: 7555 93b9 7944 353b 9225 84ba 2c06 113b
000000c0: 8ea7 ccba 0917 bc38 8e2e 49b9 3bdc 5ebb
000000d0: 66a6 c53b 777d e339 1b59 7e3b dab8 5a3a
000000e0: 21fb d239 4d6d 46bb 767c 80ba 14ac da3a
000000f0: 14cc e4ba 4a5b 4c3a 56eb 04bb 1623 51bb
00000100: ad81 ff3a 16c0 4e39 7cec 143a a88c 52bb
00000110: e90c 6f3b fd8e 543a 16a5 beba 2597 ca39
00000120: ed94 afba 6bff 573a fb43 e0b9 014c 1dbb
00000130: bb7a bdbb f410 3e3b 077c e5ba dcb5 ad3a
00000140: a8e9 08ba bf6c 623a c534 0e3b 0ac3 863b
00000150: d633 213b 585e 02bb a906 0b3b 2f0a 223b
00000160: 09bb 52bb e22f 94bb 1a0c 52bb bd1a a53a
00000170: 4b28 99bb d360 9a3b 278a 8abb c516 683a
00000180: 2506 14bb afa2 593b 9347 fb39 cc01 073b
00000190: aaf8 b03b d53f d939 11c3 97ba e1d5 82ba
000001a0: 0cde 28ba 2790 2ebb 3bf8 5eba 1d07 b8bb
000001b0: f2e7 893b 5082 7a3b 4560 b63a 545a c3ba
000001c0: db54 b5ba 7766 a038 b57b 703b dbb4 b23a
000001d0: dd03 3b3b d83e 1c3b ad30 563b a0c5 08ba
000001e0: debe 0eba 3085 43bb 6504 9cbb e10d 67b9
000001f0: 495a d3bb 6529 b03a baba f13a 4ffa b4ba

condition_to_gamma_beta.2.running_mean f4 [128]
0.09484351 0.22635809 0.16604851 0.07181139 0.33542392 0.060725614 0.24602681 0.06686451
0.25163245 0.40883633 0.067790225 0.28710967 0.35331672 0.12950051 0.26229116 0.17769548
0.31605768 0.23930632 0.16150935 0.3312135 0.075698644 0.1867386 0.11913098 0.10074828
0.19101597 0.06638243 0.2383869 0.16319099 0.1865917 0.30102938 0.42061076 0.29501456
0.123655036 0.19686933 0.11915907 0.05128361 0.24926546 0.12881348 0.45973605 0.060604036
0.3205405 0.19440402 0.2442772 0.1473345 0.23789772 0.15626837 0.09136314 0.1525815
0.1604103 0.1886303 0.52541065 0.307562 0.10734933 0.2242712 0.60144705 0.5203691
0.059151884 0.37852114 0.27679783 0.2445748 0.11737078 0.305449 0.21423608 0.33040816
0.080704816 0.26893783 0.1361172 0.22746038 0.23812194 0.11898469 0.10688405 0.33891094
0.49670923 0.14033166 0.5650305 0.25856256 0.09974329 0.29033154 0.26574343 0.30512118
0.13848759 0.36076456 0.370555 0.60359234 0.14227355 0.18471034 0.1765102 0.21043725
0.14836085 0.15166931 0.18861489 0.22652861 0.16733131 0.18793817 0.26427492 0.27248096
0.11809608 0.3778953 0.15788038 0.34939548 0.23465452 0.1270909 0.14958307 0.41688433
0.6813867 0.1968142 0.13731968 0.31400412 0.60481244 0.30592078 0.10967976 0.1838503
0.11933044 0.5392501 0.166334 0.327403 0.1194209 0.15552145 0.27523738 0.36356106
0.13001294 0.37453634 0.1557782 0.28645545 0.26926002 0.43091032 0.06622189 0.07650201
00000000: 503d c23d 6aca 673e 9f08 2a3e da11 933d
00000010: afbc ab3e 6cbb 783d 74ee 7b3e 43f0 883d
00000020: f8d5 803e ff52 d13e 9ad5 8a3d 0a00 933e
00000030: eee5 b43e c89b 043e 074b 863e cef5 353e
00000040: 50d2 a13e b70c 753e b562 253e d194 a93e
00000050: e407 9b3d 6738 3f3e f1fa f33d 1d55 ce3d
00000060: b199 433e 83f3 873d b21b 743e 8a1b 273e
00000070: e511 3f3e 8620 9a3e 4b5a d73e 260c 973e
00000080: da3e fd3d 1d98 493e ac09 f43d c30e 523d
00000090: 723f 7f3e aee7 033e 8662 eb3e f03b 783d
000000a0: e21d a43e d911 473e cd23 7a3e dbde 163e
000000b0: 769b 733e d104 203e 991c bb3d 533e 1c3e
000000c0: 9942 243e 4d28 413e 5081 063f c478 9d3e
000000d0: f7d9 db3d 59a7 653e 6ff8 193f e936 053f
000000e0: 3f49 723d 86cd c13e 72b8 8d3e d171 7a3e
000000f0: 1760 f03d d063 9c3e b460 5b3e 422b a93e
00000100: 9148 a53d 38b2 893e 4f62 0b3e 60eb 683e
00000110: 3dd6 733e 3fae f33d 06e6 da3d bc85 ad3e
00000120: ac50 fe3e 1ab3 0f3e d7a5 103f 5062 843e
00000130: 3646 cc3d 56a6 943e 860f 883e d838 9c3e
00000140: b1cf 0d3e 22b6 b83e 63b9 bd3e 0785 1a3f
00000150: 28b0 113e b524 3d3e 17bf 343e dd7c 573e
00000160: e8eb 173e 334f 1b3e 4324 413e 1ef7 673e
00000170: e658 2b3e dd72 403e 0b4f 873e a082 8b3e
00000180: 5cdc f13d 7e7b c13e 65ab 213e f7e3 b23e
00000190: 4649 703e 1e24 023e 4e2c 193e dd71 d53e
000001a0: 5c6f 2e3f a989 493e 889d 0c3e 26c5 a03e
000001b0: fdd4 1a3f a6a1 9c3e c89f e03d 4143 3c3e
000001c0: 8563 f43d 4b0c 0a3f 7653 2a3e 5ea1 a73e
000001d0: f292 f43d 0441 1f3e eaeb 8c3e ad24 ba3e
000001e0: 1d22 053e 3ac3 bf3e 5284 1f3e 4aaa 923e
000001f0: 73dc 893e 47a0 dc3e 589f 873d 16ad 9c3d

condition_to_gamma_beta.2.running_var f4 [128]
0.05256709 0.09493018 0.06734793 0.028891899 0.13487355 0.025161091 0.11180525 0.02758884
0.11843757 0.14992534 0.02459214 0.13830356 0.13370536 0.053386256 0.12276787 0.07692863
0.13828121 0.120822415 0.078070305 0.12905796 0.031841375 0.11975038 0.06755788 0.04166686
0.13309988 0.0305771 0.10564121 0.068585604 0.087551236 0.13886611 0.14518538 0.12780896
0.113036595 0.08998606 0.052530672 0.02351976 0.1188856 0.07167272 0.18368672 0.026576536
0.1610298 0.099637985 0.12334876 0.06375613 0.16268364 0.08886091 0.050082404 0.08843248
0.085742645 0.09479533 0.16407199 0.13535838 0.08329573 0.08475102 0.2259539 0.2501279
0.026473748 0.16084358 0.14629222 0.1068159 0.04973248 0.123265535 0.119240835 0.14630781
0.036435377 0.1374934 0.06182901 0.17036597 0.099112965 0.05262338 0.050795812 0.1465522
0.14831331 0.09132632 0.21000493 0.19326328 0.06020278 0.12628618 0.14546998 0.12439505
0.058389556 0.15612143 0.15825227 0.25098187 0.05840191 0.08714179 0.09366645 0.105360344
0.1359906 0.11999335 0.085791305 0.09123051 0.0853795 0.078146346 0.14233734 0.12063405
0.05303853 0.13281052 0.06600031 0.14409983 0.10035761 0.060782317 0.063743904 0.14190438
0.27239344 0.08244915 0.08142263 0.13678771 0.19928052 0.1355068 0.055435568 0.077848434
0.11100177 0.22607903 0.07734342 0.13431968 0.051366508 0.0763897 0.15485081 0.16424976
0.055469356 0.14779757 0.13189344 0.12293194 0.1212159 0.1694118 0.028009076 0.029642267
00000000: 9750 573d c16a c23d b6ed 893d b4ae ec3c
00000010: 4b1c 0a3e a21e ce3c 27fa e43d fe01 e23c
00000020: 668f f23d 0786 193e 7575 c93c 739f 0d3e
00000030: 0fea 083e 8cab 5a3d b96d fb3d c28c 9d3d
00000040: 9799 0d3e be71 f73d 53e3 9f3d c527 043e
00000050: 1a6c 023d b03f f53d c95b 8a3d dfaa 2a3d
00000060: 564b 083e d47c fa3c 6b5a d83d 9c76 8c3d
00000070: 104e b33d eb32 0e3e 7aab 143e 5ae0 023e
00000080: bb7f e73d 9d4a b83d 672a 573d 83ac c03c
00000090: 4b7a f33d 26c9 923d 5f18 3c3e 09b7 d93c
000000a0: ffe4 243e 000f cc3d 469e fc3d 9392 823d
000000b0: 8a96 263e b5fc b53d 3523 4d3d 171c b53d
000000c0: d799 af3d 0e24 c23d 7d02 283e 639b 0a3e
000000d0: f496 aa3d f191 ad3d 7660 673e c410 803e
000000e0: 79df d83c 2eb4 243e a1cd 153e 4bc2 da3d
000000f0: 49b4 4b3d a472 fc3d 8a34 f43d b7d1 153e
00000100: 433d 153d 12cb 0c3e 6a40 7d3d 6b74 2e3e
00000110: bdfb ca3d 9d8b 573d 450f 503d c811 163e
00000120: 72df 173e 4b09 bb3d 880b 573e cfe6 453e
00000130: 3197 763d 2a51 013e 15f6 143e d5c2 fe3d
00000140: e329 6f3d 4cde 1f3e e20c 223e b280 803e
00000150: d736 6f3d 6577 b23d 32d4 bf3d 2ac7 d73d
00000160: 1f41 0b3e 13bf f53d 5ab3 af3d 10d7 ba3d
00000170: 73db ae3d 310b a03d e1c0 113e fc0e f73d
00000180: ee3e 593d 7bff 073e 2c2b 873d e88e 133e
00000190: 4a88 cd3d e1f6 783d 2a8c 823d 624f 113e
000001a0: 2777 8b3e 1adb a83d e8c0 a63d 1412 0c3e
000001b0: 3110 4c3e 4bc2 0a3e 6810 633d 006f 9f3d
000001c0: e554 e33d 4381 673e 3a66 9e3d 198b 093e
000001d0: b065 523d 3472 9c3d 3691 1e3e 1731 283e
000001e0: d633 633d 3f58 173e 130f 073e bec3 fb3d
000001f0: 0b40 f83d 497a 2d3e 4a73 e53c 57d4 f23c

gamma_linear.weight f4 [256, 128]
-0.08619956 -0.04180108 -0.053512722 0.029206704 0.06733137 -0.05872894 0.042339098 -0.06822071
0.0056968075 0.024117991 -0.0014235714 -0.08198029 0.06091651 -0.0411432 -0.00091734325 -0.041206107
-0.06850673 -0.048301894 0.042001635 -0.022589117 -0.04927301 -0.083141536 -0.086110085 0.07380934
-0.020599283 -0.052125823 -0.020843236 -0.07244657 -0.046206042 0.04837902 -0.0507936 -0.085763656
0.027038842 -0.07154326 -0.051266517 -0.017761009 -0.07279882 0.0051195337 0.0027555444 0.04139112
0.042166736 0.085682265 -0.056121454 0.040738493 -0.041820552 -0.08878787 -0.05574379 -0.07054634
-0.047086723 0.07014306 0.0056562177 -0.060994852 -0.05156089 0.078738615 -0.054424986 -0.028268514
0.07192141 -0.008117914 0.08501857 0.041129947 0.07531425 0.008098304 -0.044267893 -0.011543611
-0.055957798 -0.041951884 -0.08491904 -0.013395815 0.081040055 -0.05955839 -0.07739334 0.043988004
0.08853112 -0.04917949 -0.07965713 0.07451581 -0.013312711 -0.07142235 -0.0546758 -0.049002208
0.07821454 -0.0608789 0.013391707 -0.066431515 -0.015129807 0.06788418 0.021209113 0.0030267292
0.007903073 0.0006553941 -0.03224218 -0.089379676 0.0027066828 -0.061132196 -0.016843876 0.006341142
0.045519162 0.051800933 0.08202654 -0.028866062 -0.019881574 -0.07810946 0.0036470979 -0.015546791
0.009207812 0.0018192915 0.011507603 -0.028667951 -0.005014944 -0.08563288 0.062335044 -0.054582234
0.06746036 0.06347632 0.038626783 0.08565021 -0.021210928 0.071140274 0.040248085 0.07442999
0.0665503 0.07593447 0.037727702 0.051210336 0.004569697 -0.031696275 -0.0022271057 0.014443407
-0.083173364 -0.068029106 0.0108861495 -0.07878511 0.017917454 -0.046261985 -0.07319438 0.018769769
0.05657597 0.025444556 -0.075624935 -0.050696436 0.0139195705 -0.06047414 -0.048414253 -0.0077290423
-0.0127766775 -0.06565547 -0.044780232 0.056919236 -0.038723603 -0.0063138152 0.051174372 0.026660657
-0.04489909 0.053849544 0.06512064 0.009883799 -0.018733585 -0.064358875 0.016222626 0.021672722
0.0752779 -0.0035987366 -0.045215327 -0.04181597 -0.014193483 0.024337133 -0.039032117 0.040484343
0.037708215 0.07373739 0.042802673 -0.07055584 0.023361575 -0.016431175 0.04725878 0.030312393
-0.041521076 -0.005588468 -0.04430521 -0.0008069932 0.025135292 -0.036606178 -0.05632062 0.06355544
-0.0216198 -0.063576676 -0.07500159 0.07361777 0.06912784 -0.08227379 0.032398235 -0.06982967
-0.082006134 0.07183126 -0.06284306 -0.030894097 -0.014823095 -0.0062075364 -0.008556508 -0.024051169
-0.05048113 -0.07709773 0.048101 0.009744944 0.032147806 -0.030727768 0.057605926 0.056656178
-0.002349904 -0.048459575 -0.030130338 0.0018618419 0.02860814 -0.015272189 -0.07991733 0.08032241
0.07862161 -0.0754616 0.009255934 -0.009490829 -0.03621414 -0.047129877 0.026760032 -0.018189767
0.07468356 0.07668178 0.07428279 -0.050594356 0.017117351 0.073756844 0.0134733645 -0.05009628
-0.064500384 -0.04238687 -0.022088667 -0.045616604 0.07983393 -0.070733085 0.013726837 -0.08239639
-0.05681422 -0.053567518 -0.064129286 -0.06007958 -0.05019701 -0.008230891 -0.055479735 0.020252923
0.057102203 -0.014055802 0.06810844 0.00883265 -0.030014226 -0.07649707 0.05473258 -0.06225695
00000000: 6589 b0bd 9c37 2bbd 2830 5bbd e642 ef3c
00000010: 08e5 893d c28d 70bd c36b 2d3d 4db7 8bbd
00000020: 49ac ba3b 1893 c53c 2197 baba 48e5 a7bd
00000030: 9783 793d c685 28bd dd79 70ba bcc7 28bd
00000040: 424d 8cbd 35d8 45bd e809 2c3d d00c b9bc
00000050: 7fd2 49bd 1c46 aabd 7c5a b0bd 5a29 973d
00000060: d4bf a8bc e381 55bd 6fbf aabc de5e 94bd
00000070: 8c42 3dbd 1429 463d f30c 50bd dba4 afbd
00000080: 9080 dd3c 4685 92bd d7fc 51bd 897f 91bc
00000090: 8c17 95bd c3c1 a73b 5d96 343b bc89 293d
000000a0: 07b7 2c3d 2f7a af3d 9cdf 65bd 68dd 263d
000000b0: 074c 2bbd 6ad6 b5bd 9a53 64bd 997a 90bd
000000c0: 02de 40bd 2aa7 8f3d cb57 b93b bdd5 79bd
000000d0: 8331 53bd b641 a13d bcec 5ebd 5f93 e7bc
000000e0: 884b 933d 0001 05bc 371e ae3d e077 283d
000000f0: 5c3e 9a3d c0ae 043c 4052 35bd 6a21 3dbc
00000100: 0134 65bd bdd5 2bbd 09ea adbd 1f7a 5bbc
00000110: 54f8 a53d 80f3 73bd 6680 9ebd c42c 343d
00000120: ce4f b53d 6f70 49bd 4723 a3bd bf9b 983d
00000130: 8f1d 5abc e245 92bd bbf3 5fbd 8ab6 48bd
00000140: f22e a03d 275c 79bd e468 5b3c 3f0d 88bd
00000150: 03e3 77bc dc06 8b3d bcbe ad3c 175c 463b
00000160: e47b 013c c1ce 2b3a 6010 04bd b10c b7bd
00000170: 9a62 313b c165 7abd 2bfc 89bc 5bc9 cf3b
00000180: 4d72 3a3d 372d 543d 88fd a73d 8578 ecbc
00000190: afde a2bc daf7 9fbd 2604 6f3b f8b7 7ebc
000001a0: 5ddc 163c 4b75 ee3a 638a 3c3c 0dd9 eabc
000001b0: 6654 a4bb 4b60 afbd 0853 7f3d 9f91 5fbd
000001c0: a828 8a3d dfff 813d 1e37 1e3d 6169 af3d
000001d0: 8ac2 adbc feb1 913d 2ddb 243d c06e 983d
000001e0: 864b 883d 8883 9b3d 5d88 1a3d eec1 513d
000001f0: 66bd 953b f4d3 01bd a2f4 11bb 0aa4 6c3c
00000200: cc56 aabd d852 8bbd d25b 323c 165a a1bd
00000210: a0c7 923c 357d 3dbd efe6 95bd 0fc3 993c
00000220: 34bc 673d 1a71 d03c 3fe1 9abd 11a7 4fbd
00000230: e90e 643c bbb3 77bd 064e 46bd e843 fdbb
00000240: 4555 51bc 6076 86bd 7a6b 37bd 2524 693d
00000250: a49c 1ebd 1fe4 cebb 389c 513d 7367 da3c
00000260: 1ce8 37bd 5791 5c3d f85d 853d a8ef 213c
00000270: 2d77 99bc 96ce 83bd 50e5 843c fe8a b13c
00000280: 4d2b 9a3d c8d8 6bbb b533 39bd 3947 2bbd
00000290: c88b 68bc ab5e c73c 24e0 1fbd e9d2 253d
000002a0: ee73 1a3d a103 973d db51 2f3d 957f 90bd
000002b0: c660 bf3c ac9a 86bc 6c92 413d b251 f83c
000002c0: 0112 2abd 781f b7bb 6179 35bd 668c 53ba
000002d0: 87e8 cd3c 5cf0 15bd 73b0 66bd 5b29 823d
000002e0: 021c b1bc 7d34 82bd 6f9a 99bd eac4 963d
000002f0: e692 8d3d 297f a8bd 03b4 043d dc02 8fbd
00000300: d5f2 a7bd 451c 933d ddb3 80bd 9e15 fdbc
00000310: 91dc 72bc 9768 cbbb 9930 0cbc f506 c5bc
00000320: 4dc5 4ebd 6ae5 9dbd 8e05 453d 42a9 1f3c
00000330: 6bad 033d cdb8 fbbc 31f4 6b3d 4f10 683d
00000340: d900 1abb 8c7d 46bd e6d3 f6bc 0c09 f43a
00000350: 9e5b ea3c 3438 7abc b2ab a3bd 1380 a43d
00000360: 5e04 a13d 9d8b 9abd 33a6 173c 6c7f 1bbc
00000370: 4755 14bd 420b 41bd db37 db3c b502 95bc
00000380: b2f3 983d 560b 9d3d 9321 983d 073c 4fbd
00000390: b039 8c3c d40d 973d 63bf 5c3c c231 4dbd
000003a0: c718 84bd db9d 2dbd 4bf3 b4bc 7ad8 3abd
000003b0: f97f a33d 82dc 90bd 87e6 603c 70bf a8bd
000003c0: 07b6 68bd 9d69 5bbd 3756 83bd 0116 76bd
000003d0: 619b 4dbd dcda 06bc b83e 63bd 75e9 a53c
000003e0: 00e4 693d 4e4a 66bc 707c 8b3d d2b6 103c
000003f0: 65e0 f5bc 7faa 9cbd 452f 603d 2501 7fbd

gamma_linear.bias f4 [256]
-0.07292205 0.06497526 -0.080740705 -0.06405856 0.07378256 0.071281314 0.07558075 -0.03902706
-0.087069124 0.044764433 -0.06566969 -0.0033221382 -0.038339544 0.018835789 -0.07694036 0.0045298086
-0.049526785 -0.015019061 -0.03131656 -0.024350364 0.06695335 -0.067786954 0.031823665 -0.08292855
0.06736698 -0.055782102 -0.028021483 -0.009972832 0.009572005 -0.03695368 -0.07737941 -0.06189363
-0.02153124 0.06918517 -0.06525643 0.06418049 -0.061332144 0.07827413 0.020719806 0.08082049
-0.08450321 -0.064063385 0.015990093 0.03635466 -0.06396138 0.007233442 -0.036627486 0.043182313
-0.05597798 -0.041997388 0.054901514 -0.006559779 -0.041303165 -0.02999848 -0.07837619 0.023685308
-0.07643774 -0.049489625 -0.06596795 -0.05133466 0.04733901 0.0027098947 0.020038156 -0.013168683
0.055705283 0.05784496 -0.037234273 0.080095485 -0.00174863 -0.0013481526 0.027131718 -0.03609849
-0.084484465 0.001304125 -0.041196834 0.022571856 -0.08561317 0.047316317 0.018982334 0.04525743
0.07684646 -0.021787686 0.056187585 0.008640838 0.029730605 -0.033659138 0.0013712879 0.032743163
-0.032492258 -0.010093786 0.025438983 -0.02626808 -0.08596612 -0.00061912276 -0.062219247 0.07694596
0.023275524 0.027445521 0.08546403 -0.033062603 -4.800594e-05 0.0020369005 -0.049705613 -0.022127839
-0.06820869 0.08154523 -0.05933956 -0.07823609 -0.005798197 -0.01129805 -0.012327738 -0.0024481337
-0.038180463 0.040792216 0.069596626 0.0020991948 0.06846935 -0.090662256 0.032254744 -0.015642643
0.03237972 0.016676633 -0.018321414 -0.05425475 -0.04426992 -0.0132798655 -0.0772151 -0.038201675
0.05873752 0.0023418635 0.051713955 -0.074831866 -0.045948025 0.028520066 0.09109737 0.019329876
-0.007043459 0.07975685 0.0679863 0.017902138 -0.07227465 0.007082886 -0.07292051 -0.06367974
0.08246364 0.06639135 -0.047711495 0.08549958 0.03178068 -0.025722547 0.080269165 -0.032382607
-0.012530433 -0.043567523 -0.06268468 0.076956876 -0.016445003 -0.036848586 0.07764956 0.043402746
-0.0663225 -0.073236436 -0.0027772314 -0.058008723 -0.032853372 -0.08105501 -0.024194347 -0.07656119
0.020608818 0.013922562 -0.029551342 0.005148539 -0.027067158 -0.06869258 -0.007383195 -0.009138933
-0.058030814 0.034934234 0.0046267807 -0.06384426 0.026569234 0.001195486 0.02028476 -0.07463525
-0.042665407 0.08404073 -0.048575748 -0.07903005 0.032537922 -0.06531718 -0.014988454 0.07523378
-0.014783243 -0.030540714 -0.08944361 -0.05726828 0.05345822 -0.034804214 0.026102396 -0.037961252
0.021094488 0.05291188 0.057785776 -0.028891928 -0.04813058 -0.07816362 0.07483042 0.068856634
0.06982095 0.050219063 -0.06318045 -0.00797664 0.079845 0.08731661 0.028305834 -0.07504228
-0.034764286 -0.004281495 -0.021688428 0.07060359 -0.0135896355 -0.003775594 -0.055750903 0.08158418
-0.05018122 0.0609819 0.06282023 0.037795056 -0.058629986 0.0858874 0.045829605 0.049015418
0.04183098 -0.02397278 0.05873758 -0.035076395 0.061323218 0.032616008 0.032138325 -0.00035969593
0.03683673 0.004583486 0.008754516 -0.03549751 0.007223085 -0.0046413615 -0.018599035 -0.0022600475
0.04271563 -0.054071445 0.0768057 -0.041357346 -0.013749529 0.04676312 0.06402441 -0.04723055
00000000: 2858 95bd c011 853d 625b a5bd 2231 83bd
00000010: 501b 973d f0fb 913d 15ca 9a3d d7da 1fbd
00000020: 4c51 b2bd e95a 373d d57d 86bd 3bb8 59bb
00000030: ed09 1dbd 834d 9a3c e892 9dbd ca6e 943b
00000040: 99dc 4abd 8212 76bc cb45 00bd 6a7a c7bc
00000050: d71e 893d e3d3 8abd 8859 023d 72d6 a9bd
00000060: b3f7 893d c67b 64bd 4f8d e5bc 1765 23bc
00000070: e6d3 1c3c be5c 17bd 1979 9ebd 2d84 7dbd
00000080: 4862 b0bc f4b0 8d3d 2aa5 85bd 1071 833d
00000090: 6a37 7bbd 304e a03d 95bc a93c 3785 a53d
000000a0: 0510 adbd aa33 83bd a8fd 823c a0e8 143d
000000b0: 2ffe 82bd 8206 ed3b b406 16bd f0df 303d
000000c0: 2b49 65bd 7405 2cbd 69e0 603d 6af3 d6bb
000000d0: 822d 29bd 5fbf f5bc b283 a0bd b107 c23c
000000e0: 648b 9cbd a2b5 4abd 341a 87bd 4b44 52bd
000000f0: 8de6 413d 7d98 313b 0f27 a43c 76c1 57bc
00000100: 392b 643d d6ee 6c3d f782 18bd 1a09 a43d
00000110: 4932 e5ba 7fb4 b0ba 5643 de3c 03dc 13bd
00000120: 3106 adbd 2cef aa3a 03be 28bd 9de8 b83c
00000130: f555 afbd c1ce 413d d780 9b3c db5f 393d
00000140: ad61 9d3d 177c b2bc f424 663d 4d92 0d3c
00000150: 998d f33c 2ade 09bd c9bc b33a b21d 063d
00000160: 9a16 05bd 6860 25bc 6a65 d03c 2830 d7bc
00000170: 010f b0bd a04c 22ba 9cd9 7ebd d895 9d3d
00000180: 50ac be3c 6ed5 e03c c407 af3d a76c 07bd
00000190: fc59 49b8 857d 053b 1d98 4bbd 7145 b5bc
000001a0: ffb0 8bbd 2f01 a73d 0a0e 73bd 3e3a a0bd
000001b0: cdfe bdbb 751b 39bc 48fa 49bc de70 20bb
000001c0: 1e63 1cbd bd15 273d ad88 8e3d a592 093b
000001d0: a939 8c3d 22ad b9bd 8d1d 043d 0025 80bc
000001e0: 99a0 043d 6f9d 883c ca16 96bc 3b3a 5ebd
000001f0: 6054 35bd cb93 59bc f322 9ebd 5c79 1cbd
00000200: c196 703d f379 193b 03d2 533d 7341 99bd
00000210: ff33 3cbd eaa2 e93c 4291 ba3d b059 9e3c
00000220: d1cc e6bb 8f57 a33d 673c 8b3d 81a7 923c
00000230: bb04 94bd 8e17 e83b 5957 95bd 866a 82bd
00000240: b2e2 a83d 30f8 873d 216d 43bd 671a af3d
00000250: 752c 023d 17b8 d2bc 2964 a43d a0a3 04bd
00000260: 724c 4dbc dc73 32bd d360 80bd 919b 9d3d
00000270: acb7 86bc 8bee 16bd bc06 9f3d 14c7 313d
00000280: 17d4 87bd fcfc 95bd 3602 36bb 8e9a 6dbd
00000290: 4291 06bd 2b00 a6bd 3933 c6bc 1dcc 9cbd
000002a0: d3d3 a83c 751b 643c a815 f2bc 13b5 a83b
000002b0: f2bb ddbc b2ae 8cbd bbee f1bb 77bb 15bc
000002c0: b8b1 6dbd 3317 0f3d 409c 973b c8c0 82bd
000002d0: b9a7 d93c dbb1 9c3a 3a2c a63c 5eda 98bd
000002e0: ecc1 2ebd 8c1d ac3d 5df7 46bd 82da a1bd
000002f0: 7c46 053d 03c5 85bd 2292 75bc 2b14 9a3d
00000300: 6a35 72bc 8530 fabc 362e b7bd 2592 6abd
00000310: 02f7 5a3d dd8e 0ebd b1d4 d53c 427d 1bbd
00000320: 59ce ac3c 21ba 583d c7b0 6c3d c4ae ecbc
00000330: 9224 45bd 3f14 a0bd b140 993d b504 8d3d
00000340: 49fe 8e3d 81b2 4d3d c064 81bd 74b0 02bc
00000350: c685 a33d 0dd3 b23d a3e1 e73c c4af 99bd
00000360: ff64 0ebd c94b 8cbb eeab b1bc 9d98 903d
00000370: 10a7 5ebc f56f 77bb 0f5b 64bd 9b15 a73d
00000380: d38a 4dbd 28c8 793d e5a7 803d fdce 1a3d
00000390: ff25 70bd bce5 af3d d3b7 3b3d 64c4 483d
000003a0: f656 2b3d 9062 c4bc d196 703d 44ac 0fbd
000003b0: 0e2e 7b3d 5d98 053d 7aa3 033d 9295 bcb9
000003c0: 1ce2 163d 1131 963b 1a6f 0f3c d665 11bd
000003d0: a1af ec3b 9016 98bb 015d 98bc 4e1d 14bb
000003e0: 96f6 2e3d 057a 5dbd 4f4c 9d3d 5266 29bd
000003f0: b445 61bc af8a 3f3d 3b1f 833d d274 41bd

beta_linear.weight f4 [256, 128]
-0.037770372 0.046679158 -0.035635896 0.049858365 0.052390464 -0.019608987 0.014350715 0.03492786
-0.058924936 0.027745193 -0.058304694 -0.022100374 -0.042092983 0.032797463 0.013174614 -0.07841235
0.003262477 -0.058997642 -0.012687395 0.06807461 -0.03396358 -0.07325133 0.06593173 -0.044284075
0.042486366 0.070119224 -0.06251186 0.048675813 0.0011591625 0.010329224 -0.046220884 0.06574859
-0.06819001 -0.0053794417 -0.025738874 -0.04916245 -0.051755257 0.04722335 -0.030624794 -0.018779611
-0.056096274 0.08373088 0.00028893378 -0.089197785 0.010462658 -0.024021 0.050823435 -0.067435294
0.062371355 0.03292035 -0.055960804 0.05264261 -0.033751957 0.06362794 0.04540027 -0.07264928
-0.013808238 0.07426693 -0.07096561 -0.02085245 -0.023297355 0.005630973 0.06680144 -0.027804825
0.013320034 0.06204781 0.063295014 0.024856117 -0.0064120023 -0.01331417 0.032411978 -0.022225607
0.00036138986 -0.010552516 0.065201595 -0.05282381 -0.019406106 0.0175817 0.030636363 -0.011015246
0.07563517 0.0010387519 -0.00982784 0.027618747 -0.009501211 0.019902792 0.07394514 0.0063337
-0.01384649 -0.024578467 0.061422925 0.050892364 0.018082168 -0.06416941 0.0409689 -0.06691385
-0.057233624 0.07929374 0.0072883763 0.081942976 -0.042527117 -0.032923136 -0.05868875 0.047332384
0.060785472 -0.022913743 -0.057916317 -0.07309635 0.059553605 0.029509803 -0.008185518 -0.078612424
-0.02699129 0.04805149 0.008738951 0.06708346 -0.011600457 -0.010720795 0.0783367 0.0362947
0.010468867 -0.04385612 -0.053833917 -0.016307028 0.048329573 -0.058742896 0.04887808 -0.029479884
-0.058471978 0.044559754 -0.032859415 0.05022212 -0.013321303 0.061538022 -0.018470341 -0.045564096
0.05523557 -0.0862656 0.06547599 0.08650503 0.0707445 0.036519844 -0.052147012 0.00040588735
0.0009891497 -0.024780048 -0.060756277 -0.014330391 0.037426 -0.07669135 0.051680364 -0.08509751
-0.007097742 -0.0060973135 0.049740884 -0.07197498 -0.06536336 0.06401378 -0.02184183 -0.03407177
0.040591728 -0.04761951 0.057463516 0.024805672 0.028574632 0.047695316 -0.005938101 0.033768497
0.042415716 0.084704496 -0.062062565 -0.00863966 0.069873475 0.007991526 -0.080330536 0.04329998
0.030938564 0.0748569 0.053650938 0.03369448 -0.0396411 0.023919003 -0.082887255 0.047765866
0.08435006 -0.0051383087 -0.036966946 -0.026077941 -0.049247306 0.010220084 -0.020011298 0.04465938
-0.05452368 0.060814455 0.038381856 0.07178605 0.06958072 -0.044275362 0.0711225 -0.04420903
0.005703705 -0.075412884 -0.02299986 0.074279115 -0.06886361 -0.05461217 -0.078890145 -0.06775751
-0.045782845 -0.048484497 0.038268603 -0.08148565 -0.043601274 0.083866216 -0.010628764 0.08361239
-0.08194565 0.0071518673 -0.004306665 0.088813156 0.032962028 0.0629419 0.021447131 -0.012716433
0.020733269 0.00023620305 0.060720343 -0.042147048 -0.042045552 0.039612595 0.07969578 -0.0033257636
-0.029075304 0.05061325 -0.07511825 -0.03990665 -0.0032761574 -0.082983784 -0.080895916 0.041249894
0.06520698 -0.04110599 0.047809165 0.07138737 -0.048999656 0.077534005 -0.00591568 0.0029177137
-0.0763029 0.041635223 -0.00018070577 -0.041760687 0.016911304 -0.07516107 0.048120577 0.0374363
00000000: 1bb5 1abd a532 3f3d f2f6 11bd 4938 4c3d
00000010: 6297 563d 07a3 a0bc 431f 6b3c 8410 0f3d
00000020: 465b 71bd e349 e33c e7d0 6ebd d80b b5bc
00000030: b169 2cbd a256 063d 56da 573c a796 a0bd
00000040: 48cf 553b 83a7 71bd cbde 4fbc b36a 8b3d
00000050: 651d 0bbd cb04 96bd 3707 873d 3863 35bd
00000060: 2f06 2e3d ab9a 8f3d 3806 80bd 4a60 473d
00000070: 0aef 973a e83b 293c 1c52 3dbd 32a7 863d
00000080: 34a7 8bbd 0746 b0bb 55da d2bc 915e 49bd
00000090: 52fd 53bd 456d 413d d9e0 fabc b3d7 99bc
000000a0: 35c5 65bd 187b ab3d 097c 9739 54ad b6bd
000000b0: 916b 2b3c b0c7 c4bc 3c2c 503d 841b 8abd
000000c0: 1b79 7f3d 7dd7 063d 2837 65bd c79f 573d
000000d0: 7e3f 0abd 5e4f 823d a2f5 393d 25c9 94bd
000000e0: f33b 62bc 4319 983d 6b56 91bd c2d2 aabc
000000f0: 18da bebc 0684 b83b 32cf 883d f2c6 e3bc
00000100: 463c 5a3c d825 7e3d d1a0 813d 0e9f cb3c
00000110: c61b d2bb ad23 5abc 6cc2 043d 7a12 b6bc
00000120: ed78 bd39 76e4 2cbc 6a88 853d c85d 58bd
00000130: 8ef9 9ebc 7f07 903c 1cf9 fa3c 4a79 34bc
00000140: 9de6 9a3d bb26 883a f304 21bc b640 e23c
00000150: f8aa 1bbc 2e0b a33c 8d70 973d ed8a cf3b
00000160: 63dc 62bc c858 c9bc 9b96 7b3d 8374 503d
00000170: 0e21 943c 406b 83bd 01cf 273d 210a 89bd
00000180: ce6d 6abd c264 a23d 55d3 ee3b b8d1 a73d
00000190: ea30 2ebd 69da 06bd 9d63 70bd 9adf 413d
000001a0: 30fa 783d 9ab5 bbbc a939 6dbd 8ab3 95bd
000001b0: 7bee 733d 8bbe f13c 8d1c 06bc 8dff a0bd
000001c0: d61c ddbc a4d1 443d d12d 0f3c 0e63 893d
000001d0: d80f 3ebc 46a6 2fbc fe6e a03d c0a9 143d
000001e0: 9c85 2b3c 7aa2 33bd f480 5cbd 5196 85bc
000001f0: 3bf5 453d 649c 70bd 6234 483d cc7f f1bc
00000200: 5080 6fbd 4a84 363d 9897 06bd b6b5 4d3d
00000210: 9841 5abc 4b0f 7c3d 1d4f 97bc 6ba1 3abd
00000220: b13e 623d 05ac b0bd 4718 863d 8d29 b13d
00000230: 7ee2 903d d595 153d 1b98 55bd 47cd d439
00000240: 5ba6 813a 87ff cabc 93db 78bd 04ca 6abc
00000250: 014c 193d 5b10 9dbd caae 533d 9a47 aebd
00000260: 2d94 e8bb f9cb c7bb 19bd 4b3d 9e67 93bd
00000270: 3add 85bd a819 833d a3ed b2bc d78e 0bbd
00000280: 8343 263d ad0c 43bd dd5e 6b3d 4435 cb3c
00000290: 5915 ea3c 2a5c 433d 6794 c2bb d650 0a3d
000002a0: 1abc 2d3d 8d79 ad3d 5135 7ebd 5c8d 0dbc
000002b0: d319 8f3d e4ee 023c 5684 a4bd 525b 313d
000002c0: df72 fd3c 934e 993d 16c1 5b3d 3903 0a3d
000002d0: b55e 22bd c9f1 c33c cbc0 a9bd 24a6 433d
000002e0: b9bf ac3d 425f a8bb a76a 17bd 68a1 d5bc
000002f0: 8bb7 49bd 2472 273c bcee a3bc c1ec 363d
00000300: 3954 5fbd 9418 793d 4b36 1d3d 9104 933d
00000310: 5680 8e3d 155a 35bd aca8 913d 8714 35bd
00000320: 25e6 ba3b 1272 9abd 346a bcbc a61f 983d
00000330: 5d08 8dbd 03b1 5fbd 2891 a1bd 73c4 8abd
00000340: cb86 3bbd ae97 46bd 8abf 1c3d f3e1 a6bd
00000350: 4097 32bd 0dc2 ab3d 4424 2ebc f93c ab3d
00000360: 1fd3 a7bd 365a ea3b ed1e 8dbb ace3 b53d
00000370: 3103 073d afe7 803d e5b1 af3c 9658 50bc
00000380: d1d8 a93c 46ad 7739 e5b5 783d 62a2 2cbd
00000390: f537 2cbd d140 223d 8b37 a33d 0ef5 59bb
000003a0: 552f eebc d74f 4f3d 99d7 99bd 2875 23bd
000003b0: cdb4 56bb 67f3 a9bd c2ac a5bd a6f5 283d
000003c0: 3d8b 853d c15e 28bd 8bd3 433d 8b33 923d
000003d0: ddb3 48bd 26ca 9e3d 52d8 c1bb 1d37 3f3b
000003e0: b244 9cbd b289 2a3d d67b 3db9 410d 2bbd
000003f0: 9389 8a3c 0cee 99bd 151a 453d ce56 193d
