models/weights/film_4.pth (torch, 374084 bytes, 8 tensors)

film.gamma.weight f4 [160, 256]
0	0xbd44ec20	-0.04807675
1	0x3c98b22d	0.018639648
2	0xbcf0d714	-0.029399432
3	0x3d4fe67c	0.050756916
4	0xbd183387	-0.037158515
5	0xbcf6a3dd	-0.030107433
6	0xbc4edf3d	-0.012626466
7	0xbc0e106b	-0.008670907
8	0x3c784ff2	0.015155779
9	0x3ac36785	0.001490817
10	0x3cfaee22	0.030631129
11	0xbc06b4b0	-0.00822179
12	0xbd4fb43f	-0.050709005
13	0xbd294343	-0.04132391
14	0xbc3fa1aa	-0.011696259
15	0x3d1745ea	0.03693191
16	0x3cec712b	0.028862556
17	0xbc25e40e	-0.010125173
18	0xbd40664d	-0.04697256
19	0xbd00f335	-0.03148194
20	0x3c26a0c2	0.010170164
21	0xbd1544c7	-0.036442544
22	0x3b12e0ac	0.0022411747
23	0x3cff19b8	0.031140193
24	0x3d3d2631	0.046179
25	0xbba76a7a	-0.0051091285
26	0xbc9005d3	-0.017580902
27	0xbc24250d	-0.010018599
28	0xba8a0046	-0.0010528646
29	0x3c65e76a	0.014032224
30	0xbcc3254e	-0.0238215
31	0xbd22881f	-0.039680596
32	0x3d54ce14	0.051954344
33	0x3ad8b9e5	0.0016534893
34	0x3d0ac73e	0.03388142
35	0xbcf23fe1	-0.029571475
36	0xbd42c257	-0.04754862
37	0xbc31f531	-0.010861681
38	0xbc51de15	-0.012809296
39	0x3cf59257	0.029977007
40	0xbd37c176	-0.044862233
41	0xbcd0e185	-0.025498161
42	0x3c89b010	0.016807586
43	0xbd1d5a54	-0.03841622
44	0x3d33de0c	0.043912932
45	0x3d6fbfc1	0.05853248
46	0xbc0c391e	-0.00855854
47	0x3cce849e	0.025209721
48	0xbd705f5d	-0.058684696
49	0xbd0c9b2a	-0.034327663
50	0xbc802ea3	-0.015647238
51	0x3d16ce79	0.036818
52	0x3d1402e1	0.036135558
53	0x3bf16ca6	0.007367688
54	0x3c678ba3	0.014132413
55	0xbc9f5723	-0.01945073
56	0x3d3ebdad	0.046567608
57	0x3d598a80	0.0531106
58	0x3d7a1df1	0.06106371
59	0x3c5af356	0.01336368
60	0xbd5a795d	-0.053338397
61	0xbc68d96b	-0.014211993
62	0x3cb2f19a	0.02184372
63	0x3d1c53a2	0.038165696
64	0x3d2a1b84	0.041530147
65	0x3ad28ea2	0.0016064236
66	0xbb14f6fa	-0.0022730217
67	0x3cb698af	0.022289602
68	0xbd325b22	-0.043543942
69	0xbd7448f6	-0.059639893
70	0xbd647c80	-0.055782795
71	0x3d42da8a	0.047571696
72	0xbce72d7a	-0.028219927
73	0x3cc7131b	0.024301102
74	0x3c48dfc0	0.012260377
75	0xbcd5722c	-0.026055418
76	0x3caee611	0.021349939
77	0xbc644db5	-0.013934542
78	0xbd03639b	-0.032077413
79	0xbd1b1ad0	-0.037867367
80	0x3b1516a7	0.0022749098
81	0x3bc631b6	0.0060484065
82	0x3c8a034f	0.01684728
83	0xbca7eb50	-0.020497948
84	0xbd0cfc1f	-0.03442013
85	0x39eed22c	0.00045551488
86	0xbc607ef4	-0.013702143
87	0xbd069033	-0.032852363
88	0x3c55f833	0.013059664
89	0xbcc5fa7b	-0.02416729
90	0xbb90cb24	-0.0044187475
91	0x3d4b678a	0.04965929
92	0x3c2b9c9f	0.010474353
93	0xbd629448	-0.055317193
94	0xbb8ecfa4	-0.004358249
95	0x3cc11926	0.023571562
96	0x3aacc9ab	0.001318266
97	0xba47038b	-0.00075917755
98	0xbd3d9b52	-0.046290703
99	0x3d0f1441	0.034931425
100	0xbbf6a70b	-0.0075272373
101	0x3c8ae7ff	0.016956327
102	0xbc74c0e7	-0.01493857
103	0x3c28d083	0.010303619
104	0xbd35ab01	-0.044352535
105	0x3d20ea27	0.039285805
106	0x3999ac92	0.0002931101
107	0x3b1511c5	0.0022746187
108	0x3d10d144	0.03535582
109	0x3c7cad00	0.015422106
110	0xbca85c8d	-0.020551944
111	0x3c1bce56	0.009509644
112	0x3d36ec45	0.044658918
113	0x3ce66b10	0.028127223
114	0x3d3a20ff	0.045441624
115	0xbca6d697	-0.020365996
116	0xbd20cc54	-0.039257362
117	0xbd414db4	-0.047193244
118	0xbd0e2bc1	-0.034709696
119	0xbd195446	-0.037433885
120	0xbd66e406	-0.056369804
121	0xbd4fe52f	-0.050755676
122	0x3d366f96	0.04454001
123	0x3cac2e62	0.02101821
124	0xbc912734	-0.017718889
125	0x3c417ce8	0.011809565
126	0xbcca9016	-0.024726909
127	0xbd7b3349	-0.061328206
128	0x3d8743d8	0.06604737
129	0x3bacae12	0.0052697742
130	0x3c8dfd1a	0.017332602
131	0xbd2fc6a8	-0.042914063
132	0x3bf1c80d	0.0073785842
133	0x3d1cf142	0.03831602
134	0xbc0f029c	-0.0087286495
135	0xbcefe14f	-0.02928224
136	0x3d036254	0.032076195
137	0xbc6d03a5	-0.014466201
138	0xbd5e32a5	-0.054247517
139	0xbc728220	-0.014801532
140	0x3d329d8b	0.043607276
141	0xbd2fc110	-0.042908728
142	0x3d40093c	0.046883807
143	0xbc8179b5	-0.015805105
144	0x3d3282b9	0.043581698
145	0x3d2ea5c6	0.042638563
146	0x3cb885b5	0.022524694
147	0x3d563620	0.05229771
148	0x3d4f6e98	0.05064258
149	0x3c3f3624	0.011670623
150	0xbcfa788f	-0.030575065
151	0x3d16c421	0.036808137
152	0xbd5a6d95	-0.05332716
153	0xbb365edb	-0.0027827534
154	0xbb931acd	-0.004489279
155	0xbcf41070	-0.029792994
156	0xbd240e55	-0.04005273
157	0x3d381a9a	0.044947244
158	0xbd30c675	-0.043158013
159	0xbd5ec6fa	-0.054388978
160	0x3cc232c5	0.02370585
161	0x3d088af1	0.03333563
162	0x3d3e1f98	0.04641685
163	0x3d539b4c	0.051661775
164	0x3d7d2071	0.061798517
165	0xbd298ee5	-0.04139604
166	0xbd2682e2	-0.040652163
167	0xbc012bf3	-0.0078840135
168	0xbcc5b99b	-0.024136355
169	0x3c4cf2c1	0.012509049
170	0x3b71f1d3	0.003691782
171	0x3c4714f0	0.012150988
172	0x3cb98419	0.022645997
173	0x3c6e6d89	0.014552482
174	0x3cd5200a	0.026016254
175	0xbcf55f49	-0.029952662
176	0x3d493033	0.049118232
177	0x3d0f589c	0.034996614
178	0xbbff4c11	-0.0077910502
179	0x3d481afb	0.048853856
180	0xbd829d5b	-0.063776694
181	0x3cce233a	0.025163282
182	0xbc9e81eb	-0.01934906
183	0x3d0f4291	0.034975592
184	0x3d0f3c10	0.03496939
185	0x3a8562b2	0.0010176508
186	0x3bb403c3	0.0054936125
187	0xbbcccfb1	-0.0062503447
188	0x3cbf2d5a	0.023337055
189	0x3d1e3806	0.038627647
190	0x3cfaa74d	0.030597353
191	0xbce916a1	-0.028453173
192	0xbd25888c	-0.040413424
193	0xbc7234d1	-0.0147831
194	0xbc8af386	-0.016961824
195	0xbc62a136	-0.013832381
196	0xbd61c144	-0.055115953
197	0xbd6638b6	-0.056206428
198	0xbc770e04	-0.015079025
199	0x3d0f6322	0.03500665
200	0xbd24ec01	-0.040264133
201	0xbd40da24	-0.047083035
202	0x3bd0e620	0.0063750893
203	0x3a79a509	0.00095231883
204	0xbd6f5669	-0.058432017
205	0xbc8b6913	-0.017017877
206	0x3ca464c3	0.020067578
207	0xbc8de2a7	-0.01731999
208	0xbd61da61	-0.055139903
209	0xbd26d761	-0.040732745
210	0xbd0bcde9	-0.034131918
211	0xbd09c944	-0.033639207
212	0xbd87ba61	-0.06627346
213	0xbc8af896	-0.016964238
214	0x3d43b18f	0.047776755
215	0xba0e6754	-0.0005432267
216	0x3d377eb4	0.044798568
217	0xbcfacd3f	-0.030615447
218	0xbd1bcbdb	-0.03803621
219	0x3ce6d5f5	0.028178195
220	0x3cb7ca20	0.022435248
221	0xbcda63c5	-0.026658902
222	0x3cf25138	0.029579744
223	0xbd4b0bfb	-0.049571972
224	0x3cfff011	0.031242402
225	0x399ddaa6	0.0003010828
226	0xbd1dc44a	-0.038517274
227	0xbd1c5c8f	-0.03817421
228	0xbce3fa04	-0.027829178
229	0xbd1241fb	-0.035707455
230	0xbca102f7	-0.019654734
231	0x3cf81433	0.03028307
232	0x3aad600e	0.0013227479
233	0xbc99d735	-0.018779377
234	0x3d41e27f	0.047335144
235	0xbd7325dd	-0.05936228
236	0xbd123b52	-0.035701104
237	0xbd490f12	-0.049086638
238	0xbc9f466a	-0.019442756
239	0x3d0e8e7c	0.034803852
240	0xbd0f9bef	-0.03506082
241	0x3d824a4b	0.063618265
242	0xbc78ff9b	-0.01519766
243	0xbcbaec70	-0.02281782
244	0xbce2806a	-0.027649123
245	0x3ce64d71	0.028113099
246	0xbcc56589	-0.024096267
247	0x3d36a450	0.044590294
248	0x3d376e0e	0.04478269
249	0xbcd883b5	-0.02642999
250	0xbd4f45a6	-0.05060353
251	0x3cfb761e	0.030695971
252	0x3b04f18c	0.0020285575
253	0xbc8521e6	-0.016251516
254	0xbc1e22d0	-0.009651855
255	0xbceab8bf	-0.028652547

film.gamma.bias f4 [160]
0	0xbd7050a9	-0.058670674
1	0xbc229339	-0.009922796
2	0x3d86afd3	0.065765046
3	0xbc66d420	-0.0140886605
4	0xbd0c24f9	-0.034214947
5	0x3c3f9a7e	0.011694549
6	0xbc055bee	-0.0081395935
7	0x3d687418	0.05675134
8	0x3d243efb	0.040099125
9	0xbc1076e6	-0.00881741
10	0x3bb23266	0.005438137
11	0x3d2a982b	0.041649025
12	0x3cc7c372	0.024385188
13	0xbcc38246	-0.02386583
14	0x3cd355ba	0.025797714
15	0x3d148b89	0.036265884
16	0x3c870b33	0.016484832
17	0xbd5c7b77	-0.053828683
18	0xbc45247a	-0.0120326225
19	0xbd36407d	-0.044495095
20	0xbb8ddaf5	-0.00432908
21	0xbaaa6d3b	-0.0013002524
22	0x3d2d35f1	0.04228777
23	0xbd4a2b3e	-0.049357645
24	0xbcb3d83c	-0.021953695
25	0xbd0e43c2	-0.034732588
26	0xbd34f50b	-0.044179004
27	0x3d818d1d	0.06325743
28	0xbd2193b3	-0.039447498
29	0x3b6e9498	0.0036404487
30	0xbb758f1d	-0.0037469335
31	0xbd7072a8	-0.058703095
32	0xbd09c548	-0.033635408
33	0x3c7e7104	0.015529875
34	0x3c97ffdc	0.01855462
35	0x3c59ec1e	0.013300924
36	0xbd1ea19c	-0.03872834
37	0x3d8e85d3	0.06959119
38	0x3c2a3011	0.0103874365
39	0x3c686386	0.0141838845
40	0xbca15c5d	-0.019697363
41	0xbbdcb454	-0.006735364
42	0x3d170ebb	0.036879282
43	0x3d04679c	0.032325372
44	0x3d83e585	0.06440262
45	0xbccf4fb3	-0.025306558
46	0x3d610bee	0.054943018
47	0x3d5f4ae5	0.054514784
48	0x3cfd80d2	0.030945215
49	0x3d0f1618	0.03493318
50	0xbd3797ce	-0.044822507
51	0xbc6f7eb6	-0.014617613
52	0x3cf64495	0.030062
53	0xbd4429f6	-0.04789158
54	0x3d56dd6a	0.05245725
55	0xbd30ec81	-0.043194298
56	0x3c98997e	0.018627878
57	0x3ce28820	0.0276528
58	0x3d8fd61a	0.070232585
59	0xbc6524d9	-0.013985836
60	0x3c5d6e0a	0.013515005
61	0xbd75c59a	-0.0600029
62	0xbca23f86	-0.019805681
63	0xbd793117	-0.06083783
64	0x3ca15ae1	0.019696655
65	0xbc4a9554	-0.012364704
66	0xbd6fe35c	-0.058566436
67	0x3b1fc9d0	0.0024381764
68	0xbc0c0957	-0.008547149
69	0xbc89c449	-0.016817229
70	0xbb8722a5	-0.004124003
71	0x3ca65c83	0.020307785
72	0xbc5c1091	-0.013431684
73	0xbd09396f	-0.03350204
74	0x3d029ac6	0.031885885
75	0x3c6fe42c	0.014641803
76	0x3ba11929	0.0049163294
77	0xbccaa2d3	-0.024735844
78	0x3ab3ab5d	0.0013707686
79	0xbbd4fadf	-0.0064996327
80	0xbce4bfbe	-0.027923461
81	0x3c3ffb1f	0.011717587
82	0xbcc82165	-0.024429986
83	0xbd500f1c	-0.05079566
84	0xbd5a468c	-0.053289935
85	0xbcc6adf6	-0.024252873
86	0xbd7f7bc4	-0.06237389
87	0x3ceacef0	0.028663129
88	0xbd5aec19	-0.053447817
89	0x3d0850ae	0.033280067
90	0x3d43c44f	0.047794636
91	0xbccbb447	-0.024866236
92	0x3c794041	0.015213073
93	0x3d7e4fac	0.0620877
94	0x3cf6865b	0.030093363
95	0xbd1d6c3e	-0.038433306
96	0xbd382b00	-0.044962883
97	0x3bb81ef9	0.0056189266
98	0xbc5cc50d	-0.013474715
99	0x3daaca04	0.08339313
100	0xbc908caa	-0.017645199
101	0xbc67c062	-0.014144989
102	0x3d573c1e	0.052547567
103	0x3c07d5dc	0.008290734
104	0x3d2400ab	0.0400397
105	0xbd5cc13b	-0.053895216
106	0xbd14044d	-0.036136914
107	0xbd6ca962	-0.057778724
108	0x3c0f6912	0.008753078
109	0xbc62690a	-0.013818989
110	0x3c7dff79	0.015502804
111	0x3d980aff	0.07423972
112	0xbd8b79de	-0.06810354
113	0x3969709c	0.00022262562
114	0xbd22f0d5	-0.039780457
115	0x3c491662	0.012273403
116	0xbbc75779	-0.0060834256
117	0xbb074dd2	-0.002064575
118	0x3ac50465	0.0015031217
119	0xbd4eb5bf	-0.050466295
120	0x3c4f9ad6	0.012671193
121	0x3c5bd252	0.0134168435
122	0xbcaf1f38	-0.021377191
123	0x3d2a1a0d	0.04152875
124	0xbd18fd37	-0.03735086
125	0x3d8de6f5	0.06928817
126	0x3d0f8902	0.03504277
127	0xbcfef00b	-0.03112032
128	0x3bd3651b	0.0064512617
129	0x3d072ba8	0.03300062
130	0xbc86b193	-0.016442096
131	0xbccc6a26	-0.02495296
132	0x3d912c20	0.07088494
133	0xbd14394b	-0.03618745
134	0x3c51597e	0.012777684
135	0xbc2d1a94	-0.010565419
136	0xbb20a8fb	-0.0024514783
137	0x3d12b8ce	0.035820775
138	0x3c5874e2	0.013211461
139	0x3ccd4850	0.025058895
140	0x3bc172b6	0.005903567
141	0xbd2045c2	-0.039129026
142	0xbd483bb1	-0.04888505
143	0x3d452a21	0.04813588
144	0x3d93de2c	0.0722011
145	0xbc61b586	-0.013776189
146	0x3d8609e7	0.065448575
147	0x3d91eee6	0.071256444
148	0x3c659dda	0.0140146855
149	0x3d3793f5	0.044818837
150	0x3d6cbfec	0.05780022
151	0x3c7134f5	0.014722099
152	0xbc0bb14d	-0.0085261585
153	0x3c072491	0.008248464
154	0x3d0ddc8d	0.03463416
155	0xbce63834	-0.028102972
156	0x3b45471b	0.0030102197
157	0x3c5c6963	0.0134528605
158	0xbd49deda	-0.049284793
159	0xbd2f0266	-0.042726897

film.beta.weight f4 [160, 256]
0	0xbcc3e0b5	-0.02391086
1	0xbc00a815	-0.007852574
2	0xbd1f4940	-0.038888216
3	0xba98d348	-0.0011659646
4	0x3c68725f	0.014187424
5	0xbbfa49b6	-0.0076381816
6	0xba6faa0b	-0.0009142465
7	0x3d045861	0.032310847
8	0x3d07687d	0.033058632
9	0x3c1331b8	0.008984022
10	0x3c400d9c	0.011721995
11	0xbcf211d7	-0.029549522
12	0x3bc330fc	0.005956767
13	0xbc6f7755	-0.014615853
14	0xbaeeba5e	-0.0018213501
15	0x3bba6fac	0.005689582
16	0x3c883f56	0.016631763
17	0xbd612f67	-0.054976847
18	0xbcd11520	-0.025522768
19	0x3d3e359e	0.046437852
20	0xbd26c46b	-0.040714663
21	0x3d4a2806	0.049354576
22	0xbcd631a7	-0.026146723
23	0x3d2d9721	0.042380456
24	0x3d025a38	0.03182432
25	0x3d63021a	0.055421926
26	0xbc0a0b34	-0.008425523
27	0xbcfba533	-0.030718422
28	0x3d10a214	0.03531082
29	0xbd00f653	-0.031484913
30	0x3c2d2387	0.010567552
31	0x3ce6f6c8	0.028193846
32	0xb7c213a1	-2.3135743e-05
33	0x3cd69ae5	0.026196906
34	0xbd297b37	-0.041377272
35	0xbc8328ce	-0.016010668
36	0xbc8ac0b0	-0.016937584
37	0xbc3ba7fd	-0.011453626
38	0x3c744640	0.014909327
39	0x3c7dfc7e	0.015502093
40	0xbc9c2657	-0.01906125
41	0xbcb8d864	-0.02256412
42	0x3c4ad23d	0.012379226
43	0xbd355538	-0.044270724
44	0x3d67316c	0.056443617
45	0xbc77b79c	-0.0151194595
46	0x3b63fe81	0.0034789147
47	0x3bda17f9	0.00665569
48	0xbd759a58	-0.059961647
49	0xbbc3fda5	-0.0059811645
50	0xbc37083d	-0.011171398
51	0x3c92b890	0.017910272
52	0xbbb80897	-0.0056162584
53	0xbcbd29c1	-0.023091199
54	0x3bad526e	0.0052893674
55	0x3d28410d	0.041077662
56	0x3d620c75	0.05518766
57	0x3c8e6ff9	0.017387377
58	0x3a9ef605	0.0012127763
59	0xbd4beb25	-0.0497848
60	0xbc8acdc0	-0.016943812
61	0xbd18eb77	-0.03733393
62	0x3cf7f297	0.030267043
63	0x3d1fdb44	0.039027467
64	0xbc929b3b	-0.017896285
65	0xbb75ae1f	-0.0037487817
66	0x3c982f9b	0.018577388
67	0x3ca77d56	0.020445507
68	0xbc019dd7	-0.007911167
69	0xbc8caa08	-0.017170921
70	0xbca8613a	-0.020554174
71	0xbd2fc134	-0.042908862
72	0xbcf27335	-0.02959595
73	0x3d46d09e	0.048538797
74	0x39b49bb7	0.00034448292
75	0x3cf895a3	0.03034479
76	0xbcd1c60d	-0.025607133
77	0xbb4851ec	-0.0030566407
78	0xbd2cd128	-0.042191654
79	0x3c92d27a	0.017922629
80	0xbcba6f94	-0.022758283
81	0x3cbbc6f3	0.022922015
82	0xbd512a39	-0.051065657
83	0x3c9c7686	0.019099485
84	0xbcea3d7e	-0.028593775
85	0xba38d49c	-0.0007050724
86	0xbc22abb6	-0.009928634
87	0x39136017	0.00014054809
88	0x3cde24a8	0.027117088
89	0x3ca7b449	0.020471709
90	0x3c378b97	0.011202714
91	0x3b5871d1	0.0033026824
92	0x3c8efd73	0.017454838
93	0xbd564543	-0.052312147
94	0xb807490f	-3.225455e-05
95	0x3c71ee65	0.01476631
96	0x3d1e1b62	0.038600333
97	0x3ca47663	0.020075982
98	0xbb9b2e1e	-0.004735722
99	0x3d20584e	0.039146714
100	0xbbd6c6a7	-0.006554443
101	0xbcbcebef	-0.02306172
102	0xbcf70c68	-0.030157283
103	0x3d03e21b	0.032198053
104	0x3ce76a12	0.02824882
105	0xbd11f06b	-0.03562967
106	0xbc6a3797	-0.01429548
107	0xbcc9b111	-0.024620565
108	0xbbb9d000	-0.0056705475
109	0xbd58585f	-0.052818652
110	0xbd2242e8	-0.039614588
111	0x3c22cd86	0.009936696
112	0x3d2d69cc	0.042337224
113	0xbbec3da9	-0.007209499
114	0xbc995994	-0.018719472
115	0xbd393cc4	-0.045223966
116	0xbd389067	-0.045059588
117	0xbc9462df	-0.018113552
118	0x3cfdde91	0.030989917
119	0x3d219752	0.03945095
120	0xbd5b9d40	-0.053616762
121	0x3c612b07	0.013743169
122	0xbd0d2265	-0.03445663
123	0xbd03740b	-0.03209309
124	0xbcfe59f6	-0.031048756
125	0x3d17d6fd	0.037070263
126	0x3a92b4e1	0.0011192822
127	0xbbbbf1ae	-0.0057355976
128	0x3cad26f9	0.021136748
129	0xbd4d4b47	-0.05012062
130	0x3d2ee409	0.04269794
131	0xbc7749c8	-0.015093274
132	0xbd1ef244	-0.03880526
133	0xbd3d74dd	-0.046254028
134	0x3d1694a9	0.036762867
135	0x3d35e5ab	0.04440848
136	0x3cc05561	0.023478212
137	0xbd38fa76	-0.045160733
138	0xbc03e218	-0.00804951
139	0xbd20f624	-0.039297238
140	0xbcae59c7	-0.021283044
141	0xbd43bc6e	-0.047787122
142	0xbd284a57	-0.04108652
143	0xbd22f9db	-0.039789062
144	0x3d3a6b9a	0.045512773
145	0x3be9a674	0.0071304385
146	0x3ada4390	0.0016652215
147	0xbbf39079	-0.007432994
148	0xbd0f5a9c	-0.03499852
149	0xbc7dd9f2	-0.015493857
150	0x3c9a242a	0.018816072
151	0xbd4e38eb	-0.05034725
152	0x3c9fdb65	0.019513795
153	0xbd47057a	-0.048589207
154	0x3cb40ace	0.021977808
155	0xbce54f28	-0.027991846
156	0x3c70b30f	0.014691128
157	0x3ca6f6c2	0.020381335
158	0xbcf8cf11	-0.030372174
159	0xbd43b989	-0.047784362
160	0x3d4ed58b	0.05049662
161	0x3b063ff3	0.0020484894
162	0x3c188179	0.009308212
163	0x3c9e3c3f	0.019315837
164	0x3d0687b3	0.032844257
165	0x3ca73b8e	0.02041414
166	0xbc4888f7	-0.012239686
167	0xbc5669f0	-0.013086781
168	0xbd23bc49	-0.039974485
169	0xbd0759c1	-0.03304458
170	0xbd186cf0	-0.037213266
171	0xbd267854	-0.040642098
172	0xbd49abe9	-0.049236212
173	0x3cd23d10	0.025663882
174	0xbd784e0c	-0.060621306
175	0x3ce5f9de	0.028073248
176	0xbc409fa4	-0.011756811
177	0xbcd75955	-0.026287714
178	0x3d45c859	0.04828677
179	0xbc5a7cef	-0.013335451
180	0x3b24b378	0.0025131386
181	0x3d257074	0.040390447
182	0xbd14e1e6	-0.036348246
183	0xbc655984	-0.013998393
184	0xbd156779	-0.036475632
185	0x3c27c5eb	0.010240058
186	0x3ced2880	0.028949976
187	0xbcc23ffe	-0.023712154
188	0x3cb49845	0.022045264
189	0x3d2b428a	0.041811503
190	0xba7ba5db	-0.00095996045
191	0xbc57ee9b	-0.013179447
192	0xbc667ee2	-0.014068337
193	0x3c060ed8	0.00818225
194	0x3d176881	0.036964897
195	0x3ccd9cfc	0.02509927
196	0xbd23eb7f	-0.04001951
197	0xbd3323fb	-0.043735486
198	0x3a15546f	0.00056964805
199	0x3c79cd9f	0.015246778
200	0xbd1597df	-0.03652179
201	0x3c8935b2	0.016749237
202	0xbaff59d8	-0.0019481732
203	0xbd790667	-0.06079712
204	0xbd2575b7	-0.040395465
205	0xbd2a63f1	-0.041599218
206	0x3c09b79d	0.008405593
207	0xbd79a7b6	-0.060950957
208	0xbca6c425	-0.0203572
209	0x3c7897a9	0.015172877
210	0x3c62fc7f	0.013854145
211	0x3c75d6a0	0.015004784
212	0xbd547ded	-0.051877905
213	0xbcdd59af	-0.027020304
214	0x3c867f4a	0.016418118
215	0x3d00be25	0.031431336
216	0xbc964a57	-0.018345995
217	0xbbc726fc	-0.0060776453
218	0xbb0c3001	-0.0021390917
219	0xbc8150de	-0.01578563
220	0xbd0d565a	-0.03450618
221	0x3c0e8ad0	0.008700088
222	0xbc210c5a	-0.009829605
223	0x3d1b3970	0.037896574
224	0x3cf61baf	0.030042497
225	0xbd136e1d	-0.035993684
226	0x3c35f124	0.011104856
227	0x3b569130	0.0032740347
228	0xbd4abb5d	-0.04949509
229	0xbc3de7d5	-0.011590918
230	0xbc2587df	-0.010103195
231	0x3c05b9f1	0.008162008
232	0xbb23f0b3	-0.0025015294
233	0x3d102df4	0.035200074
234	0x3d223401	0.039600376
235	0xbd01c766	-0.0316843
236	0xbcb015b0	-0.021494716
237	0xbb6ef1ce	-0.0036460045
238	0x3bd4d90d	0.006495601
239	0xbcdb55de	-0.026774343
240	0xbccac218	-0.024750754
241	0x3d466199	0.04843292
242	0x3c9565ae	0.018236961
243	0xbd09d828	-0.03365341
244	0x3cb51563	0.022104925
245	0xbc366ab5	-0.011133839
246	0xbcf4be04	-0.029875763
247	0x3c31b371	0.010846005
248	0x3ce2110e	0.027596023
249	0xbcb4a14e	-0.022049572
250	0x3d116353	0.035495114
251	0x3be528f0	0.0069934055
252	0x3c7040e6	0.0146639105
253	0xbcaeda55	-0.021344343
254	0xbcef514a	-0.029213566
255	0xbd583517	-0.052785005

film.beta.bias f4 [160]
0	0x3d315b60	0.043300033
1	0xbca65644	-0.020304807
2	0xbcfb806b	-0.030700883
3	0xbbe19b56	-0.0068849726
4	0xbd3ed40b	-0.04658894
5	0xbd15f56a	-0.036611
6	0xbd4d6df1	-0.050153676
7	0x3d46e031	0.04855365
8	0x3c2e83d0	0.010651544
9	0x3d24c810	0.040229857
10	0x3cddfb60	0.027097404
11	0x3b996761	0.004681513
12	0x3d68f827	0.05687728
13	0x3cc17017	0.023613019
14	0x3d3f2c42	0.046673067
15	0xbc1d95ea	-0.009618262
16	0x3b41f87d	0.0029597573
17	0x3cb6e764	0.022327133
18	0x3cbea579	0.023272263
19	0x3c876117	0.016525788
20	0x3b5134bd	0.0031922304
21	0x3d4676cb	0.048453134
22	0xbd31cd54	-0.043408707
23	0x3c04b71f	0.0081003
24	0xbcc2281f	-0.023700772
25	0xbd745b61	-0.05965746
26	0xbd55493f	-0.052071806
27	0x3ab3745b	0.0013691293
28	0xbc1c7700	-0.009549856
29	0xba2ad9bb	-0.000651743
30	0xbc8b9e88	-0.017043367
31	0xbb81e6fa	-0.003964302
32	0x3d17c7ac	0.037055656
33	0x3cc04902	0.023472313
34	0xbd23499a	-0.039865114
35	0xbca9e473	-0.020738816
36	0x3d25bf12	0.040465422
37	0xbc29a469	-0.01035414
38	0xbcfdc639	-0.030978309
39	0x3d5a5502	0.053303726
40	0x3cddf9d2	0.027096663
41	0xbd79b7fb	-0.060966473
42	0xbcc8d4c1	-0.024515511
43	0x3be264ec	0.0069090035
44	0x3d1ccb7e	0.038280003
45	0x3c8daa80	0.017293215
46	0xbd16a100	-0.036774635
47	0x3d19daac	0.037562057
48	0x3c768acf	0.015047743
49	0x3d22562c	0.03963296
50	0x3d12a200	0.035799026
51	0x3bb95dfb	0.0056569553
52	0x3cdb5a2b	0.026776394
53	0xbc986fda	-0.018608022
54	0xbce390ba	-0.027778972
55	0xbcaa331c	-0.020776324
56	0x3d3041ed	0.04303162
57	0xbca342d9	-0.019929336
58	0xbd3cc899	-0.046089742
59	0xbd2a478a	-0.04157213
60	0xbd4ba8b3	-0.04972143
61	0xbcf3dc47	-0.029768122
62	0x3d6c6f6c	0.057723448
63	0xbca54d0d	-0.020178342
64	0x3cc76787	0.024341358
65	0x3bac40ad	0.0052567334
66	0xbd7a16b1	-0.061056796
67	0xbd307b48	-0.04308632
68	0xbbfe95d7	-0.007769327
69	0xbd02a4e6	-0.03189554
70	0x3c76a23a	0.015053326
71	0x3c29f61e	0.01037362
72	0xbd26e51c	-0.04074584
73	0x3d4a6a32	0.049417682
74	0x3be78668	0.007065583
75	0xbd3aeab0	-0.04563397
76	0x3d2ed372	0.04268212
77	0xbd4cae29	-0.04997078
78	0xbd723ccc	-0.05914001
79	0x3cee809c	0.02911406
80	0x3b1c0e4c	0.0023812233
81	0x3c62d0a6	0.013843691
82	0xbd202d05	-0.039105434
83	0xbd515505	-0.05110647
84	0xbc81bd0b	-0.015837213
85	0xbd089ab6	-0.03335067
86	0xbcc5fe72	-0.02416918
87	0x3c7c31c6	0.015392726
88	0x3c91fcca	0.017820735
89	0x3cc81b38	0.024427041
90	0x3c9d0fd3	0.019172585
91	0x3d570f53	0.05250485
92	0xbd2e96e7	-0.04262438
93	0xbd0da713	-0.034583163
94	0xbd3b5506	-0.04573538
95	0xbd1b1d4a	-0.03786973
96	0x3d0c688e	0.0342794
97	0x3d3bf299	0.045885656
98	0x3d3a3f09	0.04547027
99	0xbd07984e	-0.033104233
100	0x3d25526a	0.0403618
101	0xbd27fa45	-0.04101016
102	0x3d62ae4b	0.055342
103	0xbccc918c	-0.024971746
104	0xbc942670	-0.018084735
105	0xbd0ce525	-0.034398217
106	0xbd3d3b7f	-0.046199318
107	0xbd68d9e4	-0.05684842
108	0x3cfb4cab	0.030676207
109	0xbcd910f8	-0.02649735
110	0xbcf8dcdc	-0.030378751
111	0xbcb640ef	-0.02224776
112	0xbd14aead	-0.036299396
113	0xbbf2a9d9	-0.0074055013
114	0xbd57ac12	-0.052654333
115	0xba4f04b9	-0.0007897127
116	0x3d654617	0.055975046
117	0x3d68c845	0.056831617
118	0xbd452ce5	-0.048138518
119	0xbbb60557	-0.005554836
120	0x3c417937	0.011808685
121	0x3cb8d8ed	0.022564376
122	0xbd06e410	-0.03293234
123	0x3ba58ce7	0.0050521973
124	0x3d066c10	0.0328179
125	0xbce6a6c4	-0.028155692
126	0xbc6c2b49	-0.014414617
127	0x3c86a55f	0.016436277
128	0xbb7e2118	-0.003877705
129	0x3cdf2b80	0.027242422
130	0xbd0107a9	-0.031501446
131	0x3d14cbfb	0.036327343
132	0xbd0e25b3	-0.03470392
133	0xbc9d5772	-0.019206736
134	0xbd031ed3	-0.03201182
135	0x3c5e8314	0.013581056
136	0xbd4c4f2b	-0.049880188
137	0x3d055e15	0.032560427
138	0xbc9486b9	-0.018130647
139	0x3d77425c	0.06036602
140	0x3d5af7a3	0.05345882
141	0xbcc1c861	-0.023655118
142	0x3ce2bf99	0.027679252
143	0xbd475b57	-0.048671093
144	0xbc821258	-0.015877888
145	0x3c91cc0f	0.017797498
146	0x3d821d77	0.06353276
147	0xbd10a2c7	-0.035311487
148	0xbd00518a	-0.03132776
149	0xbd3d2608	-0.046178848
150	0xbd33ddcc	-0.043912694
151	0xbd7f65fe	-0.062353127
152	0x3d4c9c82	0.049953945
153	0xbd81f606	-0.06345753
154	0xbd1f86f4	-0.03894706
155	0x3c44816d	0.011993748
156	0xbd241b7d	-0.040065277
157	0x3d46efa5	0.048568387
158	0x3ccbbc90	0.024870187
159	0xbcc06ab6	-0.023488384

classifier.0.weight f4 [64, 160]
0	0xbd34ae0d	-0.0441113
1	0xbd2b2f77	-0.041793313
2	0xbd8d7568	-0.06907159
3	0x391426ba	0.00014128807
4	0x3c797f36	0.015228083
5	0xbd89d97f	-0.06730937
6	0xbd9c5014	-0.07632461
7	0xbd9cc202	-0.076541916
8	0x3c941f49	0.018081324
9	0xbd021ab2	-0.03176374
10	0x3d173b73	0.03692193
11	0x3d05f7b4	0.03270693
12	0x3d790daf	0.060804065
13	0x3bc6e0ee	0.006069294
14	0xbd8f27ec	-0.06990036
15	0xbd3fca5f	-0.046823855
16	0xbcc95690	-0.024577409
17	0x3c730e33	0.014834928
18	0xbc704a22	-0.014666112
19	0xbd9144f9	-0.070932336
20	0xbd931e0a	-0.07183464
21	0x3c5c409c	0.013443138
22	0x3d4c691a	0.04990492
23	0x3c9031fe	0.017601963
24	0xbd9deafb	-0.077108346
25	0xbd11c6d5	-0.03559001
26	0x3d5a1b5f	0.05324876
27	0x3da34f46	0.079741046
28	0xbaad2ef8	-0.001321285
29	0x3cbee120	0.023300707
30	0xbd13a0f7	-0.03604218
31	0xbc959c1c	-0.018262915
32	0xbd8cd268	-0.06876069
33	0x3d02594e	0.03182345
34	0xbd994c37	-0.0748524
35	0x3d19ee80	0.037580967
36	0xbd83f15f	-0.06442522
37	0x3d26543c	0.040607676
38	0x3c2d061d	0.01056054
39	0xbda444e0	-0.08020949
40	0xbd72dc97	-0.059292402
41	0xbce3190e	-0.027721908
42	0x3d22e04f	0.0397647
43	0x3cb61e24	0.022231169
44	0xbd430d47	-0.047620084
45	0x3ca942c5	0.020661721
46	0x3c9fb86e	0.019497123
47	0x3d9b36e2	0.075788274
48	0xbd90a8d6	-0.07063453
49	0xbcef5039	-0.029213058
50	0x3d0fa94d	0.035073567
51	0xbc9ad695	-0.018901149
52	0x3b31a9a2	0.0027109166
53	0xbc95d5a4	-0.018290348
54	0xbc00df07	-0.007865674
55	0xbd86aa86	-0.065754935
56	0xbd16b7f1	-0.036796514
57	0xbdc90cdd	-0.098169066
58	0xbd2fa99a	-0.042886354
59	0xbc932a0b	-0.017964384
60	0x3cd2b898	0.025722787
61	0x3d31694f	0.04331332
62	0xbc9833ea	-0.018579442
63	0xbcf84095	-0.030304233
64	0x3d869994	0.065722615
65	0x3d8a6f1e	0.06759475
66	0x3d49052d	0.0490772
67	0xbd435f02	-0.04769803
68	0xbd88c417	-0.06678026
69	0xbb203dc9	-0.002445089
70	0xbd6a6ca4	-0.057232514
71	0x3d329f07	0.04360869
72	0xbd672c61	-0.056438807
73	0xbd0a1401	-0.033710483
74	0x3d31b3e5	0.04338445
75	0xbcaa4a53	-0.020787394
76	0xbd114c90	-0.035473406
77	0xbb180232	-0.0023194668
78	0x3c06b204	0.008221153
79	0xbd822c2b	-0.063560806
80	0x3d82d67f	0.06388568
81	0xbccf4f3d	-0.025306338
82	0x3d46feae	0.048582725
83	0x3d6183a7	0.055057194
84	0xbd9fe6e7	-0.07807713
85	0xbd950857	-0.07276981
86	0x3d736882	0.05942584
87	0xbc7ad8f6	-0.015310517
88	0x3d8de5e7	0.06928616
89	0x3ad53cab	0.0016268691
90	0x3cbfb001	0.023399355
91	0x3da309f2	0.07960881
92	0x3d28a5d7	0.041173782
93	0xbd6b3462	-0.057423003
94	0x3d8f0630	0.06983602
95	0x3c5bdd27	0.013419426
96	0x3d84e02d	0.06488071
97	0x3d6a3f47	0.057189252
98	0xbb2b32b6	-0.0026122755
99	0xbce640bf	-0.028107045
100	0xbda8bdcc	-0.08239326
101	0x3d6cf164	0.057847396
102	0x3cf87a8d	0.030331874
103	0x3d5e114a	0.054215707
104	0xbd0fadd7	-0.035077896
105	0x3d0b2f68	0.033980757
106	0xbdb1cc41	-0.086815365
107	0xbdb5e3ed	-0.08881364
108	0xbbf6dfb3	-0.0075339912
109	0x3d956b13	0.072958134
110	0xbdd820b3	-0.10553112
111	0x3d28e50c	0.04123406
112	0xba99255b	-0.0011684106
113	0xbc6cc94f	-0.014452293
114	0xbda35c6b	-0.07976612
115	0xbd985d68	-0.07439691
116	0x3d2fd078	0.04292342
117	0x3d0bd50e	0.03413873
118	0x3cf80c2e	0.030279245
119	0x3ccdcc2f	0.025121776
120	0x3d23c0af	0.03997868
121	0x3d96497d	0.073382355
122	0xba8b6697	-0.0010635433
123	0x3d0ba654	0.03409417
124	0x3dd02068	0.10162431
125	0x3db5d021	0.08877588
126	0xbce30cd8	-0.027716085
127	0xbde17fc3	-0.11010697
128	0x3d14bb52	0.036311455
129	0xbdad996f	-0.08476531
130	0x3d19ed9f	0.03758013
131	0x3c830812	0.01599506
132	0x3d8c4c9f	0.06850552
133	0xbd8adc3c	-0.067802876
134	0x3b940648	0.0045173503
135	0x3d59194c	0.05300264
136	0xbd994e91	-0.074856885
137	0xbd4fdab1	-0.05074567
138	0x3ccdcc01	0.02512169
139	0xbc8b7aa8	-0.01702626
140	0xbc032594	-0.008004565
141	0x3c84ec4a	0.016225953
142	0x3d1101f3	0.03540225
143	0x3c3a2d87	0.011363394
144	0x3c830bd2	0.015996847
145	0xbcddd2ec	-0.027078114
146	0x3d94d691	0.07267488
147	0xbc049aa2	-0.008093508
148	0x3dc5acab	0.096520744
149	0xbd863b6d	-0.06554303
150	0x3dd586fe	0.10426138
151	0xbd138d67	-0.036023524
152	0x3d6ab575	0.057301957
153	0xbdb625a3	-0.088938974
154	0xbc5071d9	-0.012722456
155	0xbd0eefb1	-0.034896556
156	0xbd6f386c	-0.058403417
157	0xbcdd2925	-0.026997158
158	0x3ca34dd3	0.01993457
159	0xbd09ce9b	-0.0336443
160	0xbb870bef	-0.0041212956
161	0xbd7adb68	-0.0612444
162	0x3d3a78f2	0.0455255
163	0x388c7ae5	6.698611e-05
164	0x3d7a3bed	0.061092306
165	0x3d4cda8e	0.050013117
166	0xbd117f8a	-0.03552202
167	0x3cb1a067	0.021682931
168	0xbd952d90	-0.07284081
169	0x3d8aec3e	0.06783341
170	0xbd7d3305	-0.061816234
171	0x3ca503bd	0.020143384
172	0x3d0313c4	0.03200127
173	0x3b8ef48f	0.0043626497
174	0x3d44841b	0.047977548
175	0xbb8a8eb9	-0.0042284396
176	0xbd50f3d8	-0.051013798
177	0x3d5aa84b	0.053383153
178	0x3c693875	0.014234652
179	0xbc7bb2c5	-0.015362446
180	0x3d42d7f3	0.047569226
181	0xbd60d817	-0.05489358
182	0xbd0789be	-0.033090346
183	0x3bb606ff	0.005555033
184	0xbd375c85	-0.044765968
185	0xbd2b2bde	-0.041789882
186	0xbd570652	-0.052496262
187	0xbce4674a	-0.027881283
188	0x3cb20595	0.021731177
189	0xbd8fc2c7	-0.07019573
190	0xbd897197	-0.06711119
191	0x3d936f1c	0.07198927
192	0x3d47e8de	0.048806064
193	0xbd5b2508	-0.053502113
194	0xbb3f0eec	-0.0029153181
195	0xbc38b65b	-0.011273946
196	0xbce201d8	-0.02758877
197	0x3c845c30	0.01615724
198	0x3d67adca	0.056562223
199	0xbd8bb110	-0.06820881
200	0xbc8031da	-0.015648771
201	0xbce3fda1	-0.0278309
202	0xbcf0d115	-0.029396573
203	0xb9007652	-0.00012251109
204	0xbd241514	-0.040059164
205	0xbd1a61dd	-0.037690986
206	0xbd021e4c	-0.031767175
207	0x3d6229c6	0.05521562
208	0x3c69c438	0.014267974
209	0xbcfe8508	-0.031069294
210	0x3b85655a	0.00407092
211	0x3cd52f76	0.026023608
212	0x3d8a9b3a	0.06767888
213	0x3c03774a	0.008024046
214	0xbd2d3926	-0.04229083
215	0xbc9786a1	-0.018496813
216	0xbd74db74	-0.0597796
217	0x3c182da3	0.009288224
218	0x3d4d0102	0.05004979
219	0x3d157dbb	0.03649686
220	0x3d456033	0.048187446
221	0xbc9045fe	-0.0176115
222	0xbc42bc9c	-0.011885788
223	0x3d138524	0.036015645
224	0x3c1f6189	0.009727844
225	0x3d88397f	0.066515915
226	0xbd2e9843	-0.042625677
227	0xbd8c5026	-0.068512246
228	0x3cac23dd	0.021013195
229	0x3c88bb1d	0.016690785
230	0xbdb58ae2	-0.088643804
231	0x3d739229	0.05946556
232	0x3d0bf234	0.03416653
233	0x3d0fcba0	0.0351063
234	0x3cf823e1	0.030290546
235	0x3bebacf4	0.0071922485
236	0x3d75c1b5	0.059999187
237	0xbca4a7a4	-0.020099469
238	0x3d2f1124	0.042740956
239	0xbd8a3714	-0.067487866
240	0xbc5ea011	-0.0135879675
241	0x3c85fb8a	0.016355295
242	0x3cb9ba37	0.022671802
243	0xbd3c1741	-0.045920614
244	0x3ce5a180	0.02803111
245	0xbb8d2ecc	-0.004308557
246	0xbcbcce31	-0.023047538
247	0x3d5451da	0.051835872
248	0xbd8af105	-0.06784252
249	0x3d79403e	0.06085228
250	0xbd9686f9	-0.07349963
251	0xbc9c3b19	-0.019071149
252	0x3d13830c	0.036013648
253	0xbb4fa276	-0.0031682528
254	0x3d9d8f2e	0.07693325
255	0xbc2dd532	-0.010609912

classifier.0.bias f4 [64]
0	0xbce782c6	-0.0282606
1	0x3c2d37f0	0.010572419
2	0xbd03b1aa	-0.032151856
3	0xbd7cb342	-0.06169439
4	0xbc3351f3	-0.010944831
5	0xbd89c2cb	-0.06726607
6	0x3d94f20d	0.0727273
7	0x3ba60936	0.005067016
8	0x3c197303	0.0093658
9	0xbd09976f	-0.033591684
10	0xbd3e95cf	-0.046529587
11	0x3ce8d252	0.028420601
12	0x3d3c98a7	0.046044018
13	0x3cb9c216	0.022675555
14	0xbd21d931	-0.03951377
15	0x3d2abf7a	0.041686513
16	0x3aae450a	0.0013295722
17	0xbc6dba3f	-0.014509737
18	0x3d827358	0.06369656
19	0xbcc689fa	-0.024235714
20	0x3d9bac54	0.07601228
21	0x3d124e07	0.035718944
22	0x3d2da5bb	0.04239438
23	0x3d6b9371	0.057513658
24	0x3d3ce6da	0.046118595
25	0xbd2278fa	-0.039666153
26	0xbd283877	-0.041069474
27	0xbd8821c5	-0.06647066
28	0x3b2705dc	0.002548567
29	0x3d9ab5ac	0.075541824
30	0xbd2f7a54	-0.04284127
31	0xbc032144	-0.008003537
32	0x3d9462d2	0.07245411
33	0x3d2fab54	0.042888
34	0x3da70672	0.08155526
35	0x3d30fba4	0.043208733
36	0x3d170734	0.036872104
37	0xbd8ecc83	-0.06972601
38	0xbcefbf83	-0.029266125
39	0x3c7f9305	0.015599017
40	0x3da043e0	0.07825446
41	0x3cd2dd7c	0.025740378
42	0x3d978317	0.0739805
43	0x3d3fc965	0.046822924
44	0xbd423ef8	-0.047423333
45	0xbd6b6198	-0.05746612
46	0x3c3d54bf	0.01155585
47	0x3c6fc469	0.01463423
48	0x3d5e2519	0.054234598
49	0x3d22ac25	0.03971495
50	0x3caf02aa	0.021363575
51	0x3d3b8f99	0.045791242
52	0x3d888f72	0.06667985
53	0xbd8737f0	-0.06602466
54	0x3d4db82d	0.05022447
55	0xbd1555fe	-0.03645896
56	0x3d73dc79	0.05953643
57	0xbc6a7f11	-0.014312522
58	0x3d007207	0.031358745
59	0x3d74e240	0.05978608
60	0xbc738fa6	-0.014865791
61	0xbc9c18a2	-0.019054715
62	0xbd683e2d	-0.05669992
63	0x3b5c422c	0.0033608777

classifier.2.weight f4 [2, 64]
0	0x3b92b4dd	0.004477127
1	0x3d14b20d	0.036302615
2	0xbdf8e0eb	-0.12152275
3	0x3d3f1680	0.046652317
4	0xbde5ee32	-0.11227073
5	0x3df53a45	0.11974005
6	0x3d8c2449	0.06842858
7	0xbda55d37	-0.0807442
8	0xbd1d317a	-0.038377263
9	0xbc3ebe20	-0.011642009
10	0x3d2d3a8b	0.04229216
11	0x3c9037dd	0.017604763
12	0xbdbd8cea	-0.09255393
13	0xbde8adbc	-0.11361262
14	0xbd63e5b3	-0.05563898
15	0xbc196f78	-0.009364955
16	0xbc98e71b	-0.018664887
17	0x3d0d0876	0.034431897
18	0x3bffdb04	0.007808091
19	0x3d862f37	0.06551974
20	0xbde23d46	-0.11046843
21	0x3dbe24f0	0.09284389
22	0xbd2e6782	-0.04257918
23	0xbd1fcaf6	-0.039011918
24	0x3d17166d	0.03688662
25	0xbe0d71ef	-0.13812993
26	0xbce8271f	-0.028338967
27	0xbe0c43be	-0.13697717
28	0x3db79ab4	0.08965054
29	0x3da28798	0.07936019
30	0x3d993dee	0.07482515
31	0x3db36632	0.087597266
32	0xbc5b0de7	-0.013370014
33	0x3d5cced4	0.053908184
34	0xbc788916	-0.015169403
35	0xbddac9ae	-0.106829986
36	0xbce848cf	-0.02835503
37	0x3d89eff1	0.06735218
38	0xbca74a71	-0.020421239
39	0x3d06ad8c	0.03288035
40	0x3e0003ac	0.125014
41	0xbbff5466	-0.0077920435
42	0xbc53e40c	-0.012932789
43	0xbe0b5734	-0.13607484
44	0x3dfa3ed0	0.12219012
45	0xbcec8338	-0.028871164
46	0xbdd1e999	-0.10249633
47	0xbe0e6630	-0.13906169
48	0x3de03dc0	0.10949278
49	0x3d6c7f54	0.057738617
50	0xbd192560	-0.03738916
51	0xbc20d991	-0.009817497
52	0xbd5fb9cc	-0.05462055
53	0xbdee1ca3	-0.11626556
54	0xbdb22001	-0.086975105
55	0x3a0fea01	0.00054898864
56	0x3decddc3	0.11565735
57	0xbd29281e	-0.041298024
58	0x3ce8fafa	0.028439987
59	0x3de91e7c	0.113827676
60	0xbddfea28	-0.10933334
61	0xbdba1b5e	-0.09087251
62	0xbe0b5ff4	-0.13610822
63	0xbd8346b1	-0.06409968
64	0xbdf29655	-0.1184508
65	0x3c63372a	0.013868133
66	0x3c574e32	0.013141202
67	0x3dd5c9fc	0.10438916
68	0xbce9beba	-0.028533328
69	0xbcec5aeb	-0.028851947
70	0xbd3da96f	-0.046304163
71	0x3d3039b6	0.043023787
72	0x3c82bce1	0.015959205
73	0xbdcf215f	-0.10113787
74	0x3dfa9932	0.12236251
75	0xbdb91add	-0.09038327
76	0x3e03126d	0.12799998
77	0x3d28d8e1	0.041222457
78	0x3d99e8af	0.07515084
79	0x3e10c831	0.14138867
80	0x3d76dc8e	0.06026893
81	0x3d62fd5a	0.055417396
82	0xbe13d20d	-0.14435597
83	0xbdd4479b	-0.1036522
84	0x3d5608ac	0.052254364
85	0x3e0808d8	0.13284624
86	0x3d75a317	0.059969988
87	0x3d1dd68c	0.038534686
88	0x3db0ac43	0.08626606
89	0xbd9c5f95	-0.07635418
90	0xbdf9bab7	-0.12193816
91	0xbd21d451	-0.03950912
92	0x3d9e2502	0.077219024
93	0xbdbf831e	-0.093511805
94	0xbcd3226b	-0.025773248
95	0xbd09ade3	-0.033613097
96	0xbdc3a658	-0.09553212
97	0xbdc7faf1	-0.0976466
98	0x3df077e1	0.11741615
99	0xbcd51e70	-0.02601549
100	0x3dfc86b7	0.12330382
101	0xbde23a5d	-0.11046288
102	0x3d404a7f	0.046946045
103	0xbe00137a	-0.1250743
104	0xbde5dbd2	-0.11223568
105	0x3da37787	0.079817824
106	0xbddca0e3	-0.10772874
107	0x3cf17874	0.029476382
108	0xbdf20eff	-0.118192665
109	0x3d8ed406	0.06974034
110	0x3d4ddce9	0.050259504
111	0xbd9f8eb4	-0.0779089
112	0xbbc0c1b0	-0.0058824643
113	0x3d49868f	0.04920059
114	0x3dc7439b	0.097296916
115	0xbddc9a48	-0.10771614
116	0x3cbf6e36	0.023367982
117	0x3ddcb879	0.10777373
118	0xbdb9892b	-0.09059366
119	0xbd87efb7	-0.06637519
120	0x3d001112	0.03126628
121	0xbdbab392	-0.091162816
122	0x3dd88b3d	0.105734326
123	0x3b13d0b8	0.0022554826
124	0xbd1d80cf	-0.03845292
125	0x3d159993	0.036523413
126	0x3db6867e	0.08912371
127	0xbd654599	-0.055974577

classifier.2.bias f4 [2]
0	0x3b01119b	0.0019694332
1	0xbd913544	-0.07090238
