models/weights/film_weights.pth (torch, 374084 bytes, 8 tensors)

film.gamma.weight f4 [160, 256]
0	0xbd511bc1	-0.05105186
1	0x3cd21c80	0.025648355
2	0xbd0814e1	-0.033223037
3	0x3d6777c4	0.0565107
4	0xbd11b615	-0.035574038
5	0xbd0bf605	-0.03417017
6	0xbc2266c7	-0.009912199
7	0xbc3d4ce6	-0.011553979
8	0x3c429954	0.011877377
9	0xba966ee3	-0.0011477139
10	0x3ced1a4d	0.028943205
11	0xbbcf57b5	-0.006327594
12	0xbd646401	-0.055759434
13	0xbd23b390	-0.039966166
14	0xbc6a3556	-0.014294943
15	0x3d21cef1	0.039503995
16	0x3cdd6b58	0.027028725
17	0xbc40e746	-0.01177389
18	0xbd432add	-0.0476483
19	0xbcf6ce83	-0.03012777
20	0x3c595093	0.013263839
21	0xbd192504	-0.037388816
22	0x3b843624	0.0040347744
23	0x3cf13d55	0.02944819
24	0x3d418ece	0.04725533
25	0xbb9fd00f	-0.0048770974
26	0xbc83697e	-0.016041514
27	0xbc6cd297	-0.014454505
28	0xbaceb8c7	-0.0015771621
29	0x3c81528f	0.015786437
30	0xbcee12fb	-0.029061785
31	0xbd3fd99f	-0.0468384
32	0x3d4f5c06	0.05062487
33	0x3b2850f2	0.0025683013
34	0x3d18a367	0.037265208
35	0xbce8777c	-0.028377287
36	0xbd535091	-0.051590506
37	0xbc609050	-0.013706282
38	0xbc2dc4ec	-0.010606032
39	0x3d0bcbbf	0.034129854
40	0xbd44fe06	-0.048093818
41	0xbcf3b05e	-0.029747184
42	0x3c7c91e2	0.015415641
43	0xbd2c41e3	-0.042055022
44	0x3d4291b3	0.04750223
45	0x3d7e5daa	0.062101044
46	0xbcb6190b	-0.022228738
47	0x3cdc2f62	0.026878063
48	0xbd7f9477	-0.062397446
49	0xbd2997a4	-0.04140438
50	0xbcb8e9a7	-0.022572352
51	0x3d2797ba	0.040916182
52	0x3d26c64d	0.040716458
53	0x3b96a7a9	0.0045976234
54	0x3c98be27	0.01864536
55	0xbcc29ccf	-0.023756413
56	0x3d528b7e	0.05140256
57	0x3d6468b6	0.055763923
58	0x3d851b1c	0.06499311
59	0x3c46b35b	0.012127723
60	0xbd6d3c87	-0.05791905
61	0xbc44f4e7	-0.01202128
62	0x3cb01564	0.021494575
63	0x3d2ff94c	0.042962357
64	0x3d2687a5	0.040656704
65	0x3b4c0ad2	0.003113438
66	0xbbb8e906	-0.005643013
67	0x3cac86a7	0.021060301
68	0xbd31a906	-0.043374084
69	0xbd84cfad	-0.064849235
70	0xbd5bb8e8	-0.053643137
71	0x3d54c8c4	0.051949278
72	0xbd013377	-0.03154322
73	0x3cf9c4b7	0.030489309
74	0x3c26e308	0.010185964
75	0xbcf75c34	-0.030195333
76	0x3cb0292d	0.02150401
77	0xbc8a43c5	-0.016878018
78	0xbd0eb9ce	-0.034845166
79	0xbd25fa98	-0.040522188
80	0xb99e5d6d	-0.00030205716
81	0x3bd558e0	0.006510839
82	0x3ca2ef4a	0.019889493
83	0xbcc8d015	-0.024513284
84	0xbd041b0b	-0.032252353
85	0x3b87eb37	0.004147913
86	0xbc887498	-0.016657159
87	0xbd2353d9	-0.039874885
88	0x3c310728	0.010804929
89	0xbce08618	-0.02740769
90	0xbbdbf5c0	-0.0067126453
91	0x3d4370fd	0.047715176
92	0x3bf61bda	0.0075106444
93	0xbd5bbf8a	-0.053649463
94	0xbb7d77a0	-0.0038676038
95	0x3cbf0595	0.023318091
96	0xba3175d2	-0.0006769571
97	0xbbdda9ad	-0.0067646117
98	0xbd38637f	-0.045016762
99	0x3d0c1974	0.03420396
100	0xbbee6cb9	-0.0072761443
101	0x3cb56631	0.022143455
102	0xbc91e0c3	-0.01780737
103	0x3c2dd74a	0.010610411
104	0xbd44d4e8	-0.048054606
105	0x3d2d8e2e	0.04237192
106	0x3a5c8c1a	0.0008413211
107	0xba2961fc	-0.0006461439
108	0x3d1eca7b	0.03876732
109	0x3c52fe8c	0.0128780715
110	0xbcc13e36	-0.023589235
111	0x3beb921f	0.00718905
112	0x3d44af68	0.048018843
113	0x3cf8f73d	0.03039133
114	0x3d3d0ed8	0.046156734
115	0xbcbfa139	-0.023392307
116	0xbd1783d4	-0.036990955
117	0xbd384a9d	-0.04499303
118	0xbd061a82	-0.032740124
119	0xbd26e2b3	-0.04074354
120	0xbd7b7e7a	-0.061399914
121	0xbd4ed6b0	-0.05049771
122	0x3d44941f	0.04799282
123	0x3ccc33e3	0.024927085
124	0xbca9b478	-0.020715937
125	0x3c1a4dc7	0.009417958
126	0xbcbbe646	-0.022936951
127	0xbd834eaf	-0.06411492
128	0x3d8e3d94	0.06945339
129	0x3bcb2b37	0.00620022
130	0x3c7e4dd1	0.015521483
131	0xbd30d896	-0.043175302
132	0x3bad8d00	0.0052963495
133	0x3d2865a7	0.04111257
134	0xbbf151f9	-0.007364508
135	0xbd0be7c7	-0.034156587
136	0x3cfed3b1	0.031106802
137	0xbc8dd5fa	-0.017313946
138	0xbd6f55c6	-0.05843141
139	0xbc902b87	-0.01759888
140	0x3d2ba803	0.041908275
141	0xbd26496d	-0.040597368
142	0x3d37d1c1	0.04487777
143	0xbc60c5ce	-0.013719035
144	0x3d4344a0	0.047672868
145	0x3d337fe2	0.04382313
146	0x3cb9dfb1	0.022689672
147	0x3d5f15e1	0.054464225
148	0x3d5170c9	0.05113295
149	0x3c4be313	0.012444275
150	0xbd033802	-0.032035835
151	0x3d0e5e68	0.034758
152	0xbd75683c	-0.05991386
153	0xbb9f8d8c	-0.0048691686
154	0xbb75358c	-0.003741595
155	0xbd190835	-0.037361342
156	0xbd1b62ad	-0.0379359
157	0x3d302f9e	0.04301416
158	0xbd2c1b2d	-0.042018104
159	0xbd6dc668	-0.058050543
160	0x3cdb5f01	0.0267787
161	0x3cfe5973	0.031048512
162	0x3d47ac0c	0.04874806
163	0x3d61254e	0.054967217
164	0x3d860528	0.06543952
165	0xbd25745c	-0.040394172
166	0xbd35cc9f	-0.044384595
167	0xbbb6b59b	-0.0055758483
168	0xbcb27608	-0.021784797
169	0x3c4835b4	0.012219835
170	0x3bc25787	0.005930844
171	0x3c7e205f	0.015510648
172	0x3caab05c	0.020836048
173	0x3c90c507	0.017672075
174	0x3cc19f46	0.023635518
175	0xbcf2a89a	-0.029621411
176	0x3d5b1910	0.0534907
177	0x3d11eca0	0.035626054
178	0xbbe15d05	-0.006877544
179	0x3d4dc4d0	0.050236523
180	0xbd8aa0fe	-0.06768988
181	0x3ce77bd9	0.028257297
182	0xbc9f077f	-0.019412754
183	0x3d1ca29e	0.03824102
184	0x3d1d5a23	0.03841604
185	0x3b21bd32	0.002467942
186	0x3c22573a	0.009908492
187	0xbb704a40	-0.003666535
188	0x3cd7c252	0.026337776
189	0x3d2f0350	0.04272777
190	0x3d12add2	0.0358103
191	0xbd082e79	-0.033247445
192	0xbd3ec822	-0.04657758
193	0xbc4dee90	-0.012569085
194	0xbc73d04b	-0.014881204
195	0xbc421e97	-0.0118481135
196	0xbd723482	-0.059132107
197	0xbd677dbc	-0.056516394
198	0xbcd2d573	-0.025736546
199	0x3d080428	0.03320709
200	0xbd33f8bc	-0.043938383
201	0xbd3a3ff3	-0.045471143
202	0x3c0f38be	0.008741556
203	0xba977bcb	-0.0011557279
204	0xbd7bd70e	-0.06148439
205	0xbc9a5fe8	-0.01884456
206	0x3c94593c	0.018108957
207	0xbca5de41	-0.02024758
208	0xbd639fb8	-0.05557224
209	0xbd3cc72c	-0.046088383
210	0xbd03937f	-0.032123085
211	0xbd100aee	-0.035166673
212	0xbd8f63d3	-0.07001462
213	0xbcaaa313	-0.020829713
214	0x3d4ad2f3	0.049517583
215	0x3b1a11fe	0.002350926
216	0x3d305359	0.043048237
217	0xbd11a53c	-0.03555797
218	0xbd2d64d9	-0.042332504
219	0x3cfa4d67	0.030554486
220	0x3cc3a290	0.023881227
221	0xbcfe762a	-0.031062204
222	0x3cf7d6a2	0.030253712
223	0xbd4a0979	-0.04932544
224	0x3d016cb7	0.03159782
225	0xbb3c09f9	-0.0028692468
226	0xbd142728	-0.036170155
227	0xbd2ac856	-0.04169496
228	0xbd01a79d	-0.03165399
229	0xbd13e149	-0.03610352
230	0xbc963c67	-0.018339349
231	0x3d069451	0.03285629
232	0x3ba1534c	0.00492326
233	0xbc86a46b	-0.016435822
234	0x3d4971bc	0.04918073
235	0xbd825b3d	-0.063650586
236	0xbd20ca46	-0.039255403
237	0xbd43e720	-0.04782784
238	0xbcb64b6b	-0.022252759
239	0x3d1d0e71	0.03834385
240	0xbd23bc61	-0.039974574
241	0x3d8c3a70	0.068470836
242	0xbc7edc7e	-0.015555499
243	0xbcb79c08	-0.022413269
244	0xbcfb103d	-0.030647391
245	0x3cfb6d09	0.03069164
246	0xbcdb7e2b	-0.02679356
247	0x3d44fa35	0.04809018
248	0x3d55e58a	0.05222086
249	0xbcd3d8df	-0.025860248
250	0xbd65bc2f	-0.05608767
251	0x3cecbbf6	0.02889822
252	0x3b8bb5d8	0.004263621
253	0xbc9a9bb7	-0.018873079
254	0xbbfc5797	-0.007700871
255	0xbcd655d7	-0.026163979

film.gamma.bias f4 [160]
0	0xbd7de09f	-0.061981793
1	0xbc13587a	-0.008993262
2	0x3d88eeaf	0.0668615
3	0xbc635bb5	-0.013876845
4	0xbd0d39e2	-0.03447903
5	0x3c1dc737	0.009630016
6	0xbc177ebb	-0.0092465235
7	0x3d714bd3	0.058910202
8	0x3d2b2722	0.041785367
9	0xbc0fbd9d	-0.008773235
10	0x3c043e18	0.008071445
11	0x3d2b0c5b	0.04175983
12	0x3cc3d072	0.023903105
13	0xbcc616a4	-0.024180718
14	0x3cfe2a16	0.031025928
15	0x3d15af2e	0.036544017
16	0x3c71490e	0.01472689
17	0xbd4f6c23	-0.050640237
18	0xbc4cb076	-0.012493243
19	0xbd37e4b0	-0.044895828
20	0xbb389ca0	-0.0028169528
21	0xb9b1a370	-0.0003388184
22	0x3d326bce	0.04355984
23	0xbd4fca43	-0.05073
24	0xbcc0ca01	-0.023533823
25	0xbd0d7714	-0.03453739
26	0xbd386efd	-0.04502772
27	0x3d871f5b	0.065977775
28	0xbd238c36	-0.039928637
29	0x3bb1280b	0.005406385
30	0xbb967771	-0.0045918752
31	0xbd782af9	-0.060587857
32	0xbd0b941c	-0.034076795
33	0x3c9391df	0.018013893
34	0x3c9d86fc	0.019229405
35	0x3c83fa04	0.016110428
36	0xbd1c0441	-0.038089994
37	0x3d912217	0.0708658
38	0x3c8fdee8	0.017562345
39	0x3c85df03	0.016341692
40	0xbcb1cb12	-0.021703277
41	0xbbf0320c	-0.007330185
42	0x3d058447	0.032596853
43	0x3d0e09b3	0.03467722
44	0x3d815833	0.06315651
45	0xbcbe8cea	-0.023260552
46	0x3d684d28	0.056714207
47	0x3d62bfae	0.05535858
48	0x3d019d46	0.03164413
49	0x3d086910	0.03330332
50	0xbd43fafd	-0.047846783
51	0xbc93c487	-0.018038047
52	0x3d0d45ba	0.034490325
53	0xbd4e6a11	-0.05039412
54	0x3d4aa598	0.04947433
55	0xbd27bba8	-0.040950447
56	0x3c8e2340	0.017350793
57	0x3cdc7f8b	0.026916286
58	0x3d8a9b26	0.067678735
59	0xbca57040	-0.020195127
60	0x3c9606cf	0.018313793
61	0xbd893417	-0.066993885
62	0xbcbc0e37	-0.022955997
63	0xbd6b8a72	-0.05750508
64	0x3caea20b	0.021317502
65	0xbc2f28a3	-0.010690841
66	0xbd756587	-0.059911277
67	0x3b9483bc	0.0045323055
68	0xbc0a8922	-0.008455547
69	0xbc86d9c3	-0.016461259
70	0xbb8d1694	-0.00430567
71	0x3cb9ae05	0.022665987
72	0xbc3d94a6	-0.011571085
73	0xbd1569a3	-0.036477696
74	0x3d104aa9	0.03522745
75	0x3c817d83	0.015806919
76	0x3ba35cb9	0.0049854186
77	0xbcc88a70	-0.024480075
78	0x3b176851	0.002310295
79	0xbc06b05d	-0.008220759
80	0xbceaf380	-0.028680563
81	0x3b922fdb	0.004461271
82	0xbccb9759	-0.024852442
83	0xbd5beb95	-0.053691465
84	0xbd5c4cb7	-0.0537841
85	0xbcc15a31	-0.023602577
86	0xbd82b847	-0.06382804
87	0x3ceacd1b	0.028662255
88	0xbd559d41	-0.052151922
89	0x3d15c0a6	0.036560677
90	0x3d4e5eb4	0.050383285
91	0xbcd7fa3c	-0.026364438
92	0x3c1eaa95	0.009684225
93	0x3d833fc2	0.06408645
94	0x3ce74180	0.028229475
95	0xbd1dd471	-0.038532678
96	0xbd56805b	-0.052368503
97	0x3be05317	0.0068458426
98	0xbc2b67be	-0.010461746
99	0x3d9b8817	0.075943165
100	0xbc998566	-0.018740367
101	0xbc531e23	-0.012885603
102	0x3d559c00	0.052150726
103	0x3bab2ae9	0.005223621
104	0x3d2347c5	0.039863367
105	0xbd52203a	-0.051300265
106	0xbcfd1bf7	-0.030897124
107	0xbd70f407	-0.058826473
108	0x3c0b6813	0.0085087
109	0xbc658dc5	-0.014010851
110	0x3ca5420e	0.020173099
111	0x3d959878	0.07304472
112	0xbd921bc1	-0.071342
113	0x3bbcb17e	0.0057584634
114	0xbd1754c8	-0.036946088
115	0x3c37eca5	0.011225854
116	0xbbf5afac	-0.0074977484
117	0xbb8cbc71	-0.004294925
118	0x3a0d8aeb	0.00053994235
119	0xbd424711	-0.047431055
120	0x3c83c7cf	0.016086487
121	0x3bed652b	0.007244726
122	0xbcca2683	-0.024676567
123	0x3d2be9d4	0.041971043
124	0xbd2ddff0	-0.04244989
125	0x3d9164fb	0.070993386
126	0x3d104276	0.035219632
127	0xbcccce89	-0.025000827
128	0x3bb87f50	0.005630411
129	0x3cfc93c5	0.03083218
130	0xbcb98e20	-0.022650778
131	0xbcdbcacc	-0.0268301
132	0x3d8ff214	0.070285946
133	0xbd2d9851	-0.04238159
134	0x3c2dc20c	0.010605346
135	0xbc8b16f4	-0.016978718
136	0xbad9144b	-0.0016561834
137	0x3d2518e4	0.04030694
138	0x3c66e051	0.014091567
139	0x3ce50774	0.027957655
140	0x3b7183d9	0.003685227
141	0xbd0dddfd	-0.034635533
142	0xbd422ce4	-0.047406092
143	0x3d4c8844	0.04993464
144	0x3d8cf64e	0.068829164
145	0xbc93bfee	-0.018035855
146	0x3d838c9e	0.06423305
147	0x3d8b8f18	0.06814402
148	0x3cbc092c	0.022953592
149	0x3d343be7	0.04400244
150	0x3d59a53e	0.053136103
151	0x3c8960de	0.016769823
152	0xbc5246e3	-0.0128342835
153	0x3c61f8ce	0.01379223
154	0x3d22019a	0.03955231
155	0xbcf1f2d9	-0.029534744
156	0x3b88e110	0.00417722
157	0x3c6f4b14	0.014605302
158	0xbd41f80a	-0.04735569
159	0xbd317354	-0.043322876

film.beta.weight f4 [160, 256]
0	0xbcd80f81	-0.02637458
1	0xbca85505	-0.020548353
2	0xbd35df36	-0.044402324
3	0x3a8c323c	0.0010696123
4	0x3c894781	0.016757729
5	0xbc22a916	-0.009928009
6	0x3b51fa29	0.0032039976
7	0x3d082f7e	0.033248417
8	0x3d07a8ac	0.033119842
9	0x3c10ab99	0.008829975
10	0x3c3e8461	0.011628241
11	0xbd03fd4d	-0.03222399
12	0x3bb05a7d	0.005381881
13	0xbc8bcff7	-0.017066939
14	0xbb1e37fc	-0.0024142256
15	0x3c07a14c	0.008278202
16	0x3c8a970d	0.01691773
17	0xbd74a63a	-0.05972884
18	0xbced9661	-0.02900237
19	0x3d521df2	0.05129809
20	0xbd2bf763	-0.041983973
21	0x3d7a11a1	0.06105197
22	0xbce510bc	-0.027962081
23	0x3d3761c1	0.04477096
24	0x3d083544	0.033253923
25	0x3d74b836	0.05974599
26	0xbc0eb9ea	-0.008711318
27	0xbd4cc236	-0.0499899
28	0x3d3b0972	0.045663305
29	0xbd204b7d	-0.03913449
30	0x3c931530	0.017954439
31	0x3d00ca7e	0.03144311
32	0xbb294abc	-0.0025831899
33	0x3ceea4e1	0.029131355
34	0xbd301908	-0.04299262
35	0xbc89b9f2	-0.016812298
36	0xbca1b397	-0.019738955
37	0xbc5ebefa	-0.013595337
38	0x3c930f0e	0.017951515
39	0x3ca05c6c	0.01957532
40	0xbcae3587	-0.021265758
41	0xbcda3c18	-0.026639983
42	0x3c566538	0.013085656
43	0xbd43285d	-0.047645915
44	0x3d7edcc3	0.062222254
45	0xbc819321	-0.015817227
46	0x3c24d8d7	0.010061464
47	0x3c0066b0	0.007836983
48	0xbd857f00	-0.06518364
49	0xbbd35b58	-0.006450098
50	0xbc868bd5	-0.016424099
51	0x3cafaec2	0.021445636
52	0xbbb1a09f	-0.005420759
53	0xbcd397c0	-0.025829196
54	0x3c1bf70d	0.009519351
55	0x3d395673	0.04524846
56	0x3d830b7f	0.06398677
57	0x3c94525d	0.01810568
58	0x3abfa6ad	0.0014621817
59	0xbd7314a4	-0.059345856
60	0xbca1c8c7	-0.019749058
61	0xbd23186e	-0.03981822
62	0x3d080783	0.03321029
63	0x3d3bf7c4	0.045890585
64	0xbcb68d99	-0.022284316
65	0xbba8b4e0	-0.005148515
66	0x3c9958ec	0.018719159
67	0x3cad457b	0.021151295
68	0xbbf653e8	-0.0075173266
69	0xbcb10261	-0.02160758
70	0xbca31985	-0.01990963
71	0xbd3bd8f8	-0.045861214
72	0xbd07d61b	-0.03316317
73	0x3d6c820c	0.05774121
74	0x37360773	1.084978e-05
75	0x3d075991	0.0330444
76	0xbcd70b3b	-0.026250472
77	0xbb8a6ce2	-0.0042244056
78	0xbd3a994f	-0.045556363
79	0x3c9c6e77	0.019095642
80	0xbcd08fe7	-0.025459243
81	0x3cd43609	0.025904672
82	0xbd57f27b	-0.05272148
83	0x3ca3ada1	0.019980254
84	0xbcef148d	-0.029184604
85	0x3a5bea43	0.0008389095
86	0xbc424927	-0.011858261
87	0x3a51dc2e	0.00080055266
88	0x3ce40a8a	0.027837057
89	0x3ca967cc	0.020679377
90	0x3c322879	0.010873907
91	0x3ad7d4b8	0.0016466593
92	0x3c99ac9f	0.01875907
93	0xbd5f55e1	-0.05452526
94	0xbb51c597	-0.0032008642
95	0x3c8c8d98	0.01715736
96	0x3d3b427f	0.045717712
97	0x3cdc312d	0.026878918
98	0xbba34461	-0.0049825166
99	0x3d2ee430	0.042698085
100	0xbbfedcd7	-0.007777791
101	0xbccbd404	-0.02488137
102	0xbd099dd8	-0.033597797
103	0x3d13134d	0.03590708
104	0x3cf61ee6	0.03004403
105	0xbd1ef02d	-0.03880327
106	0xbc81f979	-0.015866028
107	0xbd143671	-0.036184732
108	0xbba75c30	-0.005107425
109	0xbd6a6cc3	-0.05723263
110	0xbd2f0966	-0.042733572
111	0x3c23f860	0.010007948
112	0x3d3d3347	0.04619148
113	0xbc071e3d	-0.008246955
114	0xbcfba721	-0.030719342
115	0xbd4a9fc9	-0.04946879
116	0xbd3c1f7e	-0.04592847
117	0xbc89bb2b	-0.016812881
118	0x3d135794	0.035972193
119	0x3d463d92	0.04839856
120	0xbd86ab42	-0.065756336
121	0x3c687e13	0.014190215
122	0xbd259c78	-0.040432423
123	0xbd29c325	-0.04144587
124	0xbd130bb2	-0.035899825
125	0x3d1d9082	0.03846789
126	0x3aeda4f0	0.001813082
127	0xbbbcdeae	-0.00576385
128	0x3cbafb78	0.022824988
129	0xbd4db5e0	-0.050222278
130	0x3d476f9c	0.048690423
131	0xbc89ae3c	-0.016806714
132	0xbd348df1	-0.04408068
133	0xbd473984	-0.048638836
134	0x3d2ba830	0.041908443
135	0x3d44612f	0.047944244
136	0x3ccf4c12	0.025304828
137	0xbd496abd	-0.04917406
138	0xbc217d4b	-0.009856532
139	0xbd4b78d6	-0.049675785
140	0xbcc375fd	-0.023859972
141	0xbd47cd47	-0.048779752
142	0xbd394567	-0.045232203
143	0xbd30e8c2	-0.043190725
144	0x3d58eace	0.052958302
145	0x3bfd9095	0.007738183
146	0x3b7958be	0.003804728
147	0xbbcf8e02	-0.0063340673
148	0xbd3911df	-0.04518306
149	0xbc945ed0	-0.018111616
150	0x3ccafdb1	0.024779173
151	0xbd66cce9	-0.05634776
152	0x3cb66050	0.022262722
153	0xbd614d9a	-0.055005647
154	0x3cd0b777	0.025478108
155	0xbd095165	-0.03352489
156	0x3c954ae3	0.018224185
157	0x3ca62e9b	0.020285895
158	0xbd041a1d	-0.032251466
159	0xbd51b90c	-0.051201865
160	0x3d6038b3	0.054741573
161	0x3ac9f335	0.0015407564
162	0x3c15c5b7	0.009141377
163	0x3cbc431c	0.022981219
164	0x3d12ad9c	0.035810098
165	0x3cbe6025	0.023239205
166	0xbc71140f	-0.014714255
167	0xbc4cc6da	-0.012498582
168	0xbd2928ed	-0.041298795
169	0xbd22ac44	-0.039715067
170	0xbd2a4c08	-0.041576415
171	0xbd342c09	-0.043987308
172	0xbd520fa9	-0.051284466
173	0x3ceda310	0.029008418
174	0xbd8775c1	-0.06614257
175	0x3d03cf7f	0.032180306
176	0xbc3670fa	-0.011135334
177	0xbd0fa499	-0.035069082
178	0x3d6ae556	0.057347618
179	0xbc6e1fde	-0.014533965
180	0x3aaf9fbb	0.0013399044
181	0x3d34f64a	0.044180192
182	0xbd37a12e	-0.044831447
183	0xbc7780f6	-0.01510643
184	0xbd2dc9ec	-0.042428896
185	0x3c4ed126	0.012623107
186	0x3d099e0b	0.033597987
187	0xbcc2b5c9	-0.023768323
188	0x3cc4552d	0.023966396
189	0x3d440c25	0.047863144
190	0x38cb2b98	9.687914e-05
191	0xbc7f4448	-0.015580244
192	0xbc7dd2c9	-0.01549215
193	0x3c6d56ec	0.014486056
194	0x3d2b5657	0.041830387
195	0x3cf413d1	0.029794605
196	0xbd350db1	-0.04420251
197	0xbd435b87	-0.04769471
198	0xbc18b534	-0.009320546
199	0x3c7bc27d	0.015366194
200	0xbd2abd87	-0.041684654
201	0x3c9c2400	0.019060135
202	0xbb15ebe0	-0.0022876188
203	0xbd84fdfa	-0.06493755
204	0xbd3fec6c	-0.04685633
205	0xbd4a683f	-0.049415823
206	0x3c27c20c	0.0102391355
207	0xbd857df5	-0.06518165
208	0xbcadeeda	-0.021232057
209	0x3c8951a0	0.016762555
210	0x3c738fc6	0.014865821
211	0x3ca6968e	0.020335462
212	0xbd60b9a3	-0.054864537
213	0xbd0e7090	-0.034775317
214	0x3c8d8c90	0.01727894
215	0x3d2b805e	0.041870467
216	0xbcb536aa	-0.022120792
217	0xbc1fefcf	-0.009761765
218	0xbb65085d	-0.0034947612
219	0xbc85acde	-0.016317781
220	0xbd1e0fa3	-0.03858913
221	0x3be61bb8	0.0070223473
222	0xbc49be11	-0.012313382
223	0x3d377d20	0.044797063
224	0x3d11892a	0.0355312
225	0xbd22b9a6	-0.03972783
226	0x3c7bdb2b	0.015372078
227	0x3b4b01cc	0.0030976413
228	0xbd7595dd	-0.059957374
229	0xbc2f3040	-0.010692656
230	0xbc338655	-0.01095732
231	0x3c0b253d	0.008492765
232	0xb8852782	-6.349293e-05
233	0x3d1ce1a5	0.03830113
234	0x3d38f68e	0.045157008
235	0xbd132165	-0.03592052
236	0xbcc79a1f	-0.024365483
237	0xbb4cce93	-0.0031251058
238	0x3bc53dc8	0.006019328
239	0xbcf0069c	-0.029300027
240	0xbd075ccb	-0.03304748
241	0x3d63aa89	0.055582557
242	0x3ca2be0e	0.019866016
243	0xbd18998a	-0.0372558
244	0x3cb42d8b	0.021994373
245	0xbc5d4e30	-0.013507411
246	0xbd0c24c5	-0.034214754
247	0x3c6f9d85	0.014624958
248	0x3d168649	0.036749158
249	0xbcbede75	-0.023299435
250	0x3d30c6d9	0.043158386
251	0x3bcb1acf	0.006198264
252	0x3c824141	0.015900256
253	0xbcc418a3	-0.023937529
254	0xbd05dcde	-0.03268134
255	0xbd5cbdda	-0.053891994

film.beta.bias f4 [160]
0	0x3d3209a9	0.043466244
1	0xbcab73a8	-0.020929173
2	0xbd05f768	-0.032706648
3	0xbbe44e97	-0.0069673765
4	0xbd4cced5	-0.050001938
5	0xbd1b7569	-0.037953768
6	0xbd528cad	-0.05140369
7	0x3d48aa76	0.04899069
8	0x3c2d4942	0.010576548
9	0x3d28f98f	0.041253623
10	0x3cf06ea7	0.029349638
11	0x3b519395	0.0031978835
12	0x3d71d5a6	0.05904164
13	0x3cc414c9	0.023935692
14	0x3d409ac2	0.04702259
15	0xbc0f6e8c	-0.008754384
16	0x3b98b725	0.0046605044
17	0x3cadfe36	0.021239381
18	0x3cc5c168	0.024140075
19	0x3c84b776	0.016200762
20	0x3b53e1f1	0.0032330716
21	0x3d486096	0.048920237
22	0xbd3409e3	-0.04395474
23	0x3c08fea4	0.008361492
24	0xbcc21fb6	-0.023696762
25	0xbd7da3b3	-0.061923694
26	0xbd562f0b	-0.052290957
27	0x3a876b32	0.0010331629
28	0xbc127ed0	-0.008941367
29	0xba20da35	-0.0006136031
30	0xbc9058db	-0.017620495
31	0xbb50eb1f	-0.0031878424
32	0x3d15aad9	0.036539886
33	0x3cc5db36	0.02415238
34	0xbd288e25	-0.041151185
35	0xbc9ece2c	-0.01938542
36	0x3d249ddf	0.04018962
37	0xbc1834f0	-0.009289965
38	0xbcfd0977	-0.030888302
39	0x3d5944dc	0.053044185
40	0x3cd432e2	0.025903169
41	0xbd7b0b5a	-0.061290123
42	0xbcc263b2	-0.023729179
43	0x3bd1f6af	0.006407581
44	0x3d27154e	0.040791802
45	0x3c98bdec	0.01864525
46	0xbd1bec4d	-0.03806715
47	0x3d23567f	0.03987741
48	0x3c8abee1	0.016936721
49	0x3d29988d	0.04140525
50	0x3d268fc2	0.040664442
51	0x3ba034a7	0.004889089
52	0x3ce853ce	0.028360274
53	0xbca09b11	-0.019605191
54	0xbcda0369	-0.026612954
55	0xbcb549ba	-0.022129882
56	0x3d318871	0.04334301
57	0xbcae24e6	-0.021257829
58	0xbd449ead	-0.048002888
59	0xbd2b8285	-0.04187252
60	0xbd4b9e26	-0.04971137
61	0xbcff98d8	-0.031200811
62	0x3d740f49	0.05958489
63	0xbca2b458	-0.019861385
64	0x3cdeafbf	0.027183412
65	0x3bb57001	0.0055370335
66	0xbd847717	-0.06468027
67	0xbd366b91	-0.044536177
68	0xbc027a7b	-0.007963772
69	0xbd0695b3	-0.032857608
70	0x3c6dc9e2	0.014513465
71	0x3c4f9419	0.012669587
72	0xbd381183	-0.044938575
73	0x3d4d0be4	0.050060168
74	0x3c045934	0.008077908
75	0xbd3ac943	-0.045602094
76	0x3d2fb5a6	0.042897843
77	0xbd4f1ac4	-0.050562635
78	0xbd792f88	-0.060836345
79	0x3ce9c28d	0.028535152
80	0x3b022538	0.001985861
81	0x3c6b0059	0.014343345
82	0xbd2d90f0	-0.04237455
83	0xbd5937cc	-0.053031728
84	0xbc88823e	-0.016663667
85	0xbd0c365e	-0.034231536
86	0xbcd196f8	-0.025584683
87	0x3c6ecb29	0.014574804
88	0x3c985801	0.018596651
89	0x3cd37492	0.025812421
90	0x3c93800e	0.018005397
91	0x3d5cf1f8	0.053941697
92	0xbd2e2ad1	-0.0425213
93	0xbd0c272e	-0.034217052
94	0xbd36a961	-0.044595126
95	0xbd257347	-0.04039314
96	0x3d16a31f	0.03677666
97	0x3d41ae44	0.047285333
98	0x3d43b1df	0.047777053
99	0xbd03b11e	-0.032151334
100	0x3d23da31	0.040003005
101	0xbd241039	-0.040054534
102	0x3d62124b	0.055193227
103	0xbcc52de9	-0.024069743
104	0xbc87a808	-0.016559616
105	0xbd0c6972	-0.034280248
106	0xbd445e5e	-0.047941558
107	0xbd7138a2	-0.0588919
108	0x3cfcc74e	0.030856755
109	0xbcd79e26	-0.026320528
110	0xbd015cda	-0.03158269
111	0xbcb2e50d	-0.021837736
112	0xbd1435ab	-0.036183994
113	0xbbe22a43	-0.0069020106
114	0xbd5e4d79	-0.054273102
115	0xbac94898	-0.0015356718
116	0x3d6c7573	0.057729196
117	0x3d704690	0.058661044
118	0xbd48fc82	-0.049068935
119	0xbbd9ed37	-0.0066505927
120	0x3c3d5bd5	0.011557539
121	0x3cc31d5e	0.023817714
122	0xbd0d0aca	-0.034434117
123	0x3bbcd0ad	0.005762181
124	0x3d0d8e15	0.034559328
125	0xbcdfa5fa	-0.027300823
126	0xbc5a25fb	-0.013314719
127	0x3c7ae4cf	0.015313341
128	0xbbb4148c	-0.0054956134
129	0x3cd9ef17	0.026603265
130	0xbd072707	-0.032996204
131	0x3d15738d	0.03648715
132	0xbd0c467d	-0.03424691
133	0xbcb0879b	-0.021549037
134	0xbd097561	-0.033559207
135	0x3c7a4db7	0.015277318
136	0xbd552b4c	-0.052043244
137	0x3d0f3ebb	0.034971934
138	0xbc99f963	-0.018795675
139	0x3d75e984	0.06003715
140	0x3d6186ba	0.055060126
141	0xbcbf7e35	-0.02337561
142	0x3ce34de9	0.027747111
143	0xbd46951f	-0.048482057
144	0xbc8dc655	-0.017306486
145	0x3c929fb2	0.017898414
146	0x3d85d82a	0.06535371
147	0xbd1747b7	-0.036933627
148	0xbcf4d6b3	-0.029887533
149	0xbd437be1	-0.047725562
150	0xbd34c44a	-0.04413251
151	0xbd829003	-0.06375124
152	0x3d54e6cb	0.051977914
153	0xbd8acda8	-0.06777507
154	0xbd1dc875	-0.03852125
155	0x3c3621d2	0.011116462
156	0xbd250fb0	-0.040298164
157	0x3d47be0e	0.048765235
158	0x3cc9c754	0.02463118
159	0xbcbbe6f2	-0.022937272

classifier.0.weight f4 [64, 160]
0	0xbd43aade	-0.047770374
1	0xbd2e2828	-0.042518765
2	0xbd9268bf	-0.07148885
3	0xbb167ce9	-0.0022962636
4	0x3c877be9	0.016538577
5	0xbd9468ed	-0.072465755
6	0xbda8efe7	-0.08248883
7	0xbd9de4ff	-0.07709693
8	0x3c940c29	0.018072205
9	0xbd0d84f6	-0.03455063
10	0x3d24f3bd	0.04027151
11	0x3d0a24ca	0.03372649
12	0x3d742f47	0.0596154
13	0x3bae8f8f	0.005327172
14	0xbd8ca8cf	-0.06868135
15	0xbd3ac4dd	-0.0455979
16	0xbcb8a19c	-0.022537999
17	0x3caf1053	0.021370089
18	0xbc4c3a74	-0.012465108
19	0xbd9f62bc	-0.07782504
20	0xbd946b15	-0.07246987
21	0x3c24690d	0.010034812
22	0x3d5eb55a	0.05437217
23	0x3c99c031	0.018768402
24	0xbd9b7f9c	-0.07592699
25	0xbd0a01e9	-0.033693228
26	0x3d5893fd	0.052875508
27	0x3dab572b	0.08366235
28	0xbbc83b3a	-0.006110576
29	0x3ca6b2ed	0.02034899
30	0xbd129093	-0.035782408
31	0xbc8652ef	-0.016396968
32	0xbd8e31d9	-0.069431014
33	0x3cf6111a	0.030037452
34	0xbd9d6ca8	-0.0768674
35	0x3d25c712	0.04047305
36	0xbd8833a4	-0.06650475
37	0x3d26dc13	0.040737223
38	0x3c829a69	0.01594277
39	0xbda18647	-0.078869395
40	0xbd7db727	-0.061942246
41	0xbcd1bf99	-0.025604056
42	0x3d0f0bda	0.034923412
43	0x3cd3fee2	0.025878374
44	0xbd560e00	-0.052259445
45	0x3cb9362a	0.022608835
46	0x3c83b78e	0.016078737
47	0x3dabbb65	0.08385352
48	0xbd92c677	-0.071667604
49	0xbd0707c0	-0.032966375
50	0x3d146a7a	0.036234356
51	0xbcc3114d	-0.02381196
52	0x3ac8190e	0.0015266256
53	0xbcb5b266	-0.022179794
54	0xbc8e5bfe	-0.01737785
55	0xbd82f348	-0.063940585
56	0xbd11b2db	-0.03557096
57	0xbdcd4eef	-0.10024821
58	0xbd27ec0c	-0.040996596
59	0xbc9f4784	-0.019443281
60	0x3d043702	0.032279022
61	0x3d1e45b5	0.038640697
62	0xbc634510	-0.013871446
63	0xbd1ff19f	-0.039048787
64	0x3d89b4cf	0.067239396
65	0x3d889781	0.06669522
66	0x3d4f79e8	0.05065337
67	0xbd51c5eb	-0.05121414
68	0xbd886811	-0.06660474
69	0xbb18fa54	-0.0023342567
70	0xbd6b7098	-0.057480425
71	0x3d3ac25b	0.045595508
72	0xbd645191	-0.05574185
73	0xbce66f5c	-0.028129272
74	0x3d453bbb	0.048152667
75	0xbca280aa	-0.019836742
76	0xbd0cb612	-0.034353323
77	0xbb419be3	-0.0029542379
78	0x3c19c00b	0.0093841655
79	0xbd8acc63	-0.06777265
80	0x3d880889	0.06642253
81	0xbc945a5a	-0.01810949
82	0x3d4726e1	0.048621062
83	0x3d8ab720	0.067732096
84	0xbda22aab	-0.079182945
85	0xbd8f993b	-0.07011648
86	0x3d7db351	0.061938588
87	0xbc857d6e	-0.016295161
88	0x3d86db0d	0.06584749
89	0x3bbba922	0.0057269493
90	0x3cd0be4d	0.025481367
91	0x3da27c20	0.07933831
92	0x3d14f3b4	0.036365226
93	0xbd611a8a	-0.05495695
94	0x3d8b9a03	0.06816485
95	0x3c67e845	0.014154498
96	0x3d9463e4	0.07245615
97	0x3d741c5c	0.059597358
98	0xbbc13363	-0.0058960184
99	0xbd1fbf3c	-0.039000735
100	0xbda73103	-0.08163645
101	0x3d721126	0.059098385
102	0x3ce1fae7	0.02758546
103	0x3d424dbf	0.047437426
104	0xbd19960c	-0.03749661
105	0x3ce505d7	0.027956886
106	0xbda9b13c	-0.08285758
107	0xbdbbd111	-0.091707356
108	0xbc1c8010	-0.009552017
109	0x3d97855b	0.073984824
110	0xbdd15077	-0.102204256
111	0x3d2bcd41	0.041943792
112	0x3b534ef7	0.0032243112
113	0xbcb2a105	-0.021805296
114	0xbd9f5c46	-0.07781272
115	0xbd996dbf	-0.074916355
116	0x3d2939ee	0.04131501
117	0x3d07d415	0.03316124
118	0x3cd2319a	0.025658417
119	0x3cfa0a2c	0.030522428
120	0x3d1d8825	0.038459916
121	0x3d8c291e	0.0684378
122	0xbb98814b	-0.004654085
123	0x3d12464f	0.035711583
124	0x3dca45d3	0.09876599
125	0x3db6d73a	0.0892777
126	0xbcec4e29	-0.028845863
127	0xbdd1fe6d	-0.10253606
128	0x3d1864e3	0.037205588
129	0xbdac7d0c	-0.08422288
130	0x3d4a5adb	0.049403053
131	0x3c6fb94f	0.014631583
132	0x3d88965f	0.06669306
133	0xbd805daf	-0.06267869
134	0x3baf9421	0.0053582345
135	0x3d4bbed6	0.049742542
136	0xbd9f52ca	-0.07779463
137	0xbd730843	-0.05933405
138	0x3cd9d9aa	0.026593048
139	0xbc4fe693	-0.0126892505
140	0xbc63d81b	-0.013906504
141	0x3c2b1678	0.010442369
142	0x3d1dd7b5	0.038535792
143	0x3c5a7cfb	0.013335462
144	0x3ca96502	0.020678047
145	0xbcdb9a37	-0.026806934
146	0x3d92a17e	0.071597084
147	0xbb703f85	-0.0036658954
148	0x3dbce73a	0.092237905
149	0xbd85c80d	-0.06532297
150	0x3dcc2f38	0.09969944
151	0xbd0ff8d9	-0.03514943
152	0x3d658f10	0.05604464
153	0xbdb83e33	-0.089962386
154	0xbc99154f	-0.018686919
155	0xbd0abeba	-0.033873297
156	0xbd795ccd	-0.060879517
157	0xbcedae01	-0.029013636
158	0x3cb6ebd2	0.022329245
159	0xbd08de5d	-0.033415187
160	0xbc1d512e	-0.009601874
161	0xbd88c0d5	-0.06677405
162	0x3d46e795	0.048560698
163	0xbac3b9e7	-0.0014932723
164	0x3d908fed	0.07058702
165	0x3d56c4ec	0.052433893
166	0xbd388c9f	-0.04505598
167	0x3cc2bb00	0.02377081
168	0xbda19c44	-0.078911334
169	0x3d8e64a3	0.06952789
170	0xbd75bd1a	-0.059994794
171	0x3ca85d45	0.020552287
172	0x3d091c08	0.033474
173	0x3a9731a1	0.0011535176
174	0x3d4ecd91	0.050489012
175	0xbb9d100a	-0.004793172
176	0xbd502caa	-0.050823845
177	0x3d6f644a	0.058445252
178	0x3c8058c2	0.015667323
179	0xbcc50c19	-0.02405362
180	0x3d4a654f	0.04941302
181	0xbd7a340e	-0.0610848
182	0xbd0a2104	-0.033722892
183	0x3c1f38cd	0.009718132
184	0xbd3bf650	-0.0458892
185	0xbd358ba3	-0.04432262
186	0xbd5d8294	-0.054079607
187	0xbcdf71e1	-0.027275981
188	0x3cc50a38	0.024052724
189	0xbd99512e	-0.07486187
190	0xbd90f14b	-0.07077273
191	0x3d9be750	0.07612479
192	0x3d587e7b	0.052854996
193	0xbd68521a	-0.056718923
194	0xbb49391e	-0.003070421
195	0xbc04e729	-0.0081117535
196	0xbd0f66ad	-0.03501003
197	0x3c903f26	0.017608237
198	0x3d8cab19	0.06868572
199	0xbd983ebd	-0.074338414
200	0xbca703c8	-0.020387545
201	0xbce4323a	-0.027855981
202	0xbd0f3f3b	-0.03497241
203	0x3ac610fa	0.001511126
204	0xbd34e307	-0.044161823
205	0xbd15c70f	-0.03656679
206	0xbd1a87bc	-0.037727103
207	0x3d7024f6	0.058629
208	0x3c821438	0.015878782
209	0xbd09cdb0	-0.033643425
210	0x3ba8d15d	0.005151911
211	0x3cc4a12e	0.024002638
212	0x3d95a5a3	0.07306983
213	0x3bf13c38	0.007361915
214	0xbd44adc9	-0.048017297
215	0xbca8b9e5	-0.020596454
216	0xbd7bfdb6	-0.061521254
217	0x3c22b2d9	0.009930336
218	0x3d66a9ff	0.056314465
219	0x3d1f941f	0.03895962
220	0x3d6f341e	0.058399312
221	0xbccb17a8	-0.024791554
222	0xbc0b9220	-0.008518726
223	0x3d156b8f	0.03647953
224	0x3c4c055d	0.012452451
225	0x3d8e43e3	0.06946542
226	0xbd371a59	-0.04470286
227	0xbd972b50	-0.07381308
228	0x3cb22d3d	0.021750087
229	0x3c939c1f	0.01801878
230	0xbdba942c	-0.09110293
231	0x3d87dfa3	0.06634452
232	0x3d17ab83	0.0370288
233	0x3d1c9915	0.038231928
234	0x3d20af72	0.039229818
235	0x3c1f1d30	0.009711549
236	0x3d832cb0	0.06405008
237	0xbcb282d1	-0.021790894
238	0x3d439800	0.04775238
239	0xbd9c5a6a	-0.076344326
240	0xbc6a593a	-0.0143035
241	0x3ca34c3e	0.019933816
242	0x3cbf3a55	0.023343245
243	0xbd8280ca	-0.06372221
244	0x3d001980	0.03127432
245	0xbb78ae30	-0.003794562
246	0xbcd78f31	-0.026313396
247	0x3d59fcbb	0.05321954
248	0xbd926d23	-0.071497224
249	0x3d98f8a9	0.07469303
250	0xbd9dbaf3	-0.07701673
251	0xbc8f0a29	-0.0174609
252	0x3d080071	0.033203546
253	0xbb99a11b	-0.0046883947
254	0x3da500fd	0.08056829
255	0xbc4a29e9	-0.012339094

classifier.0.bias f4 [64]
0	0xbce320fa	-0.027725685
1	0x3c3ec879	0.011644476
2	0xbd0467a8	-0.032325417
3	0xbd87ccf4	-0.066308886
4	0xbc451478	-0.012028806
5	0xbd8988ff	-0.06715583
6	0x3d9b7c03	0.07592013
7	0x3bab24cc	0.0052228924
8	0x3bd937ca	0.006628965
9	0xbd082c59	-0.03324542
10	0xbd445232	-0.04792995
11	0x3ced2e2e	0.028952684
12	0x3d3a5f22	0.045500882
13	0x3cae3e82	0.02127004
14	0xbd275b40	-0.040858507
15	0x3d294f68	0.041335493
16	0xbabe80a8	-0.0014534192
17	0xbc63b94f	-0.0138991615
18	0x3d850bac	0.06496367
19	0xbcc72398	-0.024308965
20	0x3d9b2c48	0.07576805
21	0x3d1c852f	0.03821295
22	0x3d2c5b13	0.042079043
23	0x3d6cf5ed	0.05785172
24	0x3d44a225	0.048006196
25	0xbd381f8c	-0.04495196
26	0xbd274a89	-0.040842567
27	0xbd8af6b8	-0.06785339
28	0x3c0f415d	0.008743611
29	0x3d9b6fa5	0.07589654
30	0xbd33cabc	-0.043894514
31	0xbc047623	-0.008084807
32	0x3d9ae726	0.07563619
33	0x3d30aa4c	0.043131158
34	0x3da9c958	0.082903564
35	0x3d36a780	0.044593334
36	0x3d1171da	0.035508968
37	0xbd8f5057	-0.069977455
38	0xbd025375	-0.031817872
39	0x3c84f8a6	0.016231846
40	0x3da08886	0.0783854
41	0x3cbc1f1c	0.022964053
42	0x3d99e19a	0.07513733
43	0x3d3d44df	0.04620826
44	0xbd450017	-0.04809579
45	0xbd741bc3	-0.05959679
46	0x3c3f4e81	0.011676432
47	0x3c6dd7da	0.014516795
48	0x3d5da25c	0.054109916
49	0x3d2bc94c	0.04194002
50	0x3cad2971	0.021137925
51	0x3d3d9934	0.046288684
52	0x3d8f4886	0.069962546
53	0xbd89c668	-0.06727296
54	0x3d64c173	0.05584855
55	0xbd197827	-0.0374681
56	0x3d7976df	0.06090438
57	0xbc8827fd	-0.01662063
58	0x3cf91908	0.030407444
59	0x3d7a7602	0.061147697
60	0xbc846976	-0.016163569
61	0xbca1035d	-0.019654924
62	0xbd6b4613	-0.057439875
63	0x3b907120	0.004408017

classifier.2.weight f4 [2, 64]
0	0x3b266fc6	0.0025396212
1	0x3d19d363	0.03755511
2	0xbdfbf75c	-0.123030394
3	0x3d3bb78d	0.045829345
4	0xbde6ece3	-0.11275651
5	0x3df1884b	0.11793574
6	0x3d94a8c7	0.07258754
7	0xbda80b91	-0.08205331
8	0xbd1e3525	-0.0386249
9	0xbc4e8a39	-0.012606197
10	0x3d2b6335	0.041842658
11	0x3c89574b	0.016765257
12	0xbdbf89a7	-0.09352427
13	0xbdeb7eea	-0.11498816
14	0xbd6432b8	-0.05571243
15	0xbc2899f6	-0.010290613
16	0xbca46693	-0.020068442
17	0x3d0ef79e	0.034904115
18	0x3baf8a76	0.005357082
19	0x3d88a6c1	0.06672431
20	0xbde40fc1	-0.11135817
21	0x3dbf2b9c	0.0933449
22	0xbd326ac0	-0.043558836
23	0xbd2163bb	-0.03940175
24	0x3d1598f4	0.03652282
25	0xbe0e4d4f	-0.13896678
26	0xbcff1672	-0.031138632
27	0xbe0beb93	-0.13664083
28	0x3db85769	0.09001047
29	0x3d9f5b49	0.07781083
30	0x3d97a4d8	0.07404488
31	0x3db00221	0.08594156
32	0xbc4402a7	-0.011963523
33	0x3d55e805	0.052223224
34	0xbc94184a	-0.018077988
35	0xbddb9996	-0.107226536
36	0xbcf896ed	-0.030345405
37	0x3d87f53e	0.06638573
38	0xbca9f1c3	-0.020745164
39	0x3d0541e0	0.032533526
40	0x3dfffc25	0.12499265
41	0xbbfd9df4	-0.0077397767
42	0xbc748d36	-0.014926245
43	0xbe0ab0f5	-0.13544066
44	0x3dfae31b	0.12250348
45	0xbcf1c3f0	-0.029512376
46	0xbdd461da	-0.10370226
47	0xbe11f6f2	-0.14254358
48	0x3de14dbf	0.11001157
49	0x3d6f23a9	0.058383618
50	0xbd23858d	-0.039922286
51	0xbc46bea6	-0.012130415
52	0xbd64ef18	-0.05589208
53	0xbdedbd69	-0.11608393
54	0xbdb04e89	-0.086087294
55	0x3a1a70d9	0.00058914494
56	0x3ded1492	0.11576189
57	0xbd3295b5	-0.043599803
58	0x3cd5b2c6	0.026086222
59	0x3de3bdc9	0.11120183
60	0xbde468a1	-0.11152769
61	0xbdbaa89f	-0.09114193
62	0xbe0a9501	-0.13533403
63	0xbd84a175	-0.06476108
64	0xbdeeece0	-0.11666274
65	0x3c51393c	0.012769993
66	0x3c6d1ee8	0.014472701
67	0x3dd83085	0.10556129
68	0xbce839b5	-0.02834783
69	0xbcdce8bd	-0.026966447
70	0xbd4c7fa3	-0.04992641
71	0x3d337fe6	0.043823145
72	0x3c8463c4	0.016160853
73	0xbdcd8d07	-0.100366645
74	0x3dfbf151	0.12301887
75	0xbdb7971a	-0.08964367
76	0x3e041a84	0.1290074
77	0x3d2e178c	0.042502925
78	0x3d9aeb90	0.07564461
79	0x3e11e30d	0.14246769
80	0x3d7ce225	0.061739106
81	0x3d62e068	0.05538979
82	0xbe118058	-0.14209116
83	0xbdd70347	-0.10498672
84	0x3d597297	0.053087797
85	0x3e083e18	0.13304937
86	0x3d79c059	0.060974453
87	0x3d1f6e93	0.03892381
88	0x3db1da98	0.086842716
89	0xbd9bc86e	-0.07606588
90	0xbdf48183	-0.11938765
91	0xbd23c964	-0.039986983
92	0x3d9e9d4c	0.07744846
93	0xbdbc5f40	-0.09197855
94	0xbccc2237	-0.024918659
95	0xbd02b536	-0.031911097
96	0xbdc6f74b	-0.09715136
97	0xbdc499f7	-0.09599679
98	0x3df6ca4f	0.12050306
99	0xbcd3bdc6	-0.025847327
100	0x3e009010	0.12554955
101	0xbde052c8	-0.10953289
102	0x3d41c963	0.047311198
103	0xbdff934a	-0.12479265
104	0xbde5cbb2	-0.112204924
105	0x3da3b15d	0.07992814
106	0xbdd8c17b	-0.105837785
107	0x3ceb6864	0.0287363
108	0xbdf2b031	-0.11850012
109	0x3d90456f	0.070444934
110	0x3d525753	0.05135281
111	0xbd9946a0	-0.07484174
112	0xbbc5c0c6	-0.0060349433
113	0x3d4922a1	0.04910529
114	0x3dccda3d	0.10002563
115	0xbdd82181	-0.10553265
116	0x3cc7ac8f	0.024374275
117	0x3ddc5428	0.10758239
118	0xbdbc4459	-0.09192724
119	0xbd882aae	-0.066487655
120	0x3d0096ec	0.03139393
121	0xbdb73a61	-0.08946682
122	0x3dddfb98	0.10839003
123	0x3ba3a949	0.0049945456
124	0xbd2182bf	-0.03943133
125	0x3d1641c1	0.0366838
126	0x3db4d719	0.08830089
127	0xbd682afb	-0.056681614

classifier.2.bias f4 [2]
0	0x3b03a1cc	0.0020085452
1	0xbd9166d0	-0.07099688
