models/weights/model_10epochs.pth (torch, 9462 bytes, 6 tensors)

classifier.weight f4 [2, 416]
00000000: 42cc 7cbd 4216 dabe f2cc 70be bf26 ddbc
00000010: 9f8e 3eba 9be8 8bbd 84a4 6e3b 176f 933e
00000020: 99ec e5b9 d41c 6e3d 3b87 6b3d f213 eb3d
00000030: c420 78bb 9173 75bd 5e00 c6bd 397e db3e
00000040: 69c5 fcbb 54f5 8a3c 2f52 01be 7005 7c3d
00000050: 14a7 30bc 4da1 10bd 0fc6 763b 6aeb c63d
00000060: 5392 333e 1e76 8abd 8ab2 fbbe 6212 bfba
00000070: 18d0 10bc c28d 2abb 6ec7 92bd a350 8cbe
00000080: 1090 313b 38b1 31be ac27 37be 9525 303d
00000090: 0456 243b 203f 913e 3ce1 8838 d005 3fb9
000000a0: fad6 f53d 589c 5cbd 318d c63d 16b0 713d
000000b0: 45f6 153c 9772 1d3f 0c56 f9bc ce55 e8bd
000000c0: fbc3 53bd 2582 903d 4234 0b3e bf83 963d
000000d0: ff91 a3bb a921 843d e77c 913e ec21 34bb
000000e0: 47ba 18bd 36a0 ec3e db09 0fbe c0bb d23c
000000f0: 4f6a 0037 d858 06bd a788 cdbd 748f bcbd
00000100: 12ec 363a 0d20 cb3d 1662 36be da6b 873a
00000110: c9e4 e7be 8359 943b 5179 c13c b8b6 f33d
00000120: bbdd 933b 4a0c 9c3e 9168 aebb a79e ec3b
00000130: 44b4 bb3c e7ef 0fbe f2fa 0d3b e964 b73c
00000140: f181 adbe 3fa0 c5bd b64e ca3d 3587 adbd
00000150: cea6 ac3d f998 63bd 11e9 87b6 b581 9336
00000160: e28a a13c 26fe b63d c198 893d 46dd 7a3e
00000170: 799b 163e 3e88 283e 7f9e 233e 8f3d 663e
00000180: ceba 9cbe ca14 2abd c960 fcbd e5c8 983d
00000190: a04a f7be 34d7 9a3e 106e 063d 0eca cc3c
000001a0: f2c5 923b db1c dfbc 5c3f d23d 5f55 953d
000001b0: 4112 113e e6e0 b43d 7d40 553a 86c7 2c3d
000001c0: bcc9 0fbf 99f8 21bd 179f 8c3e 31e3 07be
000001d0: c31e c73e e134 0c3f be4b 063e 7e2d 173c
000001e0: 54c6 95ba 340f ee37 f4f6 253d 35e7 943e
000001f0: 7a1c 5a3d a32a 503e 0ca9 e63a 5934 a53e
00000200: d709 50bc 0740 65bc 6ed3 32bd 16ee dfbd
00000210: d230 e83b 0d7c a2bd e5aa 5ebb d5df d436
00000220: 2410 abbc e51b 7abc d912 ecb7 5637 033f
00000230: 223f 073c e285 ffbd 9532 23b8 58bf 1f3c
00000240: 0dac eabd b79e 30b0 c407 8439 5c26 f6be
00000250: 3901 2dbe 2c93 96be cace 7d3e d77b 3e3d
00000260: 9a97 bbb7 0ab0 4c38 cca7 e2be 0285 55be
00000270: 2dd1 0fbd 347f 11bd 353e 053b af17 1ebe
00000280: 5859 1abd 8877 b736 455e 00be d43c 3b3e
00000290: 34b1 4a3e 7ffb 4d37 38fe 853c e0f6 b13e
000002a0: 76e0 b03d 6190 d3b6 57bb 9b3a 6c4e 5c3a
000002b0: c58c 193a 51aa d837 d2af 41bd de1f 28b4
000002c0: 0b6d 3d3d 689e 5c3d ab99 7a34 fe83 893a
000002d0: 430a 0cbf 5eb0 47bd 22c7 bb3e 1949 0a3c
000002e0: 932e 5c3b a328 e93d 53e4 5abc f1e7 85b4
000002f0: 86c9 65b5 418c 2c3b 4c6c ef32 d96a ba36
00000300: 8dd8 c2b9 5592 ab3e 75eb adbc bd54 1f3d
00000310: 37a1 e2bd 57bd e4bd 0d6c 5b3d 8e80 c839
00000320: 969e 5322 f045 f33b fd77 df34 6b49 a8be
00000330: 6e16 f1ba 8274 0bbf 7fbc 4831 c98c 163c
00000340: d833 21be e499 9732 bdf0 222e 3efc 69be
00000350: 559f dbb9 ad6c 8d3c cca3 d739 4154 9e38
00000360: d222 8cbd 8f77 2db4 fcf1 4a3e d1fc 4e33
00000370: 4248 393b 56eb b639 de2a 723b b52b 2934
00000380: 09a4 293d f114 44ae d565 04b9 58a9 39bc
00000390: 545e e8bc 75f5 d1ae c169 14bf da72 543c
000003a0: f8e0 89b9 608e 8eb7 61c8 073c 5d8a a5ba
000003b0: d294 c03b b28d 873c a42a 913c 69d0 1eb5
000003c0: c39a 8ebb c1ee 2137 6cff 05be a88b b3b3
000003d0: 71e8 0ebe 484b 3233 f22d eeb9 e6a4 c924
000003e0: b8fb c4be 2d5d 5c3e ccfe ec3e 7786 cbbc
000003f0: a9d3 36b9 b075 babe 9079 39b4 025b 19b8
-0.061718233 -0.42595106 -0.2351568 -0.026996015 -0.0007269177 -0.06831475 0.0036413977 0.28795692
-0.00043854563 0.05813296 0.057502013 0.11478414 -0.0037861327 -0.059924666 -0.09668039 0.42869738
-0.007713963 0.016962685 -0.12629007 0.061528623 -0.010782022 -0.03531008 0.0037654673 0.097128704
0.17536287 -0.0676081 -0.49159652 -0.0014577622 -0.008838676 -0.0026024436 -0.071669444 -0.2740527
0.0027093925 -0.1735276 -0.17886227 0.04300459 0.0025075683 0.28368473 6.5269385e-05 -0.00018217345
0.12003894 -0.05386004 0.09694899 0.05900582 0.0091529535 0.61502975 -0.030436538 -0.11344491
-0.051700573 0.07056073 0.13594154 0.07349347 -0.0049917693 0.06451733 0.28415605 -0.002748604
-0.037287023 0.4621598 -0.13968603 0.025724292 7.654146e-06 -0.03279957 -0.1003583 -0.09207049
0.0006977926 0.099182226 -0.17810854 0.0010331825 -0.45291737 0.004527272 0.023617418 0.11900085
0.0045125163 0.30478126 -0.005322524 0.0072210613 0.022913106 -0.14056359 0.0021664468 0.022386985
-0.338882 -0.09649705 0.09878294 -0.08473054 0.08430253 -0.055565808 -4.050446e-06 4.3960413e-06
0.019719545 0.08935194 0.067185886 0.24498472 0.14707746 0.16458222 0.1597843 0.2248442
-0.3061127 -0.041523732 -0.12323148 0.074601926 -0.48299122 0.30242312 0.032819808 0.024998691
0.0044791633 -0.027235439 0.10265991 0.07291674 0.1416712 0.088319585 0.00081349147 0.042182468
-0.561672 -0.03954372 0.27465126 -0.1327026 0.38890657 0.54768187 0.13114831 0.009227155
-0.0011426904 2.837889e-05 0.040518716 0.29082647 0.053249814 0.20328765 0.0017597987 0.322665
-0.0126976585 -0.013992316 -0.043658666 -0.10934083 0.007085898 -0.07933817 -0.0033976373 6.34415e-06
-0.02088172 -0.01526544 -2.8142169e-05 0.5125631 0.008254798 -0.12476708 -3.8909337e-05 0.00975021
-0.11458597 -6.4253974e-10 0.00025182788 -0.4807614 -0.16894998 -0.29409158 0.24785915 0.04650482
-2.2362732e-05 4.880134e-05 -0.44268644 -0.2085152 -0.035111595 -0.0355217 0.0020331268 -0.15438722
-0.03768286 5.4677403e-06 -0.12535961 0.18284923 0.1979416 1.2277508e-05 0.016356573 0.34758663
0.086365625 -6.305098e-06 0.0011881393 0.000840402 0.0005857463 2.5828516e-05 -0.047286816 -1.5657812e-07
0.04624657 0.053862005 2.3338968e-07 0.0010491607 -0.5470316 -0.04875218 0.36675364 0.008440279
0.0033597096 0.11384704 -0.013360101 -2.494194e-07 -8.5602403e-07 0.0026328715 2.787251e-08 5.5556707e-06
-0.00037163906 0.3351008 -0.021230439 0.038899172 -0.110659055 -0.11168926 0.053569842 0.00038242753
2.8679787e-18 0.0074241087 4.162429e-07 -0.32868513 -0.0018393525 -0.5447465 2.9210978e-09 0.009188839
-0.15742433 1.7648695e-08 3.7048354e-11 -0.22850129 -0.00041889647 0.017263735 0.00041130034 7.5497206e-05
-0.06842579 -1.6155376e-07 0.19818872 4.8193048e-08 0.0028271829 0.00034889084 0.003695182 1.5755252e-07
0.0414162 -4.458384e-11 -0.00012626436 -0.011331879 -0.028365292 -9.5478216e-11 -0.5797387 0.012966836
-0.0002629829 -1.6994018e-05 0.00828752 -0.0012629736 0.0058771158 0.016547058 0.017720528 -5.9162863e-07
-0.004351945 9.651937e-06 -0.13085717 -8.3607404e-08 -0.13955857 4.1512322e-08 -0.0004542913 8.7449203e-17
-0.38473296 0.21519919 0.46288145 -0.024844391 -0.00017435722 -0.36417913 -1.7273692e-07 -3.65628e-05

classifier.bias f4 [2]
00000000: 3e3e 1b3c 3f40 1bbc
0.009475289 -0.009475767

aasist_norm.weight f4 [160]
00000000: 4a37 1c3e fcd4 9e3e 3968 b63e 328f cf3d
00000010: 2424 e5b8 d822 753b 93d6 8c3a 2e02 353e
00000020: 6c67 b4b8 9ebd a53c 1888 263e 8e60 063e
00000030: 1351 093b 3afa 0a3d e579 cb3e 6a6a d43d
00000040: f097 643e 59c6 553a 4041 8c3e 053e 2a3e
00000050: 5f46 4b3c 3c58 0f3d 63d5 093c 0329 fc3c
00000060: 899a 2c3e f1f1 023e fe9c c73e 06b1 9f3a
00000070: 2590 923a c72e aeb9 79ba 6ebb e92c a33e
00000080: b80a 843b 96ec 863e cd5c 493e efc5 9c3d
00000090: de6a d83b 1207 b93e e3d5 cab8 cdcb 783a
000000a0: 7c81 1e3e 2bc5 823d 7ff2 8f3d ee5a 8c3d
000000b0: 4873 543c bd20 e13e 7469 2b3d 6ed3 533e
000000c0: 0d3d 633e a975 283d a7b5 b33e dc7e 673d
000000d0: 3cd4 133c b2dd b23d d6a4 df3e c10e 523d
000000e0: 5cae 473d 4411 253f 7805 853d a54c 7e3d
000000f0: 3085 a937 1786 babc e1fa 313e f3e1 dd3d
00000100: 2b53 153a 60f6 073e 6b8f 843d 4272 573c
00000110: a467 bd3e 47bc dc3b 4cb6 093d da24 653e
00000120: 8d05 d53b a704 033e 9bab d23c fd7f 2e3c
00000130: 2d38 ed3c 35eb 513e 71fa 7b3b 1f3f ef3c
00000140: b45b f33e 9ae2 193d f8ac 123e a75c c03d
00000150: 9964 e53d 19b2 5f3d 1bb2 7e36 3603 8e36
00000160: 4f10 083d d670 0f3e a704 d03d b5d8 873e
00000170: e7ad 913e e089 643e 486a 463e bec1 a23e
00000180: ee72 103f 17f8 8d3d 4918 bd3e 95d8 db3d
00000190: 826e 2c3f e830 a73e 4621 a23d be3d 123d
000001a0: efd7 823c 1852 4d3d 6cd4 5b3e cb9b 083e
000001b0: c906 423e 32fe 803e 90a5 683a ba74 6d3d
000001c0: f7f8 143f 237d 583d b1be 0f3f c27e 7a3e
000001d0: 0d2e f13e 99e5 313f a1cd 193e a094 583c
000001e0: 95a8 673b b2d0 1338 914c 693d a30d bf3e
000001f0: b237 973d 9643 8b3e 3e5d 8d3b 1fe9 e13e
00000200: 61b9 8c3c 059e ab3c b461 833d c094 243e
00000210: 8990 af3b 124c 953d c1d3 9dbb ca07 fab8
00000220: 8885 f43c 093f b23c 0209 2438 bfe1 0e3f
00000230: db45 4e3c d805 1f3e 10d1 62b7 362b 8f3d
00000240: a56c 4b3e 0e57 a9b1 2190 4b37 e6e9 173f
00000250: 626e 4e3e 67c1 d63e e860 df3e a607 f53d
00000260: 69fb 54b7 5c61 9b38 60e8 fa3e bea4 d33e
00000270: 9adf 183d a80d 303d c797 8f3b 458b 543e
0.15255466 0.3102187 0.3562639 0.10134734 -0.00010926303 0.0037404802 0.00107451 0.17676613
-8.602333e-05 0.020232018 0.16262853 0.1312277 0.0020952865 0.03393004 0.39741436 0.10371859
0.22323585 0.0008154861 0.27393532 0.16625221 0.0124069145 0.034996256 0.008412692 0.030781275
0.16855825 0.12787606 0.38986963 0.0012183494 0.0011181874 -0.00033222718 -0.0036427064 0.318702
0.004029598 0.26352376 0.19664307 0.0765494 0.0066045364 0.36138207 -9.67195e-05 0.0009490818
0.15479082 0.06385263 0.07028674 0.06853281 0.012966938 0.4397029 0.041848615 0.20686123
0.22191258 0.041127834 0.35099527 0.056517467 0.009022769 0.08733691 0.43680447 0.0512836
0.048750266 0.6447947 0.06495184 0.062084813 2.020839e-05 -0.022769017 0.17380859 0.10834112
0.0005696292 0.13277578 0.06472667 0.0131498 0.36993134 0.0067363116 0.033621117 0.22377339
0.006500906 0.12794743 0.025716593 0.010650632 0.02895745 0.2049988 0.0038448835 0.029204903
0.475309 0.03756962 0.14323795 0.09392672 0.11200828 0.054613207 3.795262e-06 4.2323036e-06
0.033218678 0.14007887 0.10157137 0.26532522 0.2845299 0.2231822 0.1937648 0.3178844
0.5642537 0.06932085 0.3693259 0.10734669 0.6735612 0.326545 0.07916503 0.035703413
0.015972106 0.05012712 0.21467751 0.1334068 0.18947901 0.25193936 0.00088747684 0.057972647
0.5819239 0.052853715 0.56150347 0.24462417 0.47105446 0.69490963 0.15019847 0.013219029
0.0035348285 3.5241894e-05 0.056957785 0.37315091 0.0738367 0.272 0.004314094 0.4412317
0.01717824 0.020949373 0.0641512 0.16072369 0.005357806 0.072899 -0.004816503 -0.0001192238
0.029848829 0.021758573 3.9109036e-05 0.5581321 0.012589897 0.15529573 -1.3519326e-05 0.06990664
0.19865663 -4.9284443e-09 1.21333005e-05 0.59341276 0.20159295 0.4194443 0.4362862 0.119643494
-1.2694721e-05 7.4091105e-05 0.49005413 0.41336626 0.037322618 0.042981774 0.004382107 0.20756252

aasist_norm.bias f4 [160]
00000000: 4097 96bb 2070 d9bb 80a8 e2bb db0c 68bb
00000010: 7158 6437 cbd4 1c3a 4261 8539 c3e4 9f3b
00000020: c5b9 31b7 003a 593a d388 8cbb 9a7f 82bb
00000030: d1c2 40b9 3d38 d5ba 439f eebb 6386 013c
00000040: cb7d a3bb 45ea 4139 8417 c4bb 5ff3 833b
00000050: e7d6 94b9 e6c9 f1ba 0b40 4dba 7de5 59b7
00000060: cbda a73b bdc2 71bb 3ea1 eabb b221 76b9
00000070: 0551 adb9 74b9 0e37 53f4 b13a 263b e4bb
00000080: 97f4 5039 524c dabb d7a6 bdbb 9215 503b
00000090: 1a07 b1b7 c4c2 033c 9073 7eb8 b1cb 2f38
000000a0: e1a0 aa3b d453 28bb 493e ec3a 906a 503b
000000b0: 0af2 1a39 e1dd 0d3c 8de3 c8ba 390b b3bb
000000c0: d644 abbb 9473 b5b8 a9a8 f53b bfbd 563b
000000d0: 8244 06b8 9479 6c3b 25c0 113c 3bc3 9039
000000e0: 3201 d5ba 71c1 1e3c 3d8f 813b a988 333b
000000f0: 7a71 0eb4 1b6e 62ba a232 a4bb 0740 0aba
00000100: c6cb 0db5 447f 9f3a 0f8f 1f3a 3a7b f039
00000110: 7432 efbb 32bb 3f39 a02e 803a bcbe 9c3b
00000120: fc1b 3539 61d9 b33b 4360 dfb9 33ac 0639
00000130: aee1 af3a 4d4c 9cbb 301e d539 fba2 783a
00000140: fd81 03bc 6187 a4ba c9ef 913b c722 71bb
00000150: da46 6f3b 5887 5eba 771f 85b5 a9af 26b5
00000160: bbeb f1ba ea82 8d3b 1eda 823a ea41 cc3b
00000170: f5ea c03b 340d b33b fb57 af3b 8e8b e73b
00000180: d88d 13bc 518f 16bb 9d98 e3bb 004b 473b
00000190: d2db 0cbc da25 013c 4e89 433b 77e7 b03a
000001a0: 8d9c 9439 65fd 893b ebe8 c13b aaba 9c3b
000001b0: d2c4 993b 5fbe d03b b8c5 48b7 92ae 9f3a
000001c0: 0d38 0ebc 30fe dbba 3535 0d3c 6ae5 d0bb
000001d0: a4ac 0a3c 5ee8 1c3c 0d67 a03b 74a2 b939
000001e0: 4fed afb9 4357 ba33 73a1 e03a 59e6 f83b
000001f0: 5dfb 153b 0a17 e03b 6fca 363a 783c 093c
00000200: befc f5b9 5215 0dba 5ef1 1cbb 6bd0 9dbb
00000210: e9c3 3239 2d68 96ba d7fb 483a 1ecc a6b7
00000220: 2401 5bba c4c7 8cba 476a ceb6 24a1 0c3c
00000230: 3e09 093a d30a 80bb ddb9 e0b5 4c93 dcba
00000240: a79c b8bb 9b1c 0d30 3739 6434 9b44 13bc
00000250: ebfb b1bb 5051 04bc 49f0 063c 80a3 9c3b
00000260: 42a5 a5b5 685a 3238 fb79 05bc 3c52 03bc
00000270: f62e 70ba 2184 81ba 4e77 073a bd2e b6bb
-0.004595667 -0.006635681 -0.0069170594 -0.0035408053 1.3610451e-05 0.00059826364 0.000254402 0.0048795654
-1.0593275e-05 0.0008286536 -0.0042887717 -0.0039824964 -0.00018383122 -0.0016267371 -0.007282169 0.007905575
-0.004989361 0.00018493187 -0.0059842486 0.004026815 -0.00028388874 -0.0018447011 -0.00078296725 -1.298764e-05
0.0051225177 -0.0036889755 -0.007160335 -0.0002347294 -0.00033057496 8.507039e-06 0.0013576843 -0.006965059
0.00019927543 -0.00666193 -0.005787711 0.0031751138 -2.1103351e-05 0.008042041 -6.0665945e-05 4.1912954e-05
0.0052071665 -0.002568473 0.0018023934 0.0031801797 0.00014776751 0.008658857 -0.0015326604 -0.0054639843
-0.0052267117 -8.652281e-05 0.0074969125 0.0032766906 -3.2011892e-05 0.0036083208 0.0088959085 0.00027611278
-0.0016250967 0.009689675 0.003953843 0.0027394688 -1.3266063e-07 -0.0008637623 -0.0050109187 -0.0005273823
-5.282312e-07 0.0012168665 0.0006086686 0.00045868178 -0.0072997157 0.00018284915 0.000977952 0.0047834795
0.0001727193 0.00548856 -0.00042605595 0.00012843385 0.0013418698 -0.004769838 0.00040649017 0.0009484735
-0.008026597 -0.0012552553 0.0044536334 -0.003679441 0.0036510737 -0.0008488796 -9.91843e-07 -6.209544e-07
-0.0018457094 0.0043185847 0.0009983217 0.0062334435 0.005887384 0.0054642204 0.0053510643 0.0070661968
-0.009005986 -0.0022973607 -0.006945683 0.0030409694 -0.008597331 0.00788256 0.0029836479 0.0013496716
0.000283454 0.004211115 0.0059176586 0.0047829943 0.0046926523 0.0063703503 -1.1966964e-05 0.0012182763
-0.008680356 -0.0016784128 0.008618643 -0.0063750045 0.008464012 0.009576885 0.004895097 0.00035406987
-0.0003355541 8.677173e-08 0.0017137959 0.007595819 0.002288542 0.006838684 0.0006972914 0.008376233
-0.0004691835 -0.00053819 -0.0023947577 -0.004816105 0.00017048385 -0.0011475139 0.00076669216 -1.9883792e-05
-0.0008354357 -0.0010740687 -6.1516507e-06 0.008583341 0.00052275124 -0.0039075403 -1.6743394e-06 -0.0016828566
-0.005633909 5.133615e-10 2.125497e-07 -0.008988525 -0.0054316423 -0.008076027 0.008235999 0.004780233
-1.2341554e-06 4.2522704e-05 -0.008146758 -0.008015212 -0.0009162271 -0.0009881296 0.0005167619 -0.005559771

ser_norm.weight f4 [256]
00000000: 056c ad3d 4252 1a36 a90e 6b3d b54f 953e
00000010: b556 d13e 33f6 74b4 5e3b 903c 2043 093f
00000020: fa91 213c c608 afb3 1316 0d3a 2450 6439
00000030: 1355 af39 1852 0638 a2bc b63e 30c7 cdb1
00000040: 4fdc 953e f9d6 1d3e 0806 0d33 b344 933a
00000050: f8a9 013f 8c22 143c 0a16 883e 645e 873c
00000060: 2409 bb3c 6bf9 873e b5cf 783d e46f 0937
00000070: 2a14 3834 7cec 823c 89ff a431 058c 8537
00000080: 06ee cd3a 932d 9c3e 0a80 c33a ac7c 323d
00000090: d515 d73e 10ee 4e3e 06b9 8b3d 9a39 01b7
000000a0: c19e e59e fbc9 883c c9f2 b6b2 7ed8 d53e
000000b0: abf5 b0b7 812d 0f3f b8f3 15af 7760 863d
000000c0: 7776 d83d bf72 d52f 158c b6ae b79d 4f3e
000000d0: d270 c9b5 8545 223e a4fc 0b38 8b73 8339
000000e0: af7b 9c3d 8b0e 6434 3ed2 ce3e 2d6f 0136
000000f0: 62fc ab3a a77c 7b3c 9307 193c f2e6 5432
00000100: d96d 6c3d 8e1b e4ac ddb8 90b6 91d0 3c3d
00000110: 2466 4d3d 18c4 832c cafc a83e 0eb6 623e
00000120: 6660 17b7 7168 f637 e4e0 2f3c 0240 803b
00000130: a742 d93d e7e9 023f 6013 e13c 7bc6 5934
00000140: 7afb 953e 2c59 9339 8cfa 433e 29ab 76b3
00000150: 0350 163e fe35 a7b3 c46c e13b a38d ab21
00000160: e5d0 b13e 3115 023f a388 e33e 99f6 9f3e
00000170: 206f c03a 277f 1d3f fe1b ed33 ee32 1139
00000180: b36a d6a9 6de6 8baf 0c57 e03d e9db 3ab8
00000190: 49e1 b83a cf43 86b7 78e6 94b5 c43e 0f37
000001a0: 3320 a13e f18c 94b4 3424 8b3d 5fd8 5b39
000001b0: febd 3b3f de64 403e 464f 0c3f ebcc 57b4
000001c0: 6355 143c d3fd 423d 48ad 6e37 9c6e 093f
000001d0: c731 303f f545 9d39 cfb8 883c 7bc4 74b6
000001e0: 2bef 5532 5226 193e ab93 7d32 a056 5738
000001f0: d73c a23b 4fdf 2d3f d840 603b 65fb b13e
00000200: 5502 1cb7 1ff8 8d3d 9637 06b4 5821 d73a
00000210: 2fb2 8736 e10b 2d3e 22d1 773b 5c57 4e3d
00000220: fa8f 043a 9fb5 293e 0b0c c53d c99c 2238
00000230: 23b6 fc3d e1c6 463d f40c 233d 83b7 dc3d
00000240: 3b08 383e e9da 4d32 2ddd 9e35 d10b 943a
00000250: aa54 8933 de87 0f3c 9998 c439 e4f3 523e
00000260: b0a5 3bb6 2f9f b93d 7e22 7e3b 805a 79b5
00000270: 87bc be3e c005 673d c8f9 2b3e a98f 523d
00000280: ebf1 f23e f972 c53e 82c7 cf3d bc8c 8cb2
00000290: 3d37 283f 5db2 bd3c 77de c33d bb86 bf31
000002a0: 1036 c43e c892 8937 f851 16b9 ec58 1fb4
000002b0: 0b07 ac39 6e74 0f3f 1c10 d33b e14e 843d
000002c0: 3d09 ab3d 48f4 012a f1ac 343b 3212 b538
000002d0: f483 543e f8ee 133c 7a1f 96af f76e 8836
000002e0: e405 2f3e 8394 1e39 a61e eb3c 3fcd b837
000002f0: d7c1 5933 dd3e 35b4 26d2 1739 81b1 bd3d
00000300: b520 a131 a201 9538 882d 9f37 c8d9 1d2c
00000310: 9f6b f5b7 2f92 1a35 db11 a1b2 c82e 9e3e
00000320: e039 6e3d ef2b 1b3e cd20 30ab 7574 8b3b
00000330: 7fa7 773c ed42 3322 67b9 da39 5d26 1a3e
00000340: 08cd 2a3d cff9 12b1 29c1 7f39 9a0e 2daf
00000350: 9690 df3e 1e08 033d 7a69 3e3c 7560 b2b2
00000360: 6e44 4e3c a511 c832 50b3 8f3d d958 3e3f
00000370: c060 7b3b d827 a938 0de0 3d38 b66d 0f3e
00000380: 8ba9 21b0 ada1 9a3b 6bd3 453d 82cf 6b3e
00000390: 32ae 292f aebc 6a37 7059 0bb8 fa92 0d3e
000003a0: cb68 6839 c259 b63e 2b56 6133 0843 013b
000003b0: e78a e43e 5d25 c23e 99ba 3a3f 56d5 8b3c
000003c0: 2999 1e38 e90d 373c ee04 a837 82ee 10b7
000003d0: bc9b 0d3f 0fc4 0d3e efb2 0e3e 0f40 b73b
000003e0: f5ea 1133 15c2 8c38 c3c4 09b1 9a9b 3b3d
000003f0: c5d8 66b9 6824 9cb8 b4c7 393a 5968 043f
0.08467869 2.2995669e-06 0.057387028 0.29162374 0.40886465 -2.2813838e-07 0.017606433 0.5361805
0.009861464 -8.1506684e-08 0.00053820125 0.00021773629 0.00033441986 3.2024545e-05 0.3569079 -5.9889302e-09
0.29269645 0.15414037 3.2834606e-08 0.0011235684 0.50649977 0.00904144 0.26579314 0.016524501
0.022831507 0.26557478 0.06074496 8.191888e-06 1.7143671e-07 0.015981905 4.802079e-09 1.5920037e-05
0.0015711195 0.3050352 0.0014915478 0.043575928 0.42008844 0.20208001 0.068224 -7.702411e-06
-2.4311977e-20 0.016697874 -2.1297994e-08 0.41766733 -2.1095233e-05 0.5592881 -1.3638057e-10 0.06561368
0.105694704 3.8826006e-10 -8.3012854e-11 0.20275007 -1.5008502e-06 0.15846832 3.3375472e-05 0.00025072353
0.07640778 2.1239445e-07 0.40394777 1.928721e-06 0.0013121481 0.015349544 0.009340185 1.2392535e-08
0.057721946 -6.483209e-12 -4.3130553e-06 0.046097342 0.050146237 3.7450147e-12 0.33005363 0.22139761
-9.022746e-06 2.937412e-05 0.01073477 0.0039138803 0.10608416 0.51138157 0.027475059 2.0281907e-07
0.29293424 0.00028104463 0.19138545 -5.7432008e-08 0.1467896 -7.7863646e-08 0.006879421 1.1624902e-18
0.34729686 0.50813586 0.44440183 0.31242827 0.0014681555 0.61522144 1.1041264e-07 0.0001384725
-9.5220185e-14 -2.544768e-10 0.10954103 -4.4550663e-05 0.0014105226 -1.600562e-05 -1.1093935e-06 8.538078e-06
0.3146988 -2.7669697e-07 0.067940146 0.00020966072 0.7333678 0.18788478 0.5480846 -2.0097984e-07
0.009053561 0.047605347 1.4226251e-05 0.536844 0.68825954 0.00029997496 0.016689686 -3.64732e-06
1.2452612e-08 0.14956024 1.4760114e-08 5.134067e-05 0.0049511003 0.67918867 0.0034218337 0.3476211
-9.298868e-06 0.06932091 -1.2499945e-07 0.0016413135 4.044057e-06 0.16899063 0.0037813862 0.05037628
0.00050568546 0.16573189 0.09621438 3.8769827e-05 0.12339427 0.04852951 0.039807275 0.107771896
0.1797189 1.1982345e-08 1.1836288e-06 0.0011295025 6.39496e-08 0.008760421 0.00037497727 0.2060085
-2.7961614e-06 0.09063565 0.0038777883 -9.2891423e-07 0.3725321 0.056401968 0.16794503 0.051406536
0.47450194 0.3856428 0.10145475 -1.6362144e-08 0.65709287 0.02315634 0.09563916 5.5741487e-09
0.38322496 1.6400023e-05 -0.0001433565 -1.4840379e-07 0.00032811644 0.5603703 0.0064411294 0.064603575
0.083513714 1.1542254e-13 0.0027568901 8.634142e-05 0.20753461 0.009029143 -2.7307206e-10 4.066034e-06
0.17092091 0.00015123379 0.028701138 2.2030084e-05 5.0700546e-08 -1.6879808e-07 0.00014478769 0.09262372
4.689435e-09 7.105178e-05 1.897548e-05 2.2431935e-12 -2.9256391e-05 5.7582196e-07 -1.8750987e-08 0.30895066
0.058160663 0.15153478 -6.257328e-13 0.004255826 0.015115618 2.4294454e-18 0.00041718336 0.15053697
0.04169944 -2.1387796e-09 0.00024390653 -1.5739446e-10 0.43664998 0.031990163 0.011621827 -2.076579e-08
0.012589557 2.3291088e-08 0.07016623 0.7435432 0.0038357228 8.0659695e-05 4.5269775e-05 0.14006695
-5.8812394e-10 0.0047189803 0.048297327 0.23028377 1.5432347e-10 1.3991417e-05 -3.3223478e-05 0.13825598
0.00022164283 0.35615355 5.2465264e-08 0.0019723792 0.44637224 0.3791913 0.72940975 0.0170695
3.7812777e-05 0.01117275 2.0029456e-05 -8.638601e-06 0.55315757 0.13844322 0.13935445 0.005592353
3.3974136e-08 6.711871e-05 -2.004797e-09 0.04580269 -0.00022015262 -7.445441e-05 0.0007086948 0.5172172

ser_norm.bias f4 [256]
00000000: 4593 55bb 3989 4638 c832 36bb 542a ca3b
00000010: 7f53 003c d4b1 c6b4 d3f1 a43a 162a 003c
00000020: b0a7 bb3a 2cda 6933 bae0 0f39 3798 c6b8
00000030: e2b3 0539 c8eb a837 466e ecbb 2a80 c836
00000040: a4ef d6bb d737 813b 97c7 1fb4 ca95 5db9
00000050: 2a52 f2bb 6ec9 9dba 72cf d03b b739 beba
00000060: e2c8 c03a 7e2b c93b 43ae 24bb 36fe 8d38
00000070: bb1a 15b6 6945 5b3a 2954 5c33 03c7 8538
00000080: a06f 8eb9 78ad e23b 775f b739 a7f0 0e3b
00000090: 7ca8 02bc a336 b0bb 68cf 103b 68d4 16b5
000000a0: bb1f 5fa0 4509 8d3a 52b3 6134 3efe 00bc
000000b0: e537 0e37 2ab7 00bc d38e 22b3 be32 403b
000000c0: 437c 70bb 3ee3 58b4 6357 ab32 7f2c 9bbb
000000d0: 9e3f 7cb7 5db6 7b3b 7387 ed38 feb3 12b9
000000e0: f817 7e3b 4d71 cdb2 a65c fd3b 9ce7 84b8
000000f0: 67a6 4539 f327 a53a 3612 3a3a 32c4 3c34
00000100: 46b0 0d3b 8a5d be2d 346f a338 a4fa 08bb
00000110: f223 0dbb ee16 3bac c82b b2bb 9d89 bd3b
00000120: 13cf 9e35 864a 08b8 5aae 4a3a 559c cbb9
00000130: 7f35 443b 7605 fc3b ad1f ad3a 8633 03b4
00000140: 030d ad3b 2127 ed38 bdef 8bbb b55c fbb5
00000150: 53e1 933b a54f 5735 2cd7 213a ca29 73a2
00000160: 59af e9bb f80c 013c 19e6 d33b 0c23 e2bb
00000170: aeaa a1b9 cb27 09bc c0b0 2837 e9da b638
00000180: 0c56 452b b2ea 2933 784b 843b 9917 83b7
00000190: 4cc8 fb38 2dbe 69b6 4337 1537 b60e 8cb8
000001a0: 20dc bd3b decf 12b5 aed7 1dbb bc50 9eb9
000001b0: 9ba8 21bc 10cb adbb f66e ff3b 67c2 da31
000001c0: 5851 a63a 23f4 143b 0d9f 9338 1c9d 11bc
000001d0: e518 293c db0f b0b8 eed5 92ba a0c1 62b5
000001e0: a8de cfb2 0469 79bb dc4d d3b1 8444 6738
000001f0: cb6e 34ba 0ba1 26bc 8087 6b3a 630a e6bb
00000200: 41af 9135 6ad9 2fbb 29b0 0cb5 f3ef cc39
00000210: 4627 5e37 f820 993b 76a4 09ba 826e 113b
00000220: d03a 01ba afd5 a3bb 4e57 353b 334b c138
00000230: 5f40 8abb ce95 203b 484b 173b a4c4 773b
00000240: b0c6 8ebb 43d3 0932 db0b 8b33 0242 5cb9
00000250: 010c 7d36 6039 50ba e949 e138 7087 b0bb
00000260: a2ca 6eb5 9277 60bb 8a92 053a 7dc1 feb5
00000270: 2230 d3bb 7bc7 45bb 5dc2 72bb 9b6e 1fbb
00000280: d9e3 fbbb 91c6 c53b 4c1f 7b3b d8cb bc31
00000290: 5f28 13bc 92d1 b7ba d590 373b 7e3a 3bb1
000002a0: b8ed cabb 9c30 d537 e3a5 57b8 a66a 70b2
000002b0: 509c 14b9 cc36 173c ad08 293a bf44 343b
000002c0: d343 2bbb b3f3 8a2a 53f0 fab9 4e3f 7137
000002d0: bd00 8d3b 0b10 7e3a 54ee deb0 05a9 30b4
000002e0: 2303 afbb 95ab 1538 b226 a6ba b100 41b8
000002f0: 328a 1d35 0057 0635 542c 1739 2ba0 513b
00000300: 0b67 bfb4 b24d 5ab8 52d6 c0b7 1565 10ac
00000310: 2cdb 78b6 baa0 8ab5 4f02 05b7 8c7e dfbb
00000320: 460e 093b f7b7 66bb 7b96 0c2c 30ad 033a
00000330: af57 b1ba 3555 02a3 4428 08ba ed99 6c3b
00000340: c201 c9ba 704a 02b2 4845 14b8 092e 24b2
00000350: b605 d03b 55b1 a53a 7254 2c3a 0b14 2e34
00000360: 165c 713a 1dbe 3936 df6a 143b 94c4 2f3c
00000370: 0761 16ba d9bd 1038 d0d7 c6b7 5ef3 8c3b
00000380: 9f83 f532 0fc6 023a 8e53 04bb 49d4 babb
00000390: 7403 e7b1 b91c ca36 7f16 f937 973d 64bb
000003a0: 10ad 9db8 da55 c8bb 8dc7 32b5 44a2 7e39
000003b0: c8c8 06bc 5c6b d5bb 5173 2dbc bc7d 7cba
000003c0: dc0b 4eb8 4e0c 48ba e097 0538 4393 b236
000003d0: eca6 043c 18ef 63bb a3a5 6e3b e2f8 02ba
000003e0: 2c45 7e37 f356 4938 9a30 922f ef54 fd3a
000003f0: 7992 ccb6 7c98 d337 00e5 6239 7aa9 efbb
-0.0032589 4.7334677e-05 -0.0027801264 0.0061695967 0.007832407 -3.700976e-07 0.0012584276 0.007822534
0.0014316943 5.4447966e-08 0.0001372126 -9.469728e-05 0.0001275088 2.0136955e-05 -0.007215294 5.9753847e-06
-0.006559329 0.003943424 -1.488064e-07 -0.00021132003 -0.0073950486 -0.001203818 0.0063723857 -0.001451305
0.0014708305 0.006139218 -0.0025128282 6.7707544e-05 -2.221829e-06 0.000836453 5.1299285e-08 6.379003e-05
-0.00027167518 0.0069176517 0.00034975607 0.002181092 -0.00797474 -0.005377607 0.002209628 -5.6188446e-07
-1.8899333e-19 0.0010760209 2.1019994e-07 -0.007873116 8.4768735e-06 -0.00785617 -3.7848462e-08 0.002932712
-0.003669516 -2.0199238e-07 1.9946759e-08 -0.004735529 -1.50351825e-05 0.0038408258 0.0001132627 -0.00013990697
0.003877161 -2.3916664e-08 0.007731992 -6.337391e-05 0.00018849374 0.0012600407 0.00070980506 1.758024e-07
0.002161996 2.1642039e-11 7.793159e-05 -0.0020901347 -0.0021536318 -2.6587027e-12 -0.005437348 0.005784227
1.1832184e-06 -3.2494332e-05 0.0007731669 -0.00038835654 0.0029939113 0.0076910807 0.0013208293 -1.221907e-07
0.005281092 0.00011308329 -0.0042705224 -1.8727939e-06 0.0045129447 8.020964e-07 0.00061737257 -3.2954764e-18
-0.007131499 0.007876627 0.0064666388 -0.0069011506 -0.0003083548 -0.008371304 1.0054733e-05 8.7192115e-05
7.0107873e-13 3.9561833e-08 0.004037317 -1.5627405e-05 0.00012005921 -3.4830402e-06 8.893959e-06 -6.67846e-05
0.005794063 -5.4691725e-07 -0.0024084854 -0.0003019626 -0.009866859 -0.005303748 0.00779521 6.366736e-09
0.0012689037 0.0022728525 7.039132e-05 -0.008887555 0.010320877 -8.395287e-05 -0.0011202672 -8.447332e-07
-2.4199224e-08 -0.003805698 -6.14976e-09 5.5138502e-05 -0.00068829645 -0.010170232 0.00089847296 -0.007020281
1.0854347e-06 -0.002683247 -5.241041e-07 0.00039088688 1.3241375e-05 0.0046731196 -0.0005250642 0.0022191112
-0.0004929723 -0.0049998383 0.0027670446 9.216964e-05 -0.0042190994 0.0024503353 0.0023085643 0.0037806416
-0.0043571815 8.022485e-09 6.4748484e-08 -0.00021005425 3.7706925e-06 -0.000794312 0.00010742603 -0.005387239
-8.895678e-07 -0.0034250957 0.00050953834 -1.8980787e-06 -0.006444947 -0.0030178714 -0.003704212 -0.00243274
-0.0076870737 0.006035634 0.0038318215 5.4946945e-09 -0.008981793 -0.0014024249 0.002800991 -2.724533e-09
-0.006192889 2.5414214e-05 -5.141449e-05 -1.3994088e-08 -0.00014172611 0.009229373 0.0006448131 0.0027506796
-0.0026132956 2.4682825e-13 -0.0004786277 1.4379459e-05 0.0043030665 0.00096917216 -1.6220363e-09 -1.6452766e-07
-0.00534095 3.5684167e-05 -0.0012676327 -4.601543e-05 5.868816e-07 5.004549e-07 0.00014416996 0.0031986337
-3.5651496e-07 -5.204761e-05 -2.2987984e-05 -2.0519743e-12 -3.7082455e-06 -1.0328579e-06 -7.927955e-06 -0.0068205055
0.0020913049 -0.0035204866 1.997873e-12 0.00050230604 -0.001353016 -7.065357e-18 -0.00051939883 0.003610249
-0.0015335607 -7.583921e-09 -3.5350473e-05 -9.556524e-09 0.006348337 0.001264135 0.00065738626 1.6212304e-07
0.0009207142 2.7677809e-06 0.0022646708 0.01072802 -0.0005736504 3.4509085e-05 -2.3703935e-05 0.0043014726
2.8581608e-08 0.00049886195 -0.0020191404 -0.005701576 -6.7233774e-09 6.023413e-06 2.9693589e-05 -0.003482675
-7.518579e-05 -0.00611375 -6.660055e-07 0.00024283776 -0.008226581 -0.0065130424 -0.010586576 -0.0009631773
-4.9125272e-05 -0.0007631228 3.1851116e-05 5.321957e-06 0.008096438 -0.0034779962 0.0036414645 -0.0004996193
1.5155685e-05 4.8003112e-05 2.659178e-10 0.001932768 -6.0967254e-06 2.5224166e-05 0.00021638349 -0.0073139044
